dir_save/we0_actor_final.pth (torch, 102676 bytes, 18 tensors)

value_network.gru_value_1.weight_ih f4 [105, 35]
000000 80 8b a7 bc b5 d2 d1 bd 16 ea 98 bd 63 9c 28 be
       -0.020452261 -0.10245267 -0.07466523 -0.16465907
000010 46 3b af 3d fc 91 49 3d 74 d3 91 3d 32 1e 6c 3c
       0.085562274 0.049211487 0.071204096 0.014411496
000020 14 a2 c9 3d e5 da 68 bd 00 5f 9b bd 44 a1 29 bd
       0.09845367 -0.05684938 -0.07586479 -0.04141356
000030 bd 5c 7e 3c 40 ff 4c ba 6c 62 e3 bc b4 46 a7 bd
       0.01552504 -0.00078200176 -0.027756892 -0.081677824
000040 be bd 06 3d 7c 67 38 bd 72 ed 44 3c 64 f6 b4 bd
       0.032895796 -0.045020565 0.012019502 -0.08836058
000050 67 f2 23 bd 12 51 51 3c 5b 59 01 be 3f 06 70 3a
       -0.040026095 0.012775676 -0.12631743 0.0009156204
000060 50 0e 87 bd a9 dd 01 be a4 c8 c7 3c e4 1d 80 bd
       -0.06594527 -0.12682213 0.024387665 -0.06255701
000070 ff 1f ce 3d 48 7b 64 3c c7 1d 02 be cc 14 cf 3c
       0.100646965 0.013945408 -0.12706672 0.025278471
000080 ca bf 00 3d 21 2c 92 3d 95 02 41 be f0 5e 8d bd
       0.031432904 0.07137323 -0.18848641 -0.069028735
000090 c0 6e 62 bd 83 8b d5 bc ce 8b 23 3e 6c a6 60 3e
       -0.0552814 -0.026067501 0.159713 0.21938485
0000a0 26 af 55 3b 2a ec ba 3d 91 8e 82 bd 30 83 ce bd
       0.0032605617 0.09127076 -0.06374849 -0.10083616
0000b0 51 44 f2 bc 8c fe b3 bc da 08 e3 3c de 71 29 3c
       -0.029573591 -0.021971963 0.027714182 0.010342089
0000c0 44 4e 8d 3d c0 2b be 3d 9e 7a ef 3d 38 17 7b 3c
       0.068996936 0.092856884 0.11693309 0.01532536
0000d0 d1 6d 85 bd 7e 98 97 bd 9a e5 90 3d 36 da be bc
       -0.065150864 -0.074021325 0.07075043 -0.02329741
0000e0 de 41 11 3e 88 01 88 bd 4c 0d 97 bd 3a 7d e3 3d
       0.14185283 -0.06640917 -0.07375583 0.111078694
0000f0 8f 79 a5 3c 2e 65 d0 3d 8e 41 47 bd b4 57 af 3d
       0.020199565 0.101755485 -0.048646502 0.0856165
000100 09 c1 09 bd ee 71 e6 3d 5c a8 5c 3c 9a 01 1f 3e
       -0.03363136 0.11252199 0.013467874 0.15527955
000110 a0 a6 52 bd 13 aa 24 bd 49 2b 41 3d b1 55 0e 3e
       -0.051428437 -0.040201258 0.04716042 0.13899876
000120 80 3f 0c 3d 3f 17 d4 bd 6e 9a de 3d b2 66 11 3d
       0.034240246 -0.10355996 0.10869299 0.03549833
000130 82 b6 0f bd c6 9b 7b bd f4 5a 47 3d 74 6a 10 bd
       -0.035086162 -0.061427854 0.048670724 -0.03525777
000140 33 5d 04 3d 24 cb 22 bd 56 1a 70 3d 3a 75 1a be
       0.032315444 -0.03974451 0.058618866 -0.15083781
000150 f4 28 bf bd 81 08 df bd f7 6e 7d 3b b8 72 50 3c
       -0.09333983 -0.10890294 0.0038670877 0.012722664
000160 a8 2e 8c 3d 11 c4 45 be 18 48 10 3d f8 f4 d6 3d
       0.068448365 -0.19313075 0.035225004 0.10495943
000170 a8 d9 3e 3d 3b 2a bd 3d ac 58 2d 3d 8a b8 b6 bd
       0.046594292 0.092365704 0.042320892 -0.08921917
000180 e0 9d 8f bc 02 10 b6 3d cc 9b 00 3e dd 36 ce bb
       -0.017531335 0.08889772 0.12559432 -0.0062931613
000190 8e a1 11 3e 92 a9 97 bc 40 43 cf bd 94 07 cb bc
       0.14221784 -0.018513475 -0.10120249 -0.024783887
0001a0 fe e3 d6 bd b1 1d 40 3c 01 5e c3 3c a1 d7 4c 3c
       -0.10492705 0.011725829 0.023848535 0.012502582
0001b0 98 c5 1f 3e 3a 4c dd bd 40 95 c3 bd b0 11 92 be
       0.1560272 -0.10805555 -0.095499516 -0.2852912
0001c0 c2 df d4 bb 3b 6f 3d be 99 fe 72 3d 22 b4 1d 3e
       -0.0064964006 -0.18499462 0.059324834 0.15400746
0001d0 ff d1 d6 bd cd 7d be bd 7a 1f eb 3d 07 86 a4 3d
       -0.10489272 -0.09301338 0.11480613 0.08033376
0001e0 af f0 af bc 36 5c 2b 3d 75 0c 1f be 77 75 5f 3d
       -0.021477072 0.041835986 -0.15532096 0.054555383
0001f0 32 fe a7 bd 00 34 07 bc 35 5c 73 bd 72 8d 9d 3d
       -0.08202781 -0.008252144 -0.059414107 0.07692994
000200 89 32 85 bd 1b 84 1a 3e 3e 84 8f 3d 40 95 0e 3d
       -0.065037794 0.15089457 0.07007645 0.034810305
000210 35 2d 90 3d 8b 83 69 3d 42 a3 65 3d 8e 90 36 bd
       0.070398726 0.057010215 0.056063898 -0.04457145
000220 e1 a6 2b be 8a ae 46 bd 15 d6 f6 3c 80 1c 2a bc
       -0.16762878 -0.048506297 0.03013138 -0.0103827715
000230 19 61 ce 3d b6 1d 0c 3e 7b c0 49 3d f6 a2 c6 3d
       0.10077114 0.13683209 0.04925583 0.09699051
000240 a8 3e 04 3e 34 9a 85 bd 5d a6 44 bd fa b0 7b bd
       0.12914526 -0.065235525 -0.04801022 -0.061448075
000250 0a 4f fc bc c4 98 f0 bd 99 ca d5 bc b3 b1 a7 3c
       -0.030799408 -0.11747888 -0.026097583 0.020470476
000260 44 cf 9e 3b 56 1c e6 bd 84 eb b9 3d 0a e9 c1 bd
       0.0048464853 -0.112358734 0.09078124 -0.09468277
000270 a4 8c 84 3d f4 a3 57 3d 77 85 df 3d 32 30 8f bb
       0.064721376 0.052646592 0.10914128 -0.004369759
000280 af 1e a6 3d 11 fa d8 bd cb 1c 08 3d 15 01 4a 3d
       0.08111321 -0.105945714 0.033230584 0.04931744
000290 3e fc 5a bc d3 99 0a bd f5 fe 58 be cc af 8d bd
       -0.013365803 -0.033838104 -0.21191008 -0.06918296
0002a0 ec 2b 16 bd 85 7b cc bd 54 11 fa bd a4 00 90 3c
       -0.03666298 -0.09984497 -0.12210336 0.01757843
0002b0 24 15 29 3d f2 8f 86 3e 30 bb 6c 3d e9 32 88 3d
       0.041279927 0.26281697 0.057795703 0.06650335
0002c0 51 25 71 3c e9 ff 24 3d 58 c7 0a bc 1e f5 31 bd
       0.01471837 0.040283117 -0.008470379 -0.043446653
0002d0 a0 1e 93 bd e5 86 88 3d 74 b2 42 3e 95 4f 04 bd
       -0.07183576 0.06666354 0.19013387 -0.032302458
0002e0 4c 3c 8f bd c4 e3 8c 3d 62 28 bb 3d 89 ce d2 bd
       -0.069939226 0.0687938 0.09138562 -0.102933
0002f0 07 be 81 bd 99 ce 39 3d c6 82 e9 bd d9 f5 73 3d
       -0.06335073 0.045363043 -0.11401896 0.05956063
000300 d8 c0 a5 3a 3d 7d d1 bd 03 55 e2 3d ca f6 35 3e
       0.0012645973 -0.102289654 0.11051371 0.17769924
000310 f0 5a 01 3e 2a 08 06 3e ca d6 74 be 3c b8 c9 bd
       0.12632346 0.13089052 -0.2391006 -0.09849593
000320 d8 69 bf bd 07 7a ef 3d 7b 57 3b 3e 7d f4 c5 bd
       -0.0934636 0.11693197 0.1829509 -0.09665773
000330 d3 ba 6d 3d 17 2c 69 bd f7 b6 18 be 23 8c 3b 3d
       0.058039498 -0.056926813 -0.14913546 0.04578794
000340 ae b7 06 bd d7 32 ed 3c 5e 3e d3 bd 65 66 4c bd
       -0.032890014 0.028954906 -0.1031463 -0.04990234
000350 a0 9d 5b bd 8f 6a c5 bd 83 5e 68 3d 5f cb e6 3c
       -0.05361712 -0.09639465 0.05673076 0.028173147
000360 e0 50 bd 3c d6 72 37 3e c9 3d 8b bd 46 50 32 bd
       0.023109853 0.179149 -0.06798894 -0.043533586
000370 b0 69 38 3e f4 d2 13 3e 4a 34 28 3d 35 ab c2 3d
       0.18009067 0.14435941 0.04106549 0.095053114
000380 36 7d 86 3d 56 9f 00 be 70 02 81 bc 97 ef 67 be
       0.06566851 -0.12560782 -0.015748233 -0.2264999
000390 f4 88 53 3a 3f e9 9c 3d 04 20 61 3d 6a 15 16 bd
       0.0008069419 0.07661676 0.054962173 -0.036641516
0003a0 71 a1 29 3d 8a e4 c7 3d 7f d9 38 be 1b 3d 9c bd
       0.04141373 0.09760387 -0.18051718 -0.076288424
0003b0 3f 9d 73 be 1c b6 a9 bd 48 e5 a5 3b 63 e4 87 3d
       -0.23790453 -0.08286688 0.005062733 0.06635358
0003c0 e2 a2 1b be 61 9f df 3d 42 af a0 3c 9a 40 c3 bd
       -0.15198854 0.10919071 0.01961482 -0.09533806
0003d0 be 96 0a 3e 3e 36 dd 3a 2a f0 57 3e 5d 87 34 bd
       0.13534066 0.0016877127 0.21087709 -0.044074405
0003e0 e3 86 93 bd 3b 94 54 bd 15 9d 5c 3d b6 72 06 3e
       -0.07203462 -0.051899176 0.053860743 0.13129696
0003f0 a8 c4 21 be eb b1 0d be 97 ac e5 bd 9b d5 77 3d
       -0.15797675 -0.13837402 -0.112145595 0.060506444

value_network.gru_value_1.weight_hh f4 [105, 35]
000000 30 9c 49 3e 68 d7 cb 3c 50 c8 ce bd d0 a4 bd bd
       0.19688487 0.024882987 -0.100968 -0.09259951
000010 40 bc 9e bc 5d 45 19 be ce a6 13 be 32 86 03 3e
       -0.019376874 -0.14967866 -0.144191 0.1284416
000020 c0 5c cd 3a 4c b5 11 be 6f 9a 21 3d f0 9e 2a 3c
       0.00156679 -0.14229316 0.03945392 0.01041387
000030 43 91 6b bd 18 d0 6c bc 0f 3d 2f be 14 b7 5d 3d
       -0.05751158 -0.01445391 -0.17113136 0.054129675
000040 ee fc 6f 3d 6d 1a b3 3d ba fc 89 bd 18 2d 5b bd
       0.058590822 0.08745275 -0.06737657 -0.0535098
000050 16 eb 5c 3d 39 d5 e4 3d 3f 5e c4 bb 60 a8 be 3d
       0.053935133 0.111734815 -0.0059926803 0.09309459
000060 32 43 cc bc 76 91 03 be 5a 43 6e 3d 3c f8 32 3d
       -0.024934385 -0.12848458 0.0581697 0.043693766
000070 7e ae 1b 3e c9 ec 18 bd 5a cf dc 3c 42 d6 44 3e
       0.15203282 -0.03733519 0.026954342 0.19222358
000080 66 8e bd bd 7a 26 94 bc 8b 71 c5 bc 0b 78 c7 bd
       -0.09255676 -0.018084753 -0.024101993 -0.09739693
000090 28 1d 5e be 3c e3 80 3d fa 82 89 be 76 86 4d 3d
       -0.2169081 0.062933415 -0.2685774 0.05017706
0000a0 df a9 9b 3d 70 21 8a ba 99 af cb 3d 62 1d 5a bd
       0.0760076 -0.001053853 0.09945602 -0.053250678
0000b0 80 79 54 bb 45 82 70 bd de 43 bc 3d 65 32 a3 3b
       -0.0032421052 -0.058717985 0.09192632 0.0049803727
0000c0 6f df 36 be 9a 70 21 bd e6 ef 7a 3d 96 93 1f be
       -0.1785867 -0.039414026 0.06126394 -0.15583643
0000d0 84 d4 2e 3c 4f fa ce bd 04 28 97 3c f0 aa 80 bd
       0.010670785 -0.10106336 0.018451698 -0.06282604
0000e0 75 b7 9c 3d 2b b1 16 3d 96 65 db bd 25 49 7d bd
       0.07652179 0.036790054 -0.10712735 -0.061837334
0000f0 72 af 8f 3c 18 32 03 3e bb 23 08 3d a7 eb 00 be
       0.017539714 0.12812078 0.0332372 -0.12589894
000100 ed e2 73 be 94 b5 e7 3d c1 85 c6 3d 4d f2 4b bd
       -0.23817034 0.1131393 0.0969348 -0.049791623
000110 18 43 b1 bd 65 d4 d7 bd 68 f4 96 bd ae 44 80 bd
       -0.08655375 -0.10538558 -0.073708355 -0.062630996
000120 80 ba e8 bd 76 02 e1 bd 59 34 4d bd af e2 4a 3e
       -0.11363697 -0.109867975 -0.05009875 0.19813035
000130 72 c8 51 bd 1b fb 4d be 77 1e 28 3d 6e fa 5e bd
       -0.05121655 -0.2011532 0.04104468 -0.054438047
000140 ab 36 3e be 38 2e 55 bd 9f ec a9 bd 39 bd f5 bc
       -0.18575542 -0.05204603 -0.08297085 -0.029997455
000150 f8 1f 82 3c 58 34 56 3c 77 7b 94 3d 38 59 03 3d
       0.015884385 0.013074003 0.072501116 0.032067508
000160 e1 37 88 3d a6 e9 2c 3c 3a 57 3b be d9 63 12 3d
       0.06651283 0.010553753 -0.18294993 0.035739753
000170 74 37 67 3d 7d 9b d9 bd c6 63 fa bc 9b 9a 8f bd
       0.05644937 -0.1062536 -0.030565154 -0.070119105
000180 43 c0 81 3c 52 cb 84 bd 90 8a 47 bd ce 4c 79 3d
       0.015838748 -0.06484093 -0.048716128 0.060864262
000190 80 bc 1f 3e a2 12 a5 3d 6c bf 6d 3e ff 02 4e be
       0.15599251 0.080601946 0.23217553 -0.2011833
0001a0 2f 91 8f 3c 4c 45 a4 bc 69 1e 59 bd 71 a1 be 3d
       0.017525284 -0.020052575 -0.053007517 0.09308136
0001b0 c0 b3 bc 3c a4 3f 05 bd c1 2b dc bd e9 e7 3e 3d
       0.02303493 -0.032531396 -0.10750533 0.046607886
0001c0 ea 28 af 3c f6 5b cd bd 6b 9f 80 bd 90 01 ab 3d
       0.021381814 -0.10027306 -0.062804066 0.083499074
0001d0 f5 39 fb bc d6 38 c6 bd 83 19 96 bd a4 a6 d7 3d
       -0.030667285 -0.09678809 -0.07329085 0.10529831
0001e0 d4 5f f1 bb 89 07 8e 3d 2b 00 8a bc a2 ce 0a 3e
       -0.00736616 0.06935031 -0.016845783 0.13555387
0001f0 d1 f1 82 be 99 25 99 be e0 f1 3e be 8f fa 87 bd
       -0.25575116 -0.29911497 -0.18646955 -0.06639587
000200 28 86 85 3d de ea 91 bd 32 0b e0 3b d9 f5 4d 3d
       0.06519729 -0.071248755 0.006837272 0.050283287
000210 2d 9d 08 3e c1 a5 8b bd af 36 f6 bd db b0 d6 bd
       0.13341208 -0.068187244 -0.12022149 -0.10482951
000220 97 c0 5c 3e 5c d0 61 bd 94 d1 55 bd 6d d5 17 bd
       0.21557842 -0.055130348 -0.052201822 -0.037068773
000230 16 cb 2f be b6 03 88 3b aa d9 c9 3c c1 aa 1c 3c
       -0.17167315 0.004150833 0.024639923 0.009562195
000240 00 e8 cf ba f4 0f 65 3c 74 58 3e be 63 86 93 3c
       -0.0015861988 0.013980854 -0.1858843 0.018008417
000250 1c f4 16 bb fa 01 35 bc fa a6 70 be ff 38 96 3c
       -0.0023033684 -0.0110478345 -0.23501197 0.018337725
000260 e4 be 46 bc d1 7c 2a 3d f6 c5 4c 3d c0 df 0f 3e
       -0.012130473 0.04162294 0.049993478 0.14050198
000270 38 b9 7d bc 0b 21 2f be f2 85 cc 3d a2 9d b0 bc
       -0.015486054 -0.17102449 0.099864855 -0.02155954
000280 e8 bc d5 3c bf 24 0e be 88 df fd 3d a0 7d ac 3b
       0.026091054 -0.13881205 0.12396151 0.005263999
000290 61 a3 94 bc f2 e3 0e bd 5c a9 a1 3d 06 ab fa bd
       -0.018144311 -0.034885354 0.07893631 -0.122396514
0002a0 29 41 b9 3d 8a b9 3a 3c e6 94 8d 3c c1 48 fc 3d
       0.090456314 0.011396775 0.017282914 0.12318564
0002b0 82 60 a8 bb 77 00 99 3d 9a 77 1e bd 21 7d 2f bd
       -0.0051384578 0.07470792 -0.03868828 -0.04284394
0002c0 cb c1 5d 3d 86 6e 83 3d 59 ba c4 bd bc 1c cb bd
       0.054139894 0.06417565 -0.096058555 -0.0991759
0002d0 40 66 0c bd 72 06 95 bd 5d 6d bc bc eb be 91 3d
       -0.0342772 -0.0727662 -0.023001367 0.07116493
0002e0 40 ab e6 3c 3e f4 e5 bd 59 7a 17 be 2a 65 88 bc
       0.02815783 -0.11228226 -0.14792766 -0.016649801
0002f0 4e ca bc bc 85 ab 8e 3d 40 d5 cb bd 70 5a ba bd
       -0.023045685 0.069663085 -0.099527836 -0.09099281
000300 9f 72 c4 bd 3d cd 2b be 65 55 4c be f4 4f 43 3e
       -0.09592175 -0.16777511 -0.1995445 0.19073468
000310 31 79 f3 bd 58 dc 64 3d d0 f6 59 3d cc e7 63 be
       -0.1188835 0.0558742 0.053213894 -0.22256392
000320 f9 31 d6 3c 0c 7b c6 bc f4 1f 68 bd 48 6e 82 3d
       0.026146876 -0.024228595 -0.056671098 0.06368691
000330 56 f1 db bd 25 77 d4 3d 12 1a 07 be b5 fa 06 3d
       -0.107393906 0.103742875 -0.13193539 0.032953937
000340 f0 93 e5 bd 74 41 aa bc 14 94 13 be ca db 28 be
       -0.112098575 -0.020783164 -0.14411956 -0.16490093
000350 38 9a 48 bd 29 57 f8 bd 0e a5 c2 3d ea a9 68 be
       -0.0489752 -0.121259995 0.09504138 -0.22721067
000360 b0 1a 99 bd dc 3a 15 3d cc ba 21 3d 9e c9 4e bd
       -0.07475793 0.036433086 0.039484784 -0.050485246
000370 21 15 f9 bd a5 38 c0 bd 42 75 5a bc c6 3f eb 3c
       -0.12162233 -0.09385804 -0.0133336205 0.028716933
000380 a0 2a 26 3b 92 a5 c0 bd b8 95 d8 bd e7 5e 09 3d
       0.0025354996 -0.0940658 -0.105754316 0.03353777
000390 98 c8 28 3e 6c 9e ca 3d b0 ce c6 3d 6c f3 4c bd
       0.1648277 0.09893498 0.09707391 -0.050036833
0003a0 59 94 81 3c 8a 90 1a 3d d0 1d 79 3c 68 fe 81 3d
       0.015817808 0.0377355 0.015204862 0.06347352
0003b0 3b 5b 43 bd e8 45 fa bc eb fa a2 bd 25 37 d3 bc
       -0.047694426 -0.030550912 -0.07958015 -0.02578313
0003c0 3d d6 14 3d 3b 79 2f be 40 5a c3 3b 80 04 41 3a
       0.036337126 -0.1713609 0.0059616864 0.0007363036
0003d0 09 d9 1a 3d 83 60 27 3d 26 a7 e0 bd 96 2e aa 3e
       0.037804637 0.040863525 -0.10969381 0.33238667
0003e0 6c dc 15 3c cf 56 38 bd 8b 63 cb ba 13 c4 18 3e
       0.009146791 -0.045004662 -0.0015517337 0.14918546
0003f0 00 a3 08 3b 5c 3d 45 3d a1 f1 20 be a7 3a 6a bd
       0.0020849109 0.04815422 -0.15717174 -0.05718484

value_network.gru_value_1.bias_ih f4 [105]
000000 00 00 00 00 00 00 00 00 00 00 00 00 00 00 00 00
       0.0 0.0 0.0 0.0
000010 00 00 00 00 00 00 00 00 00 00 00 00 00 00 00 00
       0.0 0.0 0.0 0.0
000020 00 00 00 00 00 00 00 00 00 00 00 00 00 00 00 00
       0.0 0.0 0.0 0.0
000030 00 00 00 00 00 00 00 00 00 00 00 00 00 00 00 00
       0.0 0.0 0.0 0.0
000040 00 00 00 00 00 00 00 00 00 00 00 00 00 00 00 00
       0.0 0.0 0.0 0.0
000050 00 00 00 00 00 00 00 00 00 00 00 00 00 00 00 00
       0.0 0.0 0.0 0.0
000060 00 00 00 00 00 00 00 00 00 00 00 00 00 00 00 00
       0.0 0.0 0.0 0.0
000070 00 00 00 00 00 00 00 00 00 00 00 00 00 00 00 00
       0.0 0.0 0.0 0.0
000080 00 00 00 00 00 00 00 00 00 00 00 00 00 00 00 00
       0.0 0.0 0.0 0.0
000090 00 00 00 00 00 00 00 00 00 00 00 00 00 00 00 00
       0.0 0.0 0.0 0.0
0000a0 00 00 00 00 00 00 00 00 00 00 00 00 00 00 00 00
       0.0 0.0 0.0 0.0
0000b0 00 00 00 00 00 00 00 00 00 00 00 00 00 00 00 00
       0.0 0.0 0.0 0.0
0000c0 00 00 00 00 00 00 00 00 00 00 00 00 00 00 00 00
       0.0 0.0 0.0 0.0
0000d0 00 00 00 00 00 00 00 00 00 00 00 00 00 00 00 00
       0.0 0.0 0.0 0.0
0000e0 00 00 00 00 00 00 00 00 00 00 00 00 00 00 00 00
       0.0 0.0 0.0 0.0
0000f0 00 00 00 00 00 00 00 00 00 00 00 00 00 00 00 00
       0.0 0.0 0.0 0.0
000100 00 00 00 00 00 00 00 00 00 00 00 00 00 00 00 00
       0.0 0.0 0.0 0.0
000110 00 00 00 00 00 00 00 00 00 00 00 00 00 00 00 00
       0.0 0.0 0.0 0.0
000120 00 00 00 00 00 00 00 00 00 00 00 00 00 00 00 00
       0.0 0.0 0.0 0.0
000130 00 00 00 00 00 00 00 00 00 00 00 00 00 00 00 00
       0.0 0.0 0.0 0.0
000140 00 00 00 00 00 00 00 00 00 00 00 00 00 00 00 00
       0.0 0.0 0.0 0.0
000150 00 00 00 00 00 00 00 00 00 00 00 00 00 00 00 00
       0.0 0.0 0.0 0.0
000160 00 00 00 00 00 00 00 00 00 00 00 00 00 00 00 00
       0.0 0.0 0.0 0.0
000170 00 00 00 00 00 00 00 00 00 00 00 00 00 00 00 00
       0.0 0.0 0.0 0.0
000180 00 00 00 00 00 00 00 00 00 00 00 00 00 00 00 00
       0.0 0.0 0.0 0.0
000190 00 00 00 00 00 00 00 00 00 00 00 00 00 00 00 00
       0.0 0.0 0.0 0.0
0001a0 00 00 00 00
       0.0

value_network.gru_value_1.bias_hh f4 [105]
000000 00 00 00 00 00 00 00 00 00 00 00 00 00 00 00 00
       0.0 0.0 0.0 0.0
000010 00 00 00 00 00 00 00 00 00 00 00 00 00 00 00 00
       0.0 0.0 0.0 0.0
000020 00 00 00 00 00 00 00 00 00 00 00 00 00 00 00 00
       0.0 0.0 0.0 0.0
000030 00 00 00 00 00 00 00 00 00 00 00 00 00 00 00 00
       0.0 0.0 0.0 0.0
000040 00 00 00 00 00 00 00 00 00 00 00 00 00 00 00 00
       0.0 0.0 0.0 0.0
000050 00 00 00 00 00 00 00 00 00 00 00 00 00 00 00 00
       0.0 0.0 0.0 0.0
000060 00 00 00 00 00 00 00 00 00 00 00 00 00 00 00 00
       0.0 0.0 0.0 0.0
000070 00 00 00 00 00 00 00 00 00 00 00 00 00 00 00 00
       0.0 0.0 0.0 0.0
000080 00 00 00 00 00 00 00 00 00 00 00 00 00 00 00 00
       0.0 0.0 0.0 0.0
000090 00 00 00 00 00 00 00 00 00 00 00 00 00 00 00 00
       0.0 0.0 0.0 0.0
0000a0 00 00 00 00 00 00 00 00 00 00 00 00 00 00 00 00
       0.0 0.0 0.0 0.0
0000b0 00 00 00 00 00 00 00 00 00 00 00 00 00 00 00 00
       0.0 0.0 0.0 0.0
0000c0 00 00 00 00 00 00 00 00 00 00 00 00 00 00 00 00
       0.0 0.0 0.0 0.0
0000d0 00 00 00 00 00 00 00 00 00 00 00 00 00 00 00 00
       0.0 0.0 0.0 0.0
0000e0 00 00 00 00 00 00 00 00 00 00 00 00 00 00 00 00
       0.0 0.0 0.0 0.0
0000f0 00 00 00 00 00 00 00 00 00 00 00 00 00 00 00 00
       0.0 0.0 0.0 0.0
000100 00 00 00 00 00 00 00 00 00 00 00 00 00 00 00 00
       0.0 0.0 0.0 0.0
000110 00 00 00 00 00 00 00 00 00 00 00 00 00 00 00 00
       0.0 0.0 0.0 0.0
000120 00 00 00 00 00 00 00 00 00 00 00 00 00 00 00 00
       0.0 0.0 0.0 0.0
000130 00 00 00 00 00 00 00 00 00 00 00 00 00 00 00 00
       0.0 0.0 0.0 0.0
000140 00 00 00 00 00 00 00 00 00 00 00 00 00 00 00 00
       0.0 0.0 0.0 0.0
000150 00 00 00 00 00 00 00 00 00 00 00 00 00 00 00 00
       0.0 0.0 0.0 0.0
000160 00 00 00 00 00 00 00 00 00 00 00 00 00 00 00 00
       0.0 0.0 0.0 0.0
000170 00 00 00 00 00 00 00 00 00 00 00 00 00 00 00 00
       0.0 0.0 0.0 0.0
000180 00 00 00 00 00 00 00 00 00 00 00 00 00 00 00 00
       0.0 0.0 0.0 0.0
000190 00 00 00 00 00 00 00 00 00 00 00 00 00 00 00 00
       0.0 0.0 0.0 0.0
0001a0 00 00 00 00
       0.0

value_network.MLP_1.weight f4 [64, 35]
000000 20 90 af bd 51 c3 81 bd 62 6b 28 be 6e b5 14 3e
       -0.085724115 -0.06336082 -0.16447213 0.14522335
000010 cb b8 80 3e 97 9c 38 3e f5 9b 87 be ce b4 07 bc
       0.25140986 0.18028484 -0.26486173 -0.008282853
000020 f6 bd 35 bd d3 d0 ea 3d 7f 1a f7 bd 41 5a 32 3d
       -0.044370614 0.11465611 -0.120656006 0.043543104
000030 d6 2f fa bd 2f 08 83 be 31 7c 5b 3e d7 08 20 3e
       -0.12216155 -0.2559218 0.21434094 0.15628372
000040 6b 29 aa 3e e3 e3 34 3d a1 8d f4 3e 45 d0 a7 bd
       0.33234724 0.044162642 0.47764304 -0.08194021
000050 fd 86 51 bd c3 a1 ce bb 7a 16 e4 bc 98 db 36 3e
       -0.051154125 -0.0063059046 -0.027842749 0.17857206
000060 6a 22 30 be 4e ee 9e 3e 61 48 38 3e fc 84 5b 3c
       -0.17200628 0.31041187 0.1799636 0.013398405
000070 7a 0e ab bc bc 40 46 bc 0a 5e 43 3e 7c c4 18 3e
       -0.020880926 -0.012100395 0.19078842 0.14918703
000080 1a 62 6c bc e9 bc 8c be 34 d8 66 3c 86 ad 84 bd
       -0.014427686 -0.27487877 0.014089633 -0.064784095
000090 1d ca a6 be 86 b9 ef bd dd 43 5c bc 0e 35 23 3d
       -0.32576075 -0.11705308 -0.013443914 0.03984552
0000a0 96 f4 21 3d 6a c6 07 bf b2 bf 0f be 4b 76 18 3e
       0.039539896 -0.5303713 -0.1403797 0.14888875
0000b0 94 4a 15 bd 70 30 48 3c c3 fa 9d bc 3f 35 8f 3a
       -0.036448076 0.01221858 -0.019284612 0.0010925903
0000c0 22 42 71 be c6 32 4f 3e 56 bf 6e 3e e1 4b 7b 3d
       -0.23560384 0.20234212 0.23315176 0.06135166
0000d0 47 23 ee bd a3 2d 55 bd 6a 17 b1 3b f0 c9 7f 3c
       -0.11627822 -0.052045476 0.0054044025 0.0156121105
0000e0 e0 5a 50 be 96 e2 a0 3c 54 e7 28 be db 7b cf 3d
       -0.20347166 0.019639295 -0.16494495 0.101310454
0000f0 dd 27 a3 3d a2 41 00 3e be d7 29 3e 70 e4 ee 3d
       0.07966588 0.12525037 0.16586205 0.11664665
000100 24 d2 80 3e af c7 e7 bd fc 07 c1 3d 5f 0c 36 be
       0.25160325 -0.113173835 0.09425351 -0.17778157
000110 d4 9a 9c be ee 41 57 3e b1 1e b2 be 05 c2 e4 bd
       -0.30586874 0.21021244 -0.3478904 -0.11169819
000120 c2 70 da bd fe 66 98 bc 09 6b 34 bd 74 59 6a bd
       -0.10666038 -0.018603798 -0.04404739 -0.057214215
000130 d1 25 ab be 2a 5b cc 3d b5 d0 5f 3e 2e 9e fe 3c
       -0.3342729 0.09978326 0.21856959 0.031081285
000140 d0 16 ac 3d d1 e4 b0 bd 1b 45 ce bd 55 ff a6 3d
       0.08402789 -0.08637393 -0.100717746 0.081541695
000150 3b cb 77 bd 03 52 83 3e 3d 28 b1 3e 96 46 ec 3d
       -0.06049655 0.25648507 0.34601012 0.11536901
000160 3d 7c 3a 3e cb b9 7d be 91 57 e9 bc 4a 38 c1 bd
       0.18211456 -0.24777906 -0.028484138 -0.094345644
000170 fb 86 e2 3c 4d 83 b2 bc c9 b5 ee bd 75 13 60 3e
       0.027652254 -0.021791125 -0.116557665 0.21882422
000180 71 dd 6f 3e 81 db 9d bd 8b 31 39 3b 31 23 f2 bd
       0.23424317 -0.07707883 0.002825829 -0.118231185
000190 f4 cf 3e 3c 75 1b a8 bc 9e 9b c3 3e a1 d5 06 3e
       0.01164626 -0.020520905 0.38204664 0.1316743
0001a0 82 c5 66 be af 75 a6 bd 03 fd 3f 3d de 2a cd be
       -0.22536281 -0.08127915 0.04687215 -0.40071768
0001b0 3d 21 c3 3d d9 23 75 3e 14 a8 63 3e e0 5b c1 bd
       0.09527824 0.23939456 0.22232085 -0.09441352
0001c0 c1 14 66 bc b3 ff a2 3e 35 37 3d be a0 97 22 be
       -0.014043034 0.31835708 -0.18478091 -0.15878153
0001d0 44 e1 99 3e 75 68 4e be 97 b9 ea bd 6f 8e f1 3d
       0.30054677 -0.20157035 -0.1146118 0.11794745
0001e0 a6 7d d7 bd 9b 2b 90 3d de 44 31 3d 6c 59 ef 3c
       -0.105220124 0.07039567 0.043278567 0.029217444
0001f0 aa 01 66 3e 6c a8 35 3e 72 e2 61 be 49 15 fb bd
       0.22461572 0.17740029 -0.22059038 -0.12259919
000200 e3 69 f1 3d 42 86 eb bd 2d a6 e0 3d 7a 0d a1 3d
       0.117877744 -0.11500217 0.109691955 0.078638986
000210 72 b2 aa 3d 07 34 08 3e f4 d6 cf 3d 69 82 7f 3e
       0.08334817 0.13301097 0.10148421 0.24952091
000220 3b 65 5b 3e be e4 19 3d 40 ae 94 bd 17 de ef 3d
       0.21425335 0.03757166 -0.07259798 0.11712282
000230 cb 73 08 be 7e ae 52 3d 4e 20 5a 3d 50 21 63 bd
       -0.13325422 0.05143594 0.053253464 -0.05545169
000240 cb 41 c5 bd 14 e9 d8 3e 81 ef d1 be c8 a9 96 3c
       -0.0963169 0.42365324 -0.4100304 0.018391505
000250 5f aa 95 bd 1d bb c7 bd 9f e8 6a 3e be d6 4c be
       -0.07307886 -0.09752486 0.229403 -0.20003793
000260 d3 f9 1c bd ec f1 be 3b 3a 7e 1b be ee 02 61 be
       -0.03832419 0.005827179 -0.1518487 -0.21973774
000270 0c bf 18 3e 97 39 73 3e 6b 1e be bd 5f 6f b7 3d
       0.14916629 0.23752438 -0.092831455 0.08956789
000280 9d 0a 71 3d 50 e3 e9 3d 65 73 81 3e 8f b0 5f bd
       0.058848012 0.114203095 0.25283352 -0.05461174
000290 3d 8e a7 3d 38 15 0f 3e 4e c6 34 3e 2b a6 78 be
       0.08181427 0.13972938 0.17653772 -0.24282138
0002a0 05 52 79 be aa b2 ab bd 4e 70 b9 3d 6a 4e 43 3d
       -0.24347694 -0.08383687 0.090546235 0.047682203
0002b0 fa 38 44 be 24 e8 2e be 10 69 17 3e 5e e4 43 bd
       -0.1916236 -0.17080742 0.14786172 -0.04782521
0002c0 20 f2 47 be 7e 56 48 be 93 c7 7f be dc 84 60 3e
       -0.19525957 -0.19564244 -0.24978475 0.21925682
0002d0 5a e0 a9 3c 4a 40 b6 bc 16 81 e9 3d fa 97 a1 bd
       0.020736862 -0.022247452 0.11401574 -0.07890315
0002e0 5b 11 78 bc 05 00 0c be 51 87 b5 3d e0 8f 1a be
       -0.015140857 -0.13671882 0.088637 -0.15093946
0002f0 ba 4a c1 b9 d7 e2 90 be 5d 40 33 bd 8d 92 91 3e
       -0.00036867504 -0.28298065 -0.043762553 0.28432122
000300 7d f6 16 3e d8 17 51 bc 25 63 5a bd c5 b6 30 be
       0.14742465 -0.012762032 -0.053317208 -0.17257221
000310 8b 63 c7 3d 88 56 f3 bc 51 d6 87 3d b1 fb 87 3d
       0.09735783 -0.029704347 0.066326745 0.06639803
000320 74 3f 3b 3e da d9 39 be 0a 6a 3b be 3e cf 34 bc
       0.18285924 -0.1814951 -0.1830217 -0.0110357385
000330 ef e1 8a 3e b7 bc cc be 86 24 20 3e 66 1c 62 be
       0.271255 -0.39987728 0.15638933 -0.22081146
000340 49 74 e3 bd ad ee 37 be 22 89 d6 bd 09 b0 0a 3e
       -0.11106164 -0.17962141 -0.10475375 0.13543715
000350 86 80 b4 3e b3 c7 8d 3e 60 67 2d 3d ff 25 42 be
       0.35254306 0.2769142 0.042334914 -0.18959807
000360 6a 18 f9 bb 0f 49 54 3e 30 26 a0 3d 90 00 32 be
       -0.0076017873 0.20730995 0.07819784 -0.17383027
000370 69 4e 9a 3e a4 3b 59 3e f4 db 20 3d e1 bc 98 bc
       0.30137947 0.21214157 0.039272264 -0.018644752
000380 48 e5 a4 bb b1 60 a8 3d 21 4a 29 3d 0c 30 2c 3b
       -0.0050322153 0.082215674 0.04133046 0.0026273755
000390 a3 ce 90 3d 30 18 eb bd 5d 10 d6 3c 3b 4f b5 bd
       0.07070663 -0.11479223 0.02613085 -0.08853003
0003a0 78 ea 48 be 9b e1 6c be 1e c3 82 3d 43 77 b3 3d
       -0.19620693 -0.23132937 0.06384872 0.08762982
0003b0 78 d6 e9 bd 16 28 53 3e ae 99 fc be 7d 32 38 bd
       -0.1141786 0.2062076 -0.49335998 -0.044970024
0003c0 5f 0c 83 3c 7f 48 79 3e 95 39 73 be 83 27 a2 3c
       0.01599711 0.24344061 -0.23752435 0.019794231
0003d0 be ef 09 be 49 78 48 3d 21 b6 de bd cd e8 0e 3e
       -0.1347036 0.048942838 -0.10874582 0.13955994
0003e0 ed 4c 83 3d bb cc 15 3d d7 de 7a bc 34 6b 07 3e
       0.06411157 0.0365722 -0.015311918 0.13224488
0003f0 8d 45 5e be 8d 9e cc bd 72 e6 5a 3c 53 96 39 3d
       -0.21706219 -0.09991179 0.0133606065 0.045309376

value_network.MLP_1.bias f4 [64]
000000 ce 5c eb 3d f9 f4 1c 3e 74 56 cd 3d 12 5b ba 3d
       0.114923105 0.15327825 0.10026255 0.090994015
000010 7d 1d c6 3d ee fb b8 bd b5 64 9b bd 0f 70 92 bd
       0.09673593 -0.09032427 -0.07587568 -0.0715028
000020 07 79 e3 3d bc b7 26 3e 1c a4 c9 bd a4 5c c3 3d
       0.111070685 0.16281027 -0.098457545 0.09539154
000030 2f 4b 5f 3d 3e 89 91 bd 6c 07 9b 3d b3 2c 4b be
       0.05451506 -0.07106255 0.07569775 -0.1984127
000040 7f cb aa 3d a5 19 17 be 14 69 06 be f8 72 fd 3b
       0.08339595 -0.14755876 -0.13126022 0.0077346526
000050 7d ed be 3d 28 70 70 3e fe 2b 98 3d 16 97 ed 3d
       0.09322641 0.23480284 0.07430266 0.11601083
000060 fc 8f 97 3d b1 d5 47 be 37 e2 40 be 6c 09 9f 3d
       0.0740051 -0.1951511 -0.18836294 0.07765469
000070 78 b0 d7 3d 84 19 a6 bd ec c4 d4 bd 34 f8 c4 3d
       0.105317056 -0.081103355 -0.10389122 0.096176535
000080 2d 1c 56 be 94 db bb 3d de 64 16 3e 18 6e b4 bd
       -0.20909186 0.091727406 0.14686915 -0.08810061
000090 57 d7 d4 3d 63 17 b3 be a8 73 8f bd 40 7a bf 3d
       0.10392635 -0.3497878 -0.070044816 0.09349489
0000a0 29 06 be bd e1 b6 ed 3d d8 a9 67 be bb 19 a2 3d
       -0.09278519 0.11607147 -0.22623384 0.07915064
0000b0 61 8b 3c bc eb a6 cd 3d a7 cd ca bc 0e 07 ea 3d
       -0.01150784 0.10041603 -0.024756266 0.11427127
0000c0 c0 1b 7d be 11 47 10 be 40 9c 71 be 4e b3 82 be
       -0.24717617 -0.1408961 -0.23594761 -0.25527424
0000d0 a8 0d 3a 3e 85 90 a8 3d 1a 88 d3 3d 0f 5d 86 3d
       0.18169272 0.0823069 0.10328694 0.06560718
0000e0 78 09 af bc 4b e6 71 be 9c 0c f5 3e 6c 5c dd bd
       -0.02136682 -0.23623006 0.47861183 -0.10808644
0000f0 e8 63 96 bd e2 b0 6c 3c e8 3c 9d bd 0a 76 dc 3d
       -0.07343274 0.014446469 -0.076776326 0.10764702

value_network.MLP_2.weight f4 [1, 64]
000000 d8 19 d7 bd 2b e4 a0 bd 54 ae 26 be 1a f5 78 be
       -0.10502976 -0.078560196 -0.16277438 -0.24312249
000010 2a 5f 5b be 60 3a bc 3e ee 04 e0 3d ae ae 12 3e
       -0.21423021 0.36763287 0.1093844 0.14324448
000020 74 ef 16 bd c1 51 0b be b9 90 32 3e f0 38 20 be
       -0.036849454 -0.13605405 0.1743802 -0.1564672
000030 c1 82 0a bc af 58 87 3d 18 62 0b be 86 17 8c 3d
       -0.008454026 0.06608712 -0.13611639 0.06840424
000040 60 22 c4 bb 47 eb ce 3d a1 ad bb 3d 71 4a b1 bb
       -0.005985543 0.10103469 0.091639765 -0.0054104854
000050 3c b0 1e be 1b 54 8e be da 21 82 bd 3e 8a d5 bd
       -0.15496916 -0.27798542 -0.06354113 -0.10426758
000060 84 bc 3f be 0c 7c ad 3d e0 4f 2d 3e 71 52 69 be
       -0.18724257 0.08470926 0.16925001 -0.22785355
000070 fe 55 17 be 9f 46 f7 3d 5c d3 11 3e ed d5 97 be
       -0.14778897 0.12074017 0.14240783 -0.296554
000080 4e 5c 06 3e 2f c4 3e be 63 8a 8a be 71 5b 4c 3e
       0.13121149 -0.18629526 -0.27058706 0.19956757
000090 db ab ea bd 5e a7 20 3d f8 c2 ce 3d 60 78 39 be
       -0.1145856 0.039222114 0.10095781 -0.18112326
0000a0 3c 92 b1 3e 9b a2 8a be cf 74 76 3d 6d e0 2f be
       0.3468188 -0.27077183 0.06016999 -0.17175455
0000b0 1a 5e d4 3b bd 8f 8d be a3 12 c2 3a 4a ee 6a be
       0.0064809443 -0.27648726 0.001480658 -0.22942463
0000c0 1e ce 12 3d 68 dd eb 3d 02 c0 76 3d 73 56 63 3d
       0.0358411 0.11516839 0.060241707 0.055502366
0000d0 86 e9 15 be 9a 46 77 be 6f 40 f4 bd d1 00 40 bd
       -0.14639863 -0.24148026 -0.11926352 -0.04687578
0000e0 78 64 1e 3c 22 50 86 3d f9 c5 21 be d7 00 1c 3e
       0.009667508 0.06558253 -0.15798177 0.15234695
0000f0 86 52 c0 3d 39 ec d8 3a e8 ac 18 3e 6d 67 1e be
       0.0939074 0.0016549892 0.14909708 -0.15469141

gru_policy_1.weight_ih f4 [105, 35]
000000 70 a9 9e 3d b3 c7 1b 3d a6 33 ef 3d fe 8a e5 bd
       0.077471614 0.038032245 0.11679773 -0.11208151
000010 36 d9 bd 3d f9 4c c1 bd d8 a3 76 bd 55 ef 92 bd
       0.09269945 -0.094385095 -0.060214847 -0.07174555
000020 ac bc dd 3d 36 0c 86 3d f2 1e 06 be d2 79 e3 bd
       0.10827002 0.06545298 -0.13097742 -0.1110722
000030 8c de 35 bc 20 51 f5 3d 07 57 9a 3d 80 4e 49 3d
       -0.011100423 0.11978364 0.075361304 0.04914713
000040 8c 78 80 3d b0 04 29 3d aa 8b f7 bd 94 cb 80 be
       0.062729925 0.041264236 -0.12087186 -0.25155318
000050 6b ca 04 3e 6b ef b0 bd c9 17 23 be 42 6a c9 3d
       0.12967841 -0.08639415 -0.15927042 0.0983472
000060 70 ca cb 3c 45 b9 05 be c1 9e bf 3d 9d 74 9b 3d
       0.024876803 -0.13058956 0.09356452 0.075906016
000070 f4 1a d8 3d 3a 06 2c be a8 e0 47 3e 91 4a 27 be
       0.10552016 -0.1679925 0.19519293 -0.16337039
000080 88 53 24 bd aa dd 31 3d 1c b4 0e 3e 56 c8 8f bb
       -0.040118724 0.043424286 0.13935894 -0.0043878956
000090 c8 a1 02 3e 2e 13 34 be 70 fe a9 3d 2b 4b b0 3d
       0.12757027 -0.17585441 0.08300483 0.08608087
0000a0 67 a5 ec bc 9e b3 fb 3c 8e f2 f6 bd aa 70 69 bd
       -0.028887464 0.030725297 -0.120579824 -0.05699221
0000b0 0a 11 5c be e8 88 39 3c 85 ab 8e bd ed 04 de 3c
       -0.21490875 0.011324145 -0.069663085 0.027101958
0000c0 6a 59 41 be 16 7f b6 bd f1 31 ee 3d 2b 21 a3 bb
       -0.18881765 -0.089109585 0.11630619 -0.004978319
0000d0 29 9e 2a 3d a2 94 ea 3c 90 1a c7 3b 4c 7b a0 3c
       0.04165474 0.028635327 0.0060761645 0.019590043
0000e0 c2 37 22 be 10 7e f7 bd 29 00 81 bd 3f b9 50 be
       -0.15841582 -0.120845914 -0.06298859 -0.20383166
0000f0 b4 15 05 bc 1d b4 c0 3c 40 69 96 bd 91 dd 99 bd
       -0.00812285 0.023523385 -0.073442936 -0.075129636
000100 0c df 86 be 1e b3 9b 3d 33 40 2d 3d d7 1d 45 bd
       -0.26342046 0.07602523 0.042297553 -0.04812416
000110 8e c1 00 bc ee 83 c7 bc 10 27 22 3e 49 4a 6d 3d
       -0.007858647 -0.024354901 0.15835214 0.057932172
000120 20 25 69 be 4b 1c e9 3d cd ad ce 3c bc 26 31 3d
       -0.22768068 0.113823496 0.025229359 0.04324983
000130 00 a3 15 3a 48 a4 a1 bd 8e 32 ab 3b a5 1a 5e bd
       0.0005708188 -0.07892662 0.0052245324 -0.05422463
000140 18 bf 98 3d 0f bc 41 3e ab 08 08 3e 3e 7e 5e bd
       0.07458323 0.18919395 0.13284557 -0.054319613
000150 93 79 9c 3c 94 a4 91 3c de e2 ae 3d 6d f2 03 bc
       0.01910094 0.017778672 0.08539365 -0.008053404
000160 5e 73 19 be 00 de 77 3c dc fc 29 be 7a 8c 11 3d
       -0.14985415 0.0151286125 -0.16600364 0.03553436
000170 e1 68 f4 3c 49 5d 86 bd 36 22 dc 3c 72 ec 9b 3d
       0.029835166 -0.065607615 0.026871782 0.07613458
000180 c7 47 03 be 1f be 89 3c 9a 5d 5d 3e 26 6d 71 3d
       -0.1282035 0.01681429 0.21617737 0.058941983
000190 aa 77 bd bd c0 bb 41 3a 46 20 5a 3d bb ab d9 3d
       -0.0925134 0.00073903427 0.053253435 0.10628458
0001a0 4e b1 64 3d 45 c0 58 bc a9 ad ff bd 05 2f 7d bd
       0.055833153 -0.013229434 -0.12484295 -0.06181242
0001b0 40 3c d5 bc 04 eb 3d be 57 f0 98 bd 29 05 e2 bd
       -0.026029706 -0.18546683 -0.07467716 -0.110361405
0001c0 7c ce c9 bc 76 17 e9 bc 74 14 4b 3d df 03 c1 3c
       -0.024634592 -0.02845357 0.049580052 0.023561416
0001d0 72 a4 7a 3d 2b c9 1c be d7 37 9c 3d b2 93 2f bd
       0.061191984 -0.15311114 0.07627838 -0.042865463
0001e0 6a 13 89 bc 55 9f 7f be 64 8e 74 3d 68 b5 1b 3e
       -0.01673289 -0.24963124 0.059706107 0.1520592
0001f0 09 ab 2a be 26 6e 44 be a1 6b af 3d 64 b3 27 bd
       -0.16666807 -0.19182643 0.085654505 -0.040942565
000200 eb 20 77 bc 58 94 cd 3d f8 2d 1f 3e f1 9e 6b 3c
       -0.015083532 0.1003806 0.1554488 0.014381156
000210 84 1b 09 be 59 cb 9a 3d f0 3d 70 3b b6 a9 16 bd
       -0.13389403 0.07558317 0.0036658011 -0.036782943
000220 ad b0 11 3e 6c 3c 22 3e d3 23 63 bd f8 74 1d 3d
       0.14227553 0.15843362 -0.055454087 0.03844163
000230 0c fc 96 bc eb 80 a7 3d be 5d 11 be 66 14 05 3e
       -0.018430732 0.08178886 -0.14195916 0.12996063
000240 60 43 2c bd 66 1c 28 3d 5d 5d 32 be da 61 29 bd
       -0.04205644 0.041042708 -0.17418428 -0.041353084
000250 31 34 72 3d 68 7e 2f 3d 20 a8 ec bd 71 f5 2f 3c
       0.059131805 0.04284516 -0.11555505 0.01073967
000260 82 5f 1a 3d 32 b2 ea bd 13 df 6a 3c 2c 88 87 3b
       0.03768874 -0.11459769 0.014335412 0.004136106
000270 67 d5 03 be 0b 42 ae 3c 70 8d c1 3c ce 05 37 bd
       -0.12874375 0.021271726 0.023627013 -0.04468327
000280 37 cd 5f 3d cf 15 98 3c 24 15 7e 3c 95 14 04 3e
       0.054639068 0.018565087 0.01550797 0.12898476
000290 c0 18 c2 3b f9 29 96 bd 55 eb 96 3c 4f b2 81 3d
       0.0059233606 -0.073322244 0.018422762 0.06332838
0002a0 49 21 7b be 29 ed 2d bd da 1f 01 be 6e c1 29 be
       -0.24524416 -0.0424625 -0.12609807 -0.16577694
0002b0 1e 8b c8 3d 7d 46 05 be 5c e4 71 bd d4 30 a0 bd
       0.097921595 -0.1301517 -0.05905567 -0.07821813
0002c0 e0 4a 33 bc a5 0b 70 3d 77 c7 c8 bd 88 68 dd 3d
       -0.010943145 0.058604855 -0.0980367 0.108109534
0002d0 80 ee a1 bc 34 56 5a bd f2 17 63 3c 10 3c c2 3d
       -0.019767046 -0.053304866 0.0138606895 0.09484112
0002e0 00 87 fe b8 93 50 9d 3d 93 20 97 bd ec 7c 2d 3d
       -0.000121368095 0.07681384 -0.0737926 0.042355463
0002f0 e6 fa 25 bd 55 c0 fc bc f4 95 ae 3a bf fb 9d 3d
       -0.04052248 -0.03085343 0.0013319836 0.077140324
000300 10 cc 3f 3d 7c 9b b6 bd c2 70 74 bd ce fd 1d 3e
       0.04682547 -0.08916375 -0.059677847 0.1542885
000310 11 03 f0 3d 43 b6 ba 3d a3 eb a1 3c 1c d2 57 3d
       0.11719335 0.09116795 0.01976568 0.05269061
000320 6c a6 8e 3d 67 9f ee bd 32 3a 36 3d a8 5a bb bc
       0.06965336 -0.11651497 0.044489093 -0.022870377
000330 2a d1 1f 3d 34 76 fb bd 16 6c 52 be 24 74 54 3c
       0.039017834 -0.12278405 -0.20549044 0.012967143
000340 66 12 a1 ba 61 45 18 3d 1f be 79 bd 05 f1 66 bc
       -0.0012288808 0.03717554 -0.06097233 -0.0140955495
000350 4b 48 99 bd c7 da 32 3c 67 e2 8e bb 84 39 a6 3d
       -0.07484492 0.010916418 -0.0043604854 0.08116439
000360 10 e8 9f bd ea 00 73 3b 17 59 ac bd 30 42 8d 3d
       -0.07807934 0.0037079402 -0.0841543 0.0689739
000370 9a a9 41 be fe 49 59 bc ba f9 f6 bd 8e 56 f9 bd
       -0.18912354 -0.01326227 -0.1205935 -0.12174712
000380 ff 9b 40 3e 36 82 34 be 2e dc c2 3c 0c 00 da bd
       0.18809508 -0.17627797 0.02378663 -0.1064454
000390 52 fa 04 bd cd cc a6 bc 43 fa 0d bd e6 4a 0f bd
       -0.032465287 -0.020361328 -0.034662496 -0.034983538
0003a0 ff 99 cb 3d 0c 00 26 3d 3e f1 50 bc 15 c7 47 3e
       0.09941482 0.04052739 -0.012752829 0.19509538
0003b0 2c a2 28 3e 43 3b de bd 16 48 dd 3c 40 88 11 bd
       0.16468114 -0.10851147 0.027011912 -0.03553033
0003c0 f8 ed 14 3e 49 14 b6 bd 16 ff f1 bd 34 41 69 3a
       0.14543903 -0.08890588 -0.11816232 0.00088979607
0003d0 75 e7 e2 bd 3a 5e ac bd 5a 97 e1 3d 7b 29 39 bd
       -0.11079303 -0.0841641 0.11015196 -0.045205574
0003e0 e9 22 0a 3e 8d 9b 48 3d 68 0f 70 bd c7 2a 28 3d
       0.1348988 0.04897647 -0.058608443 0.04105642
0003f0 a0 70 52 bd 5e 0e 1e bd d4 56 2c be c0 47 78 ba
       -0.05137694 -0.03858792 -0.16829997 -0.0009471141

gru_policy_1.weight_hh f4 [105, 35]
000000 c0 ec 3f 3d 7e ae ed 3d c0 20 a7 bc 54 15 57 bd
       0.04685664 0.11605547 -0.020401359 -0.052510574
000010 55 e6 d2 bd 90 30 2a be 96 ef a7 bd 31 45 13 be
       -0.102978386 -0.16620088 -0.08199994 -0.14381863
000020 8a e0 3c 3d f6 1f 61 be 84 45 77 bd 76 b8 22 3e
       0.046112575 -0.21984848 -0.06036903 0.15890679
000030 d1 27 62 be f4 4f b2 bd 1a 32 cd 3d 4c db 09 bd
       -0.22085501 -0.08706656 0.10019322 -0.033656403
000040 04 97 ac bd 8a 0d 8f bc e8 40 f2 3d fd de 13 3e
       -0.084272414 -0.01746251 0.11828786 0.14440532
000050 46 9d 33 bd b6 bd 77 3d 63 70 1b be de c1 3f 3d
       -0.04385116 0.060483657 -0.15179591 0.046815746
000060 db 9f 6d 3d 26 f2 0d 3e ba 63 14 3d 5c 7d 7d 3d
       0.05801378 0.13861904 0.03622792 0.06188713
000070 91 3c ca 3d 4c 37 d1 3b 60 00 42 3a 9f 09 37 3d
       0.098748334 0.0063847657 0.00074005686 0.04468691
000080 64 82 9d bd 08 39 f6 3c 0c 5d 05 3e 22 66 99 3c
       -0.07690886 0.030056491 0.13023776 0.018725459
000090 f0 76 99 3d 18 73 3b 3e b9 38 a6 bd 68 88 3f 3d
       0.07493389 0.18305624 -0.08116288 0.046760947
0000a0 af d0 a2 3c 26 d0 2d 3d dc 5a 6e bd 57 3d 68 3c
       0.019874899 0.042434834 -0.05819212 0.014174781
0000b0 2c d7 9e bd 59 27 47 3e c3 eb 36 3c e0 d6 a7 3d
       -0.077558845 0.19448604 0.011164608 0.08195281
0000c0 af e0 9e bd 9e 3f c6 3c a8 98 26 bd 88 3c 3c 3e
       -0.07757699 0.024200257 -0.040672928 0.18382466
0000d0 10 ef fe bc 34 59 7c 3c 7a 12 42 3d a7 02 37 3c
       -0.031119853 0.015402127 0.047380902 0.011170066
0000e0 3f e8 1f be 2a d8 f9 bc af 52 a6 3c 87 ad f2 bd
       -0.15615939 -0.030498583 0.020303098 -0.11849504
0000f0 9b c2 84 bd 44 1d 78 bd 70 eb 0e bd 98 db b8 bd
       -0.064824305 -0.060574785 -0.0348925 -0.09026259
000100 06 47 fc 3d 9f 1d 5d 3d 79 18 4c bd a3 e5 90 3d
       0.12318234 0.053983327 -0.049828026 0.0707505
000110 01 e7 60 be 69 9a eb 3d e4 63 b0 be 4d 46 25 3e
       -0.21963121 0.11504061 -0.3445121 0.16140099
000120 e0 51 8f 3d 6c 90 21 bc bc 7b 08 3e 03 7c a4 bd
       0.06998038 -0.009861093 0.13328451 -0.08031466
000130 85 37 9c bd 56 58 6a 3d 8c e9 b5 bd 8e 33 df bc
       -0.07627777 0.05721315 -0.08882436 -0.027246263
000140 40 72 0f 3e 15 21 c0 bd fb 13 b4 bd 54 58 e3 bc
       0.14008427 -0.0938131 -0.087928735 -0.02775208
000150 99 be af bd 20 33 15 3e e4 d1 bc bd 26 ec 1b 3d
       -0.085812755 0.14570284 -0.09219721 0.038067006
000160 60 3b 9e 3a d3 db 14 3e a7 9d 8f 3d ca ee 97 3d
       0.0012072138 0.14536981 0.07012492 0.07418592
000170 38 dd 2c bd f9 13 90 bd 7b 56 9e bd 20 d2 03 be
       -0.04220316 -0.070350595 -0.077313386 -0.12873125
000180 79 c3 a5 3d 50 b6 51 bb 58 f7 76 3c e6 88 ab 3d
       0.08093924 -0.0031999536 0.01507362 0.08375721
000190 2a 14 f0 3b 07 70 9a bc e0 82 c3 bd d8 eb cc 3d
       0.0073266225 -0.018852247 -0.09546447 0.10005921
0001a0 04 c2 35 3d 55 9f 0d 3e b8 c8 8d bc e6 2b 28 3d
       0.04437448 0.13830312 -0.017307624 0.04105749
0001b0 e8 28 3c 3e 30 07 a2 3d 6c b6 d5 3d af 33 f1 bc
       0.1837498 0.07911527 0.10435185 -0.02944359
0001c0 db c2 d7 3d cf 8e 6d 3d 96 db 35 bd 5e f6 84 be
       0.105352126 0.05799752 -0.044398867 -0.25969213
0001d0 48 88 00 bc 20 32 b4 3d c0 98 eb 3d cb 1b 4a 3d
       -0.007844992 0.08798623 0.11503744 0.04934291
0001e0 73 41 03 3e 2e 8e eb bd f1 fa 89 bd 4e 84 de bd
       0.12817936 -0.11501728 -0.067373164 -0.10865079
0001f0 ba 6e 41 bc d0 ca 8c bc 40 4e e9 3b e6 bc a8 3d
       -0.011806184 -0.017186552 0.007119924 0.082391545
000200 b9 4a 6b 3d c7 5b 5e 3c 30 8d 6d bb 0d 59 a9 3d
       0.057444308 0.013571686 -0.0036247484 0.08268938
000210 b4 14 7f bb 53 bc 24 be 4a 0b f3 bc e2 39 22 3e
       -0.0038922252 -0.16087465 -0.029668469 0.15842393
000220 cc a1 c6 3d 32 e5 8b 3c 8a 5e 89 3c 19 1f 9a bd
       0.09698829 0.017077062 0.016768713 -0.07525463
000230 05 00 a3 bd 36 a4 04 3e e2 60 13 be c6 ca f4 3c
       -0.07958988 0.12953267 -0.14392427 0.029881846
000240 80 f5 ee bd 8e ed b4 3d 08 41 80 3d 77 2a bd 3d
       -0.11667919 0.088343725 0.06262404 0.09236615
000250 79 a1 06 be c8 95 a7 bd fa 93 d5 3c a6 cf a4 3d
       -0.13147534 -0.081828654 0.026071537 0.08047418
000260 9c 6c 32 bc 0c a8 30 be 5a 4e e1 bc a0 5a 00 bb
       -0.010890152 -0.17251605 -0.027503181 -0.0019585267
000270 f0 bd 7a bb 51 af e1 bd a9 c7 a1 bc d0 c7 99 3d
       -0.0038260184 -0.11019767 -0.019748526 0.07508814
000280 8a 24 62 bc 50 94 b3 bc d9 6c a6 3d 46 fd 07 3d
       -0.013802657 -0.021921307 0.0812623 0.033200525
000290 fa 7f e3 bd 5a 12 8f 3d b6 bb 9a bd 20 85 3c bb
       -0.11108394 0.06985922 -0.07555334 -0.0028765872
0002a0 06 dc c0 bc a3 ae 9b bd d6 20 96 bd c3 ca 02 3e
       -0.023542415 -0.07601669 -0.07330482 0.1277266
0002b0 cc cf eb 3d 94 67 02 be b5 47 04 be f4 eb de 3d
       0.115142435 -0.12734824 -0.12917979 0.10884848
0002c0 fe f7 e1 bc b5 90 0d be ff f0 17 b9 cf ca 48 bd
       -0.027584072 -0.13824733 -0.0001449026 -0.04902154
0002d0 00 cb 20 bd cc 1d cb 3a e0 f1 96 3a 1f 99 df 3d
       -0.039256096 0.0015496551 0.0011516176 0.109178774
0002e0 6c 35 ee bd 12 64 13 3d 64 02 55 3e 64 4a c1 3c
       -0.11631283 0.035984106 0.20801693 0.023595043
0002f0 b0 55 55 ba 37 08 b3 bd ea b6 23 bd 3e b7 69 3d
       -0.00081380736 -0.08741801 -0.039969362 0.05705952
000300 37 ec 9f 3c b9 de a1 3d 6c 30 00 be e6 0d 3c 3d
       0.019521816 0.07903809 -0.12518471 0.045911692
000310 11 4a 43 bd b8 2e d5 3d ba fb ea 3d 1c 6a 65 be
       -0.047678057 0.104093015 0.11473794 -0.22403759
000320 b3 f3 8d 3d ba 48 2a 3e 75 2a 40 bd ad e2 fd bd
       0.069312476 0.16629305 -0.04691549 -0.123967506
000330 b5 32 2d 3e 37 86 10 3e 17 1f 04 bc 86 ee 4e 3d
       0.16913874 0.14113699 -0.008064053 0.050520442
000340 d1 71 c1 3d 2f c3 8f 3d 1c c4 15 be 38 4a a5 3d
       0.09445537 0.0701965 -0.14625591 0.08070797
000350 22 97 28 3e bf 2e 47 be 68 f6 01 3c 50 20 64 bc
       0.16463903 -0.19451426 0.007932283 -0.0139237195
000360 80 45 53 3d 8e 2c 39 3b 5a 42 88 bd c7 cf 96 bd
       0.051579952 0.0028255316 -0.066532806 -0.07363849
000370 3b cb c0 bd c7 6e 52 3e 24 a7 b3 bc b5 1f f4 3c
       -0.09413763 0.2055007 -0.021930285 0.029800275
000380 f9 4c 0b 3d 77 35 53 3d b1 5a ef bc 20 43 09 3e
       0.034008954 0.05156466 -0.02921805 0.13404512
000390 79 b8 24 bc 54 b5 ea bc 4e 75 29 bd 4b 49 9c bd
       -0.010053747 -0.028650917 -0.041371636 -0.07631167
0003a0 ac 29 35 bc 32 f5 25 3d 6a 1d 0c be 04 22 fa bd
       -0.011057299 0.04051704 -0.13683096 -0.12213519
0003b0 db 10 6e 3e c9 a8 47 3e 22 ef 3d bc f7 f3 3e bd
       0.23248617 0.1949798 -0.011592658 -0.04661938
0003c0 9b 75 9d bc 50 41 3a 3d f5 60 a6 3c 8d 8e e4 bd
       -0.019221118 0.045472443 0.020309905 -0.11160002
0003d0 7e 9e 0e bd ee b4 6d 3c 21 1f e4 3c 66 ed 08 bd
       -0.03481912 0.014508469 0.027846875 -0.033429526
0003e0 b4 80 02 3e 52 7c ee 3c 0f 31 5e bd c0 63 12 3d
       0.12744409 0.029112015 -0.054246005 0.03573966
0003f0 80 2b c2 bc bc 81 aa bd de 42 ad bd f2 24 10 bd
       -0.023702383 -0.08325526 -0.084600195 -0.035191484

gru_policy_1.bias_ih f4 [105]
000000 00 00 00 00 00 00 00 00 00 00 00 00 00 00 00 00
       0.0 0.0 0.0 0.0
000010 00 00 00 00 00 00 00 00 00 00 00 00 00 00 00 00
       0.0 0.0 0.0 0.0
000020 00 00 00 00 00 00 00 00 00 00 00 00 00 00 00 00
       0.0 0.0 0.0 0.0
000030 00 00 00 00 00 00 00 00 00 00 00 00 00 00 00 00
       0.0 0.0 0.0 0.0
000040 00 00 00 00 00 00 00 00 00 00 00 00 00 00 00 00
       0.0 0.0 0.0 0.0
000050 00 00 00 00 00 00 00 00 00 00 00 00 00 00 00 00
       0.0 0.0 0.0 0.0
000060 00 00 00 00 00 00 00 00 00 00 00 00 00 00 00 00
       0.0 0.0 0.0 0.0
000070 00 00 00 00 00 00 00 00 00 00 00 00 00 00 00 00
       0.0 0.0 0.0 0.0
000080 00 00 00 00 00 00 00 00 00 00 00 00 00 00 00 00
       0.0 0.0 0.0 0.0
000090 00 00 00 00 00 00 00 00 00 00 00 00 00 00 00 00
       0.0 0.0 0.0 0.0
0000a0 00 00 00 00 00 00 00 00 00 00 00 00 00 00 00 00
       0.0 0.0 0.0 0.0
0000b0 00 00 00 00 00 00 00 00 00 00 00 00 00 00 00 00
       0.0 0.0 0.0 0.0
0000c0 00 00 00 00 00 00 00 00 00 00 00 00 00 00 00 00
       0.0 0.0 0.0 0.0
0000d0 00 00 00 00 00 00 00 00 00 00 00 00 00 00 00 00
       0.0 0.0 0.0 0.0
0000e0 00 00 00 00 00 00 00 00 00 00 00 00 00 00 00 00
       0.0 0.0 0.0 0.0
0000f0 00 00 00 00 00 00 00 00 00 00 00 00 00 00 00 00
       0.0 0.0 0.0 0.0
000100 00 00 00 00 00 00 00 00 00 00 00 00 00 00 00 00
       0.0 0.0 0.0 0.0
000110 00 00 00 00 00 00 00 00 00 00 00 00 00 00 00 00
       0.0 0.0 0.0 0.0
000120 00 00 00 00 00 00 00 00 00 00 00 00 00 00 00 00
       0.0 0.0 0.0 0.0
000130 00 00 00 00 00 00 00 00 00 00 00 00 00 00 00 00
       0.0 0.0 0.0 0.0
000140 00 00 00 00 00 00 00 00 00 00 00 00 00 00 00 00
       0.0 0.0 0.0 0.0
000150 00 00 00 00 00 00 00 00 00 00 00 00 00 00 00 00
       0.0 0.0 0.0 0.0
000160 00 00 00 00 00 00 00 00 00 00 00 00 00 00 00 00
       0.0 0.0 0.0 0.0
000170 00 00 00 00 00 00 00 00 00 00 00 00 00 00 00 00
       0.0 0.0 0.0 0.0
000180 00 00 00 00 00 00 00 00 00 00 00 00 00 00 00 00
       0.0 0.0 0.0 0.0
000190 00 00 00 00 00 00 00 00 00 00 00 00 00 00 00 00
       0.0 0.0 0.0 0.0
0001a0 00 00 00 00
       0.0

gru_policy_1.bias_hh f4 [105]
000000 00 00 00 00 00 00 00 00 00 00 00 00 00 00 00 00
       0.0 0.0 0.0 0.0
000010 00 00 00 00 00 00 00 00 00 00 00 00 00 00 00 00
       0.0 0.0 0.0 0.0
000020 00 00 00 00 00 00 00 00 00 00 00 00 00 00 00 00
       0.0 0.0 0.0 0.0
000030 00 00 00 00 00 00 00 00 00 00 00 00 00 00 00 00
       0.0 0.0 0.0 0.0
000040 00 00 00 00 00 00 00 00 00 00 00 00 00 00 00 00
       0.0 0.0 0.0 0.0
000050 00 00 00 00 00 00 00 00 00 00 00 00 00 00 00 00
       0.0 0.0 0.0 0.0
000060 00 00 00 00 00 00 00 00 00 00 00 00 00 00 00 00
       0.0 0.0 0.0 0.0
000070 00 00 00 00 00 00 00 00 00 00 00 00 00 00 00 00
       0.0 0.0 0.0 0.0
000080 00 00 00 00 00 00 00 00 00 00 00 00 00 00 00 00
       0.0 0.0 0.0 0.0
000090 00 00 00 00 00 00 00 00 00 00 00 00 00 00 00 00
       0.0 0.0 0.0 0.0
0000a0 00 00 00 00 00 00 00 00 00 00 00 00 00 00 00 00
       0.0 0.0 0.0 0.0
0000b0 00 00 00 00 00 00 00 00 00 00 00 00 00 00 00 00
       0.0 0.0 0.0 0.0
0000c0 00 00 00 00 00 00 00 00 00 00 00 00 00 00 00 00
       0.0 0.0 0.0 0.0
0000d0 00 00 00 00 00 00 00 00 00 00 00 00 00 00 00 00
       0.0 0.0 0.0 0.0
0000e0 00 00 00 00 00 00 00 00 00 00 00 00 00 00 00 00
       0.0 0.0 0.0 0.0
0000f0 00 00 00 00 00 00 00 00 00 00 00 00 00 00 00 00
       0.0 0.0 0.0 0.0
000100 00 00 00 00 00 00 00 00 00 00 00 00 00 00 00 00
       0.0 0.0 0.0 0.0
000110 00 00 00 00 00 00 00 00 00 00 00 00 00 00 00 00
       0.0 0.0 0.0 0.0
000120 00 00 00 00 00 00 00 00 00 00 00 00 00 00 00 00
       0.0 0.0 0.0 0.0
000130 00 00 00 00 00 00 00 00 00 00 00 00 00 00 00 00
       0.0 0.0 0.0 0.0
000140 00 00 00 00 00 00 00 00 00 00 00 00 00 00 00 00
       0.0 0.0 0.0 0.0
000150 00 00 00 00 00 00 00 00 00 00 00 00 00 00 00 00
       0.0 0.0 0.0 0.0
000160 00 00 00 00 00 00 00 00 00 00 00 00 00 00 00 00
       0.0 0.0 0.0 0.0
000170 00 00 00 00 00 00 00 00 00 00 00 00 00 00 00 00
       0.0 0.0 0.0 0.0
000180 00 00 00 00 00 00 00 00 00 00 00 00 00 00 00 00
       0.0 0.0 0.0 0.0
000190 00 00 00 00 00 00 00 00 00 00 00 00 00 00 00 00
       0.0 0.0 0.0 0.0
0001a0 00 00 00 00
       0.0
