dir_save/we0_critic_20.pth (torch, 35011 bytes, 4 tensors)

0.weight f4 [64, 64]
0	0xbf44e353	-0.7690937
1	0x3e939fb3	0.28832778
2	0x3f490c95	0.78534824
3	0xbed2cfb2	-0.41174084
4	0x3fa7c351	1.3106481
5	0xbea5d860	-0.32391644
6	0xbe2ce656	-0.16884741
7	0x3e707a7d	0.23484226
8	0xbf31c441	-0.69440085
9	0xbe97c8d6	-0.29645413
10	0xbe29348e	-0.16523954
11	0x3d195854	0.037437752
12	0xbd0db6c3	-0.034598123
13	0x3e1ecbc0	0.15507412
14	0x3fdfbc7b	1.7479395
15	0x3e248b56	0.16068777
16	0xbe938117	-0.28809425
17	0x3e981416	0.29702824
18	0xbe5b3f69	-0.21410908
19	0xbf2a12e6	-0.66435087
20	0xbf6e81cd	-0.9316681
21	0x3e8615cf	0.26188514
22	0x3e497779	0.19674481
23	0xbf6454cc	-0.8919189
24	0x3e6a08bd	0.22854896
25	0xbfa019fa	-1.2507927
26	0xbebfe9b0	-0.37482977
27	0xbe8d54d6	-0.27603787
28	0x3eb2d255	0.34926096
29	0xbe947c31	-0.29001
30	0xbeaf0958	-0.34186816
31	0x3f230d67	0.63692325
32	0x3eb22703	0.3479539
33	0xbe198ca3	-0.14995055
34	0xbe6e144c	-0.2324993
35	0xbea7b682	-0.3275643
36	0x3f9b535d	1.2134815
37	0x3d94d559	0.07267255
38	0x3f26ef59	0.65208966
39	0x3e177fd8	0.14794862
40	0xbe6bdd13	-0.23033552
41	0x3ed92721	0.42412665
42	0x3d8cc625	0.068737306
43	0x3f937dc8	1.152276
44	0x3e899830	0.26873922
45	0x3eb1bf8a	0.34716445
46	0x3d4ed31d	0.050494302
47	0x3e457072	0.19281176
48	0x3f935ca1	1.1512643
49	0x3e25d9b7	0.16196333
50	0xbfa1a2be	-1.262779
51	0xbd04317a	-0.032273747
52	0xbe0516cd	-0.12996979
53	0xbfc914a2	-1.5709422
54	0x3e6347e8	0.22195399
55	0x3f2fafce	0.6862763
56	0xbed784d4	-0.42093527
57	0xbeff305a	-0.49841577
58	0xbe9b66a1	-0.30351737
59	0xbe80e04c	-0.25171125
60	0xbf65de80	-0.89792633
61	0xbf0aa120	-0.5415211
62	0xbd9ee0ef	-0.077577464
63	0xbf32594c	-0.69667506
64	0xbec52cbc	-0.38510692
65	0xbd8bedbb	-0.06832453
66	0x3f211442	0.62921536
67	0x3f1de9f7	0.6168513
68	0xbda5016a	-0.0805691
69	0xbba7a998	-0.0051166527
70	0x3e480f57	0.19537102
71	0x3d2b2314	0.0417815
72	0xbf23411f	-0.6377124
73	0xbf3f9f6f	-0.7485265
74	0x3f5e0055	0.86719257
75	0xbe27c07d	-0.16382022
76	0x3dcdc799	0.10047836
77	0x3ea0417e	0.31299967
78	0xbf558bd6	-0.834165
79	0xbe4c3f93	-0.19946127
80	0x3d33fe9c	0.043943986
81	0x3e1f91fb	0.15583031
82	0xbf5c34a9	-0.86017853
83	0x3ed996de	0.42497915
84	0x3ec2628b	0.37965807
85	0xbec7d2b3	-0.39027938
86	0x3f034ea3	0.51291865
87	0xbef255ac	-0.47330987
88	0x3f1066b5	0.5640672
89	0x3e621cb5	0.22081263
90	0xbf10837c	-0.5645063
91	0xbea0b28f	-0.3138623
92	0xbda5ecc9	-0.08101804
93	0xbe856455	-0.2605311
94	0xbe8a915b	-0.27064022
95	0xbe4b4456	-0.19850287
96	0x3e6b94d8	0.23005998
97	0x3e952b08	0.29134393
98	0x3ddab0fd	0.10678289
99	0xbea3de02	-0.32005316
100	0xbe9be8b0	-0.30450964
101	0xbeaba506	-0.3352434
102	0x3ebe338d	0.37148705
103	0xbe7dbff0	-0.2478025
104	0xbf0f461c	-0.55966353
105	0x3d16376e	0.036673956
106	0x3ef2ab7a	0.4739645
107	0xbe87365d	-0.26408663
108	0x3f3ca5ce	0.736905
109	0xbdca9503	-0.09891703
110	0x3f2f11fb	0.6838681
111	0xbf111738	-0.56676054
112	0x3ec20507	0.3789446
113	0x3fa8d3f0	1.3189678
114	0xbec7bcfb	-0.39011368
115	0x3f5c3ff5	0.8603509
116	0xbe4d62e3	-0.20057254
117	0x3e5f7a31	0.21823956
118	0x3f8560e6	1.0420196
119	0x3faf987e	1.3718412
120	0xbe4c1e2f	-0.19933389
121	0x3f804327	1.0020493
122	0x3ea373af	0.31924197
123	0x3e8fc51f	0.2808008
124	0xbf3c5770	-0.7357092
125	0x3f0eb967	0.5575165
126	0xbf39b3ca	-0.7253996
127	0x3e259d93	0.16173391
128	0xbe345252	-0.17609528
129	0x3f3fb129	0.748797
130	0xbf56f51f	-0.83967775
131	0x3e68c65c	0.22731918
132	0xbf415ec8	-0.7553525
133	0x3e458963	0.1929069
134	0x3f288b0a	0.65837157
135	0xbf19f552	-0.60139954
136	0xbf8e8842	-1.1135333
137	0x3dc63e88	0.09679896
138	0x3e1109d8	0.14163911
139	0x3eec87ad	0.46197262
140	0x3f8280c0	1.0195541
141	0xbda4cd1d	-0.08046935
142	0xbef8fffc	-0.486328
143	0xbec9a43e	-0.3938312
144	0xbe70bc46	-0.2350932
145	0xbdb3a119	-0.08770961
146	0xbf6703a7	-0.9023995
147	0x3f2f09fc	0.6837461
148	0x3f44dbeb	0.7689807
149	0x3ef29868	0.47381902
150	0x3f7165b6	0.94295824
151	0xbeb8916e	-0.36048454
152	0xbea0af50	-0.31383753
153	0xbf050629	-0.51962525
154	0x3f046ef7	0.5173182
155	0xbdc2401f	-0.094848864
156	0x3ea024d4	0.31278098
157	0xbe517138	-0.20453346
158	0x3f51e5a3	0.8199102
159	0x3e4e7ee4	0.20165592
160	0xbf8e2fdd	-1.1108357
161	0x3f609056	0.8772024
162	0x3ebede63	0.37279043
163	0x3f259823	0.6468527
164	0x3c6486ef	0.013948186
165	0xbf9831c1	-1.1890184
166	0x3e5c1757	0.21493278
167	0x3e0ce103	0.1375771
168	0x3d338279	0.0438256
169	0x3f1a9309	0.6038061
170	0xbe3dd0bd	-0.18536659
171	0x3ea310ca	0.31848747
172	0xbe9752be	-0.29555315
173	0xbebd6afb	-0.36995682
174	0xb979a1a2	-0.00023806703
175	0xbedb0d24	-0.42783463
176	0xbd9a0bda	-0.07521792
177	0xbf34f397	-0.7068419
178	0xbec471a4	-0.3836795
179	0x3e3fa614	0.18715698
180	0x3d99b32f	0.0750488
181	0xbea0fdd5	-0.31443658
182	0x3de09031	0.10965002
183	0x3eebd74f	0.46062705
184	0xbe2de7e2	-0.16982988
185	0xbf160ead	-0.58616143
186	0x3dbcf27e	0.09225939
187	0x3f0e84ac	0.5567119
188	0x3f573209	0.8406072
189	0xbe89f172	-0.2694202
190	0x3e43efb1	0.19134404
191	0x3ec00f01	0.37511447
192	0xbe6ce9dc	-0.23136085
193	0x3f53cab2	0.82731164
194	0x3d053981	0.032525543
195	0xbec23355	-0.37929788
196	0xbecdc0d1	-0.4018617
197	0xbd22ceb8	-0.039747924
198	0xbf0f0801	-0.5587159
199	0xbe668fc5	-0.22515781
200	0x3ec663bd	0.3874797
201	0xbf05744d	-0.52130586
202	0xbe96ba82	-0.2943917
203	0xbf00ade2	-0.50265324
204	0x3e70d825	0.23519953
205	0xbd9410de	-0.0722978
206	0x3f877e37	1.0585393
207	0x3f87213d	1.0557019
208	0xbf974c29	-1.1820117
209	0x3e4c571e	0.19955108
210	0x3eb06e9c	0.34459388
211	0xbde77b77	-0.11302846
212	0xbf0c6ea6	-0.54856336
213	0x3fc94d9b	1.5726808
214	0xbce45c01	-0.027875902
215	0xbf811a53	-1.0086159
216	0x3da2e408	0.0795365
217	0xbf6afd67	-0.9179291
218	0xbf0e692c	-0.5562923
219	0x3e2f0000	0.17089844
220	0x3edb5df7	0.42845127
221	0xbeb7a57a	-0.35868436
222	0xbf50bcae	-0.815379
223	0x3f0a6764	0.5406401
224	0x3f1c536f	0.6106481
225	0x3eb70e82	0.35753256
226	0xbef558f4	-0.47919428
227	0xbea893c2	-0.3292523
228	0x3f308231	0.68948656
229	0xbdb423ab	-0.087958656
230	0x3e80795a	0.25092584
231	0xbf1e112f	-0.6174497
232	0xbead0011	-0.33789113
233	0xbe3309af	-0.17484163
234	0xbd458c32	-0.048229404
235	0x3e07b06d	0.13250895
236	0x3fa74fda	1.3071244
237	0x3f11b30e	0.5691384
238	0xbdb392f1	-0.08768261
239	0xbe876cf8	-0.26450324
240	0x3efc067b	0.49223694
241	0xbe34c9f3	-0.17655163
242	0xbea6ec64	-0.32602227
243	0x3df59c50	0.11992705
244	0xbe586459	-0.2113203
245	0xbf5f16bd	-0.8714407
246	0xbe593374	-0.21211034
247	0x3ef25b58	0.47335315
248	0xbe520c38	-0.20512474
249	0xbe86784c	-0.26263654
250	0xb8bbf85b	-8.963115e-05
251	0x3eae4b93	0.34042034
252	0xbe715648	-0.2356807
253	0xbf559dd5	-0.8344396
254	0xbe03686d	-0.12832804
255	0x3f1505f8	0.5821223

0.bias f4 [64]
0	0xbee8fa44	-0.45503438
1	0x3eb13b66	0.3461563
2	0x3d88501e	0.06655906
3	0xbcb2094d	-0.02173295
4	0x3e032b3d	0.12809463
5	0x3c022f0c	0.007945787
6	0xbc67d8b8	-0.014150791
7	0x3f0adcb5	0.5424302
8	0x3eb657f6	0.35613984
9	0xbe9e4165	-0.30909267
10	0xbe73d75b	-0.2381262
11	0xbe21d471	-0.15803696
12	0x3d9e8254	0.07739702
13	0x3e586ec8	0.2113601
14	0xbdfb898e	-0.12282096
15	0xbe8b17ce	-0.271666
16	0x3e550cca	0.2080566
17	0xbf224608	-0.6338811
18	0x3dbe0dbf	0.092799656
19	0x3cbbe4d8	0.02293627
20	0x3c7269f6	0.014795771
21	0xbdb5e531	-0.088816054
22	0x3ed23e0d	0.41062966
23	0xbe45e38b	-0.19325082
24	0x3ef74ce7	0.4830086
25	0xbe1bcc66	-0.1521469
26	0xbf49b1d7	-0.7878699
27	0x3dcef0a0	0.10104489
28	0x3f123c5e	0.57123363
29	0x3f0eb3e6	0.55743253
30	0xbea1da1e	-0.31611723
31	0x3b601241	0.0034190568
32	0xbe64b45b	-0.22334425
33	0xbe27577f	-0.16341971
34	0xbe34c51a	-0.17653313
35	0x3f026840	0.5094032
36	0x3e2c9fa8	0.16857779
37	0x3e794feb	0.24346893
38	0xbe374f60	-0.17901373
39	0x3dcd8a26	0.10036115
40	0xbe823900	-0.25434113
41	0x3ec9221c	0.39283836
42	0xbe81994a	-0.25312263
43	0xbcf882cc	-0.030335806
44	0xbe8b6f11	-0.27233174
45	0x3cd426be	0.02589738
46	0x3edc0855	0.42975107
47	0x3edd8102	0.43262488
48	0xbe043038	-0.12909019
49	0xbde8239d	-0.11334918
50	0xbe8dfa62	-0.2773009
51	0xbe8d8987	-0.27643988
52	0x3e0d7cf2	0.13817194
53	0xbeb0e073	-0.3454624
54	0x3e22ba79	0.15891446
55	0xbe516652	-0.20449188
56	0x3e882f4d	0.26598588
57	0xbf65f066	-0.89819944
58	0x3eaaaf69	0.33336952
59	0xbf132911	-0.5748454
60	0xbd0ec011	-0.034851138
61	0xbe9864e1	-0.29764464
62	0xbeb56e81	-0.3543587
63	0x3d5fd087	0.054642227

2.weight f4 [64, 64]
0	0x3e2ef76a	0.17086568
1	0xbeab7c22	-0.33493143
2	0x3f0d725d	0.5525263
3	0xbd133987	-0.035943534
4	0x3e6d2ce4	0.23161656
5	0xbe4af229	-0.1981894
6	0xbcb751e8	-0.022377923
7	0x3e2678f0	0.16257071
8	0xbeeb7cc8	-0.45993638
9	0x3d9446c0	0.07240057
10	0x3e077448	0.13227952
11	0xbdc78b59	-0.09743375
12	0x3ecfb4b3	0.4056755
13	0xbe4b27b4	-0.19839364
14	0xbf5f9031	-0.87329394
15	0xbe339f04	-0.17541128
16	0xbe4d3175	-0.20038398
17	0x3f20ce7d	0.62815076
18	0x3eb1b5d5	0.3470904
19	0x3f614131	0.879901
20	0xbeca7376	-0.39541215
21	0x3f01d761	0.5071927
22	0x3e92d128	0.286752
23	0x3e9cef04	0.30651104
24	0x3d99fb60	0.07518649
25	0xbfa1802c	-1.261724
26	0x3f36cf2b	0.71409863
27	0x3f1b8bea	0.60760367
28	0x3f4aa1f4	0.7915337
29	0x3e65e6da	0.22451344
30	0xbeda8715	-0.42681184
31	0x3f107ebc	0.5644338
32	0xbdcf03d8	-0.10108155
33	0x3dd67a0d	0.10472498
34	0x3e5a8c19	0.21342506
35	0x3f50c7f8	0.8155513
36	0x3db4e29c	0.08832285
37	0xbe17284e	-0.14761469
38	0x3e76f93c	0.24118513
39	0x3f5a6f26	0.8532585
40	0xbe9db349	-0.30800846
41	0x3f47e919	0.78090054
42	0xbf4ed9f2	-0.8080131
43	0x3e48ef2a	0.19622484
44	0x3f4cdb0e	0.8002175
45	0xbf7c7a3f	-0.9862403
46	0xbf26486e	-0.6495427
47	0x3e68e521	0.22743656
48	0xbea38623	-0.31938276
49	0x3f1d7f3d	0.61522275
50	0x3e14511e	0.14484069
51	0xbe674a17	-0.22586857
52	0xbe2478ef	-0.16061758
53	0xbe59e464	-0.2127853
54	0xbf33dccf	-0.702588
55	0xbf407897	-0.75184005
56	0x3f012da6	0.5046028
57	0xbf01c3c4	-0.5068934
58	0xbe05abcb	-0.13053815
59	0x3f2e91a8	0.68191004
60	0x3e12d2e9	0.14338268
61	0x3e56702d	0.20941229
62	0xbf3b6127	-0.7319512
63	0xbd98172d	-0.074262954
64	0xbf007adb	-0.5018746
65	0xbfa7123f	-1.3052443
66	0x3e023ba2	0.1271806
67	0x3df94cab	0.121728264
68	0x3f768a32	0.9630462
69	0x3e81772d	0.25286236
70	0x3ef3983f	0.47577092
71	0x3e97b68c	0.2963146
72	0xbfa94312	-1.3223593
73	0x3eca0418	0.39456248
74	0xbf5bde16	-0.8588575
75	0x3f272022	0.65283406
76	0x3e85708d	0.26062432
77	0x3f157438	0.5838046
78	0x3d799724	0.060935155
79	0x3efc31c3	0.49256715
80	0xbe0e6f79	-0.13909711
81	0xbe5427fc	-0.20718378
82	0x3f4e92d8	0.80692816
83	0xbf577b3e	-0.8417243
84	0xbf40e74f	-0.7535295
85	0x3e7df5a5	0.24800737
86	0xbe0b65d9	-0.1361307
87	0x3f71f989	0.94521385
88	0xbf43ff9d	-0.7656191
89	0xbe460c71	-0.19340684
90	0x3fabf8b8	1.3435278
91	0x3f8b6cce	1.089258
92	0xbe8bd01f	-0.2730722
93	0x3f722efe	0.94602954
94	0xbf1804e3	-0.59382457
95	0x3f3a2daf	0.7272596
96	0x3fdfad65	1.7474791
97	0x3de2ce78	0.11074537
98	0x3f650a96	0.8946928
99	0xbf6e0915	-0.9298261
100	0x3fb13cab	1.3846639
101	0xbf77b41b	-0.96759194
102	0xbe8b7696	-0.2723891
103	0x3f3277f8	0.6971431
104	0xbf8ace31	-1.0844175
105	0x3c555561	0.013020844
106	0x3f97e580	1.1866913
107	0x3f874b22	1.0569804
108	0x3f252260	0.6450558
109	0xbf31e2ff	-0.69486994
110	0xbe6bf4f8	-0.23042667
111	0x3ebc8820	0.36822605
112	0x3eb39334	0.35073245
113	0xbeb6f2bd	-0.3573207
114	0x3e63da98	0.22251356
115	0x3fbc80be	1.4726789
116	0xbf1ee967	-0.62074894
117	0x3ebdb69b	0.3705338
118	0xbf4f0109	-0.80860955
119	0x3d5cd194	0.053910807
120	0x3f4683b3	0.7754471
121	0x3d51206b	0.051056307
122	0x3f107a7b	0.5643689
123	0x3fa0c316	1.2559536
124	0x3f2a7390	0.66582584
125	0xbe1240d7	-0.14282547
126	0xbfa5aff4	-1.2944322
127	0xbf881f7b	-1.0634607
128	0xbdc08d1e	-0.09401916
129	0xbeede9e5	-0.4646751
130	0xbf4cfb41	-0.80070883
131	0xbe970fb8	-0.2950418
132	0xbc322a1f	-0.0108743
133	0xbf6505ca	-0.8946196
134	0x3f24e7e2	0.64416325
135	0xbd94d5ba	-0.072673276
136	0x3e8014f0	0.25015974
137	0x3f07fde8	0.53121805
138	0x3ee5db0b	0.4489368
139	0xbd9aaf65	-0.07552985
140	0xbf4e38bc	-0.8055532
141	0xbf887180	-1.0659637
142	0x3dd232cb	0.10263594
143	0x3e99f91c	0.30072868
144	0x3ca08f9c	0.019599728
145	0xbf0c6e64	-0.5485594
146	0xbdf3da99	-0.119069286
147	0xbf9ea43d	-1.2393872
148	0xbe598f2f	-0.21246026
149	0xbf411904	-0.75428796
150	0xbed9a432	-0.42508084
151	0x3f47b65c	0.78012633
152	0xbf10b78f	-0.5653009
153	0x3e7788eb	0.24173324
154	0x3e447459	0.19185008
155	0xbeb1bb5f	-0.34713265
156	0xbf50024f	-0.8125352
157	0x3e01469f	0.12624596
158	0xbeb7750a	-0.3583148
159	0xbd8497f0	-0.06474292
160	0x3d462e28	0.04838386
161	0xbc8d706c	-0.017265521
162	0xbdaffa9b	-0.08592721
163	0xbeb1fa54	-0.34761298
164	0xbd9965c2	-0.07490112
165	0xbf620f12	-0.88304245
166	0x3f10693d	0.5641058
167	0xbf8d98e8	-1.1062288
168	0x3e51907a	0.2046527
169	0xc00001b9	-2.0001051
170	0x3fb10e94	1.3832574
171	0x3dd7cf40	0.10537577
172	0xbf127bc7	-0.5722012
173	0x3e17ba57	0.14817177
174	0x3f87d807	1.0612801
175	0xbaade0ac	-0.001326581
176	0x3e732871	0.23745896
177	0xbf893d45	-1.0721823
178	0xbe8dc46c	-0.2768892
179	0x3faabb63	1.3338436
180	0x3f48b0d7	0.78394836
181	0x3ea2ef47	0.3182318
182	0x3ebb5b4b	0.36593089
183	0x3f1e545d	0.6184748
184	0xbe1afc14	-0.15135223
185	0x3ed8dc40	0.42355537
186	0x3f4eebe4	0.8082869
187	0xbf86c4b1	-1.0528775
188	0x3c049e53	0.008094388
189	0xbf4247db	-0.7589089
190	0x3efa6e81	0.48912433
191	0xbef58b77	-0.47957966
192	0xbe8d4dfd	-0.27598563
193	0xbf85ad26	-1.0443466
194	0x3ecda642	0.40165907
195	0x3e718276	0.23584923
196	0x3f78e5a3	0.972254
197	0x3dc9f2df	0.09860777
198	0x3f1e8ecf	0.6193666
199	0x3e9849a4	0.29743683
200	0xbfbd507d	-1.4790188
201	0x3eacc99d	0.3374757
202	0xbf77c27b	-0.9678113
203	0x3f4203ff	0.7578735
204	0x3e2b557e	0.16731831
205	0x3f019f4e	0.50633705
206	0xbe3b8315	-0.18311723
207	0x3e1c6c0b	0.1527559
208	0xbe1c8918	-0.15286672
209	0xbe755d68	-0.23961413
210	0x3f6d875f	0.92784685
211	0xbf0fca4f	-0.56168073
212	0xbf8c4d5c	-1.0961108
213	0x3efadd67	0.48997042
214	0xbf0d1779	-0.5511394
215	0x3f991e4b	1.196237
216	0xbf0033a1	-0.5007878
217	0xbf088009	-0.53320366
218	0x3fd661d3	1.6748604
219	0x3f6a90a6	0.91626966
220	0xbef3cf3c	-0.47619045
221	0x3f216f3c	0.63060355
222	0xbf017269	-0.505652
223	0x3f6f4c0f	0.9347543
224	0x3ff110d0	1.8833256
225	0x3eba9786	0.36443728
226	0x3f4f4618	0.8096633
227	0xbf6950ce	-0.91138923
228	0x3fa00c81	1.2503816
229	0xbf3d311d	-0.73903066
230	0x3ea2218e	0.31666225
231	0x3f24847e	0.6426467
232	0xbf2296fb	-0.6351163
233	0x3e73f691	0.23824526
234	0x3f3c47dc	0.7354715
235	0x3f78287a	0.9693676
236	0x3f77a035	0.9672883
237	0xbfaef6f7	-1.3669118
238	0xbf82e666	-1.0226562
239	0x3dec061b	0.11524602
240	0x3e82f7f4	0.25579798
241	0x3eb4eda5	0.35337558
242	0x3f12ca63	0.5734007
243	0x3f4ac4c9	0.7920652
244	0xbf879821	-1.0593301
245	0x3efd8a31	0.49519494
246	0xbf62db18	-0.8861556
247	0xbe9757ec	-0.29559267
248	0x3f3c0fcd	0.7346161
249	0xbed2d9e8	-0.41181874
250	0x3e87d11c	0.26526725
251	0x3fb0ed17	1.3822354
252	0x3f129c18	0.5726943
253	0x3e353b7a	0.1769847
254	0xbfbb9107	-1.4653634
255	0xbf0a64fb	-0.54060334

2.bias f4 [64]
0	0xbfa4bc4b	-1.2869962
1	0xbffedb63	-1.9910702
2	0x3ed7549b	0.42056736
3	0xc0106c02	-2.2565923
4	0x3fbef142	1.4917376
5	0x3f622502	0.8833772
6	0xbfedba4a	-1.8572476
7	0x3e997473	0.29971656
8	0xbfbb1f32	-1.4618895
9	0xbfbb4d48	-1.4632959
10	0x3fb2e024	1.3974652
11	0xbfe2bb2c	-1.771337
12	0x3fc12622	1.5089762
13	0x4012b6c8	2.292406
14	0xbe8820e6	-0.265876
15	0xbfc57ef8	-1.5429373
16	0x3fca1f24	1.5790753
17	0xbf9e4445	-1.2364584
18	0xc001bd64	-2.0271845
19	0x3f7e761e	0.9939898
20	0xbf087a95	-0.53312045
21	0xbfcd9b29	-1.6062976
22	0x3f352ced	0.70771676
23	0x3fbc27a1	1.4699594
24	0x3fb85931	1.4402219
25	0xbf5310c8	-0.8244748
26	0x3fdfed47	1.7494286
27	0x3de5c674	0.112194926
28	0x3fbcb741	1.4743425
29	0x3fbe4923	1.486607
30	0xbfa9085a	-1.3205674
31	0x3f5366e6	0.82578886
32	0xbfc66097	-1.5498227
33	0x3fad7eb2	1.3554289
34	0xbf3ef813	-0.7459728
35	0xbf93c257	-1.1543683
36	0xbfbc932c	-1.4732413
37	0xc006e639	-2.1078017
38	0x3fb2e6d6	1.3976696
39	0x3fd1ec8e	1.6400316
40	0x3fcb1163	1.5864681
41	0x3fb0e6c9	1.382043
42	0x3fdaf322	1.7105448
43	0xbf88c1a4	-1.0684094
44	0xc00e3382	-2.2218938
45	0xbfd87229	-1.6909839
46	0x3fca19db	1.578914
47	0x3fb42e27	1.4076585
48	0xbfb50070	-1.4140759
49	0x3f42e475	0.7612985
50	0x3fd6ccd8	1.6781263
51	0xbfc3c8c0	-1.5295639
52	0xbfcd276c	-1.6027656
53	0x4012c1ae	2.2930713
54	0x40119c9b	2.2751834
55	0x3f958c0c	1.1683364
56	0xbfccc470	-1.5997448
57	0xbfbba0be	-1.465843
58	0xbfda7ccf	-1.7069339
59	0xbfdf56a2	-1.7448313
60	0xbfa5ecf1	-1.2962934
61	0xbf9b34f3	-1.2125534
62	0x3f91f7e4	1.1403775
63	0x400e9d34	2.228345
