dir_save/we0_actor_-600.pth (torch, 35017 bytes, 4 tensors)

0.weight f4 [64, 64]
0	0x3e9e8f1d	0.30968562
1	0x3ea87aa5	0.3290607
2	0x3e709c7b	0.23497193
3	0xbe5e923d	-0.21735473
4	0x3dc49197	0.095980816
5	0xbeb59b1b	-0.354699
6	0xbe86459c	-0.26224983
7	0xbd5cc197	-0.05389556
8	0xbd43f387	-0.047839668
9	0xbbca8b61	-0.006181166
10	0x3dfa0ed8	0.122098625
11	0x3e489d14	0.1959117
12	0xbd3846e2	-0.044989474
13	0x3dd0f37d	0.10202692
14	0xbc8f8dd3	-0.017523682
15	0xbd889d4d	-0.06670628
16	0x3da8c15a	0.08240004
17	0x3d860f52	0.06545891
18	0x3e325822	0.17416432
19	0xbd79c22f	-0.060976204
20	0xbe80d778	-0.2516439
21	0xbf04a3fd	-0.51812726
22	0xbde8662e	-0.11347614
23	0x3d230d9d	0.039807905
24	0xbe24f0c1	-0.16107465
25	0xbd255364	-0.04036273
26	0xbe6abb66	-0.2292305
27	0xbc9a95eb	-0.018870315
28	0xbde58517	-0.112070255
29	0x3e190ac3	0.14945512
30	0x3e36460b	0.17800157
31	0xbdb4457b	-0.08802315
32	0xbd730227	-0.059328225
33	0xbd43e791	-0.04782826
34	0xbcb13539	-0.021631824
35	0xbc00ed4e	-0.007869078
36	0xbe2f4441	-0.1711588
37	0x3d348418	0.044071287
38	0x3dc45175	0.09585849
39	0x3ecc25c8	0.39872575
40	0xbed913e0	-0.42397976
41	0x3d9cde0a	0.07659538
42	0xbdfde0ce	-0.12396394
43	0xbdc97061	-0.09835888
44	0x3db6c7e4	0.08924845
45	0xbe411e97	-0.18859325
46	0xbe2c6b6a	-0.1683785
47	0xbe6bf8f6	-0.2304419
48	0xbd2634f7	-0.040577855
49	0xbe61bf80	-0.22045708
50	0xbdfe10b9	-0.12405533
51	0xbe6c62bd	-0.2308454
52	0xbd108a80	-0.035288334
53	0x3e2cdd31	0.16881253
54	0x3da29c30	0.07939947
55	0xbe8ecc0c	-0.2789005
56	0xbed1f476	-0.4100682
57	0xbe2adfb6	-0.16686901
58	0xbe417c51	-0.18895079
59	0x3b799d85	0.0038088274
60	0x3d04f448	0.032459527
61	0x3d361123	0.044449937
62	0x3d743c7d	0.059628
63	0xbc9c430b	-0.019074937
64	0x3ebf5ee8	0.37377095
65	0xbe0dbaa3	-0.13840728
66	0x3e164d9a	0.1467804
67	0xbd8df356	-0.06931178
68	0xbd08bbfb	-0.033382397
69	0xbe2f3d0d	-0.17113133
70	0x3e36d890	0.1785605
71	0xbe12579d	-0.14291234
72	0x3e1daddd	0.15398355
73	0x3dccbab0	0.09996545
74	0x3e5b9659	0.21444072
75	0xbea51785	-0.32244506
76	0x3dde1b23	0.1084502
77	0xbd0b4b82	-0.034007557
78	0xbe6bf2ec	-0.23041886
79	0xbe5f95f5	-0.21834548
80	0x3e1621c0	0.14661312
81	0x3e19e9b2	0.15030554
82	0x3dd96ead	0.10616813
83	0xbd2a17c5	-0.041526575
84	0x3c21cc34	0.009875346
85	0xbe71fa83	-0.23630719
86	0x3e5a17ea	0.21298185
87	0x3d2e1ea5	0.042509694
88	0x3dbaed15	0.09127251
89	0xbf0c0ea0	-0.54709816
90	0xbeaff93e	-0.34369844
91	0xbdbb05a0	-0.09131932
92	0xbd67ff3c	-0.056639895
93	0x3e23b454	0.15986758
94	0xbdd2a872	-0.10286035
95	0x3dc4a083	0.09600928
96	0xbe39acb6	-0.1813229
97	0x3d264578	0.040593594
98	0x3ec0125f	0.37514016
99	0x3e15b9cf	0.14621662
100	0xbe388546	-0.1801959
101	0x3e50acf9	0.20378484
102	0x3db1cc3f	0.08681535
103	0x3e26d1d7	0.16290985
104	0x3d270048	0.040771753
105	0xbd1be97d	-0.03806447
106	0x3cc05d7e	0.02348208
107	0x3e3dc9ab	0.18533961
108	0x3d7de671	0.061987344
109	0xbe04c04a	-0.12963977
110	0xbe044995	-0.12918694
111	0x3e41f74d	0.18941994
112	0x3e0dd412	0.1385043
113	0xbd4a6609	-0.049413715
114	0x3dc80240	0.09766054
115	0x3ce5a75d	0.028033907
116	0x3dd15fd7	0.10223358
117	0x3e84ec77	0.25961658
118	0xbdf17ae0	-0.11791015
119	0xbe9b4827	-0.30328485
120	0xbc551fdd	-0.013008085
121	0xbda0989e	-0.078416094
122	0xbda0ba4d	-0.07848034
123	0xbe282bf5	-0.16423018
124	0x3ec5f373	0.386623
125	0x3e351020	0.17681932
126	0xbd0efded	-0.03491013
127	0xbdd29ccc	-0.10283813
128	0x3e2f6c1c	0.17131084
129	0xbe41f211	-0.18939997
130	0xbe0051e8	-0.12531245
131	0xbc81c022	-0.015838686
132	0x3dbee3ad	0.093207695
133	0x3d499481	0.04921389
134	0x3ce46e17	0.027884526
135	0xbcb4ea01	-0.022084238
136	0x3e05a8ab	0.13052623
137	0x3c7f2e56	0.015575012
138	0x3d50480b	0.050849956
139	0x3dc8ad36	0.09798662
140	0xbc2bed03	-0.01049352
141	0xbe50316f	-0.20331357
142	0xbc9cfed7	-0.019164486
143	0xbd64a34c	-0.055819795
144	0xbbda4119	-0.0066605923
145	0xbe0d5e5a	-0.13805524
146	0xbe3a38ba	-0.18185702
147	0x3d8dada1	0.06917883
148	0xbeda6cbb	-0.4266108
149	0xbd47735d	-0.048694003
150	0xbdcd6789	-0.100295134
151	0x3e3d6f14	0.18499404
152	0x3db8a6d1	0.09016193
153	0xbe0278c2	-0.12741378
154	0xbe41c9d8	-0.18924654
155	0xbea4a630	-0.3215804
156	0xbe48f48e	-0.1962454
157	0x3cc0780a	0.02349474
158	0x3d9a0606	0.0752068
159	0xbb64acba	-0.0034892992
160	0xbd279324	-0.04091181
161	0xbe18ff52	-0.14941147
162	0xbaceff2c	-0.00157926
163	0x3c744d57	0.014911017
164	0xbe3a4f09	-0.18194212
165	0xbe95e8e3	-0.2927924
166	0xbda4ef4e	-0.08053456
167	0xbdc4e2d1	-0.09613574
168	0xbd9669f7	-0.0734443
169	0xbcea6a05	-0.028615007
170	0xbda200a9	-0.07910282
171	0xbd59836e	-0.053103857
172	0xbdcad945	-0.09904722
173	0x3de11e66	0.10992126
174	0xbd3d6e0f	-0.04624754
175	0x3ea0a69b	0.3137711
176	0x3d85382d	0.06504855
177	0xbea708d5	-0.32623926
178	0xbea0a864	-0.31378472
179	0xbc0c8e3e	-0.008578835
180	0x3be208eb	0.0068980358
181	0xbe381659	-0.17977275
182	0x3e5083d2	0.20362785
183	0xbeac5b1c	-0.3366326
184	0x3d8ae7a0	0.0678246
185	0xbec72d7b	-0.38901886
186	0x3d3a654b	0.045506757
187	0xbe13234d	-0.14368935
188	0xbd34bc3a	-0.04412482
189	0xbe866111	-0.2624593
190	0x3cb7ca23	0.022435253
191	0x3d29940c	0.041400954
192	0x3e4c8d5c	0.199758
193	0xbe8ed63f	-0.27897832
194	0xbda254aa	-0.07926305
195	0xbcd3ec6f	-0.025869576
196	0x3d4372b2	0.047716804
197	0x3d1f5d23	0.03890718
198	0x3e36f01e	0.17865035
199	0xbd2598c1	-0.04042888
200	0xbace599e	-0.0015743261
201	0xbe1a515d	-0.150701
202	0x3e1c3b86	0.15257081
203	0xbd97bdc8	-0.07409245
204	0xbdfc32e2	-0.123143926
205	0x3c8cf1ea	0.017205197
206	0xbdec9eeb	-0.11553749
207	0xbd99d074	-0.075104624
208	0xbdf2554f	-0.118326776
209	0xbe285ffc	-0.16442865
210	0xbdc169e2	-0.09444024
211	0xbca2f2da	-0.019891191
212	0xbcb588a5	-0.022159884
213	0x3ea52944	0.32258046
214	0x3c9315f3	0.017954802
215	0x3c0bc07b	0.008529778
216	0x3e8dc49a	0.27689058
217	0x3d3e71d1	0.046495263
218	0x3e039214	0.12848693
219	0x3d012389	0.03152803
220	0xbe09140f	-0.13386558
221	0xbea74d43	-0.32676134
222	0xbe837ca2	-0.25681025
223	0xbd6eaa11	-0.058267657
224	0x3e81d01f	0.25354096
225	0x3d943627	0.07236891
226	0x3d0eed6d	0.034894396
227	0x3e0658d9	0.1311983
228	0xbd44871c	-0.047980413
229	0xbe454dce	-0.19267961
230	0x3e533dcb	0.20629041
231	0xbe1fb6b8	-0.15597045
232	0xbd15b6e2	-0.036551364
233	0x3d7ccea3	0.0617205
234	0x3b8fbbaa	0.004386385
235	0xbd4ea6a5	-0.050451893
236	0xbd0eadb2	-0.034833618
237	0x3e0a90d7	0.13531815
238	0x3e8fa91e	0.28058714
239	0xbdcf54b3	-0.10123577
240	0xbe5c1e9a	-0.21496049
241	0xbd036b94	-0.032085016
242	0xbdbbfa49	-0.091785975
243	0x3e0462ed	0.12928362
244	0x3e4f6da4	0.20256668
245	0xbc1bf474	-0.009518731
246	0x3e8652f6	0.2623517
247	0x3ea465cc	0.32108915
248	0xbe4efed0	-0.20214391
249	0xbe60a881	-0.21939279
250	0xbd1eae29	-0.03874031
251	0xbcf10481	-0.029421093
252	0x3d89021f	0.06689858
253	0xbeeb5347	-0.45961973
254	0x3daf080d	0.085464574
255	0x3e3af896	0.1825889

0.bias f4 [64]
0	0x3d405c8e	0.046963267
1	0x3d9779df	0.07396292
2	0xbe96cb05	-0.29451767
3	0x3be77fd0	0.007064797
4	0x3d64f612	0.055898733
5	0x3c933881	0.01797128
6	0xbe08bd5e	-0.13353488
7	0xbd93487f	-0.07191562
8	0xbc5eb7b1	-0.0135936
9	0x3d316baf	0.043315586
10	0xbd230f86	-0.039809726
11	0x3dd86e97	0.10567968
12	0x3b20d4c9	0.0024540892
13	0x3e756697	0.23964916
14	0x3e1a8a5b	0.15091841
15	0x3d88de65	0.066830434
16	0xbd5e1888	-0.054222614
17	0x3df15300	0.11783409
18	0xbd86f7df	-0.065902464
19	0xbcb6246a	-0.02223416
20	0xbd18fba8	-0.037349373
21	0xbd0de173	-0.034638833
22	0x3e5883f4	0.21144086
23	0x3bf0938f	0.007341809
24	0x3b643898	0.0034823772
25	0x3e17208c	0.1475851
26	0x3cd70c47	0.026250971
27	0x3c1ad867	0.009451008
28	0x3bb4c445	0.005516561
29	0xbc2dfc4e	-0.010619236
30	0xbcf7bfde	-0.030242857
31	0xbd2eb2ba	-0.042650916
32	0x3d406348	0.046969682
33	0x3d7510fd	0.059830654
34	0xbbf48192	-0.007461735
35	0x3df79d19	0.12090511
36	0x3b52f370	0.0032188557
37	0x3cc4fa4b	0.02404513
38	0x3d7ab638	0.061208934
39	0x3d06f3cc	0.032947347
40	0xbb0e4918	-0.0021711048
41	0xbdcb6bd4	-0.09932676
42	0x3d0f6799	0.035010908
43	0x3cfa9554	0.030588783
44	0x3d742596	0.059606157
45	0xb9628726	-0.00021603386
46	0xbcd66c8f	-0.026174812
47	0x3ced6e58	0.02898328
48	0x3d0d3240	0.03447175
49	0xbc583f16	-0.013198635
50	0x3e1863d1	0.14881827
51	0x3d5286b7	0.051398005
52	0xbd1b50ae	-0.03791874
53	0x3d9d703a	0.07687421
54	0x3d9c3c76	0.076287195
55	0x3d835ffa	0.064147905
56	0x3c1bb2cc	0.009503078
57	0xbc4023df	-0.011727302
58	0xbd8fecbe	-0.07027577
59	0x3d120e65	0.03565826
60	0xbc4313df	-0.011906593
61	0x3d5acd52	0.053418465
62	0xbd0ac11b	-0.033875566
63	0xbde43da3	-0.11144569

2.weight f4 [64, 64]
0	0x3c6a37f6	0.014295569
1	0x3d9de73e	0.077101216
2	0xbe75a0b1	-0.2398708
3	0xbd9c0991	-0.07619012
4	0x3e7185c3	0.23586182
5	0x3d8604e7	0.06543904
6	0x3d8e89f0	0.06959903
7	0xbd6249a2	-0.055246003
8	0xbe29b7c0	-0.16574001
9	0xbe325fd1	-0.17419364
10	0xbe353acb	-0.17698209
11	0xbc0570a2	-0.00814453
12	0xbdc8c2e9	-0.09802801
13	0x3e2063ab	0.1566302
14	0x3cdeaa5c	0.027180843
15	0xbd23a1c3	-0.03994919
16	0x3e75d9f0	0.24008918
17	0x3cfd8237	0.03094588
18	0x3e225068	0.15850985
19	0x3d29c8a8	0.041451126
20	0xbcdc2ef9	-0.026877867
21	0x3deec2d7	0.116582565
22	0x3cdb950b	0.026804468
23	0x3dc80881	0.09767247
24	0xbd0061c3	-0.031343233
25	0x3e4d7a29	0.20066132
26	0xbdcf45c5	-0.10120729
27	0xbdb6e247	-0.08929878
28	0xbd7285e5	-0.059209723
29	0x3e1cefd0	0.15325856
30	0xbd11b702	-0.03557492
31	0x3b5a5fc4	0.003332124
32	0x3e503746	0.20333585
33	0x3c175565	0.009236668
34	0x3e1a8b8c	0.15092295
35	0x3e14c548	0.14528382
36	0x3e7ac5df	0.24489544
37	0xbde4d693	-0.11173739
38	0x3d462e6e	0.048384123
39	0xbd0639ca	-0.032769956
40	0xbdd37a16	-0.103260204
41	0xbda858e9	-0.08220083
42	0x3e058275	0.13038047
43	0x3cd5bbf6	0.026090603
44	0x3d600616	0.054693304
45	0x3e9f7737	0.3114564
46	0x3d4e9fbf	0.050445314
47	0xbeb959ea	-0.3620141
48	0x3ce98a21	0.028508248
49	0xbd78c7b5	-0.06073733
50	0xbcc80fad	-0.024421537
51	0xbe2fa734	-0.17153627
52	0xbe3057f1	-0.17221047
53	0x3d486b11	0.04893023
54	0xbe0b681c	-0.13613933
55	0xbd2caef3	-0.042159032
56	0x3d2c88b0	0.042122543
57	0xbca92183	-0.020645862
58	0x3d029754	0.0318826
59	0x3d951536	0.07279436
60	0xbe4cbff1	-0.19995095
61	0xbd807bab	-0.06273588
62	0xbe10f8f6	-0.14157471
63	0x3ce482b6	0.02789436
64	0xbe25d024	-0.1619268
65	0xbc26823f	-0.010162889
66	0xbdaf7fd1	-0.08569301
67	0x3c8a6992	0.016896043
68	0xbdcefdf1	-0.10107029
69	0x3e0e935f	0.13923405
70	0xbe126295	-0.14295419
71	0xbe0853cc	-0.13313216
72	0x3db5c4c2	0.08875419
73	0x3dfe3481	0.12412358
74	0xbe8f2ae7	-0.2796242
75	0x3e3ec682	0.18630412
76	0xbe1d19f4	-0.15341932
77	0x3ed6c246	0.41945094
78	0xbe89a533	-0.2688385
79	0xbd55f1ab	-0.052232426
80	0x3dea6d29	0.11446602
81	0xbd0aed1a	-0.033917524
82	0x3c9ed709	0.019389646
83	0xbe05bdea	-0.13060728
84	0xbda44cea	-0.08022483
85	0xbec077c0	-0.37591362
86	0xbd6d496b	-0.057931345
87	0x3e2aca63	0.16678767
88	0xbe0d8d15	-0.1382335
89	0x3e0b96e1	0.13631774
90	0xbd5490a2	-0.051895745
91	0xbd353881	-0.04424334
92	0x3cea1e16	0.0285788
93	0xbd041e05	-0.03225519
94	0xbd90b727	-0.070661835
95	0x3e2a0f1f	0.1660733
96	0xbdd444e3	-0.103647016
97	0xbcb7353d	-0.022364253
98	0x3db42b9d	0.08797381
99	0xbd9721f3	-0.07379522
100	0x3eb7f237	0.35926983
101	0xbdd3c937	-0.10341113
102	0x3dfeb9b8	0.12437767
103	0x3e221a64	0.1583038
104	0x3d818e6e	0.063259944
105	0x3d95f909	0.0732289
106	0x3c947d3c	0.018126123
107	0xbd819d3f	-0.063288204
108	0x3e909817	0.28241035
109	0xbe440c84	-0.191454
110	0x3ddbc18b	0.10730275
111	0x3b9ca639	0.0047805575
112	0x3e023eea	0.12719312
113	0xbe0a9b60	-0.13535833
114	0x3ea93e95	0.3305556
115	0x3c930734	0.01794777
116	0xbe67aa41	-0.2262354
117	0x3df96293	0.12177005
118	0xbe385eed	-0.18004961
119	0xbc2988db	-0.01034757
120	0x3eb2d666	0.34929198
121	0x3dbe0bad	0.09279571
122	0xbe7e30fe	-0.24823377
123	0x3e0c8020	0.13720751
124	0xbd7c4202	-0.061586387
125	0xbe822d4c	-0.25425184
126	0xbe966478	-0.29373527
127	0x3e287471	0.16450669
128	0x3d68a2c4	0.05679585
129	0x3e02d528	0.12776625
130	0xbd95f66e	-0.07322393
131	0xbd9187c5	-0.07105974
132	0x3c761f3b	0.015022094
133	0x3eabca22	0.33552653
134	0xbe28ce0b	-0.16484849
135	0x3da42762	0.08015324
136	0x3cfc7f8a	0.030822534
137	0x3d82bf7e	0.063841805
138	0xbd0e3b0c	-0.03472428
139	0x3d831bd6	0.06401794
140	0x3df8dabb	0.121510945
141	0xbcb30e13	-0.021857297
142	0x3d43b3d8	0.047778934
143	0x3e5f34bd	0.21797462
144	0xbd16b056	-0.03678926
145	0xbe2f0339	-0.17091073
146	0x3d434de3	0.0476817
147	0xbed366f3	-0.41289482
148	0x3e1f6067	0.15564118
149	0xbdb9b0c4	-0.090669185
150	0x3d3d3ddd	0.046201576
151	0xbe974da7	-0.29551432
152	0x3e5f42c7	0.21802817
153	0x3e20c5aa	0.15700403
154	0xbdebe26d	-0.11517797
155	0xbbfaa13a	-0.0076486142
156	0xbe1520d7	-0.14563309
157	0x3e20a82b	0.15689151
158	0x3d9b8b9a	0.07594986
159	0xbd53bafb	-0.05169199
160	0x3d95e77a	0.07319541
161	0x3dd2a4dd	0.102853514
162	0x3e018352	0.12647751
163	0xbe3f9485	-0.18709
164	0x3df100e3	0.11767747
165	0xbd3faee0	-0.046797633
166	0xbd38b030	-0.0450899
167	0xbe032a5c	-0.12809128
168	0xbdecf083	-0.115693115
169	0x3be79824	0.007067697
170	0x3da84c8a	0.08217724
171	0x3db5436b	0.088507496
172	0x3d247b8b	0.040156882
173	0x3b17921d	0.0023127862
174	0x3c14ca73	0.009081471
175	0x3c718476	0.014741054
176	0x3e35bee4	0.177486
177	0xbeb9ac29	-0.3626416
178	0xbdf01275	-0.117222704
179	0x3d9fec4b	0.07808741
180	0x3e05445e	0.13014361
181	0xbd7d22d1	-0.06180078
182	0xbde7ace4	-0.11312273
183	0xbd528388	-0.05139497
184	0x3d3aa565	0.04556789
185	0xbe10cb90	-0.14140153
186	0x3e0df94e	0.13864633
187	0x3d52bcda	0.051449634
188	0x3e49aba8	0.19694388
189	0x3d80fe5f	0.062985174
190	0xbc9d95b6	-0.019236427
191	0x3d0ba120	0.034089208
192	0xbe04bdbb	-0.12963001
193	0xbeaa0303	-0.33205423
194	0xbe805a9d	-0.25069132
195	0xbd002a00	-0.031290054
196	0xbe115f6a	-0.14196554
197	0xbdf22dda	-0.11825152
198	0xbd0b7d00	-0.034054756
199	0xbd9c370b	-0.07627686
200	0x3ecfb80e	0.4057011
201	0xbd6ca1a8	-0.057771355
202	0xbd5e1b59	-0.0542253
203	0xbe48e2ff	-0.19617842
204	0x3dee6526	0.11640386
205	0xbe9d3704	-0.30706036
206	0x3e2dcf79	0.16973676
207	0xbe26cf57	-0.16290031
208	0x3e78843b	0.24269192
209	0xba35cbb8	-0.00069349585
210	0x3dda8cb0	0.10671365
211	0x3e321d78	0.17394054
212	0xbe6268f0	-0.22110343
213	0x3e5e7e0b	0.21727769
214	0x3c9d2899	0.019184398
215	0xbe244ac1	-0.16044141
216	0x3cea88b7	0.028629644
217	0xbd4c52fb	-0.049883824
218	0x3d329881	0.04360247
219	0xbdbf7f76	-0.09350483
220	0x3da1da3d	0.07902954
221	0x3dfa5370	0.12222946
222	0x3e54b9d2	0.2077401
223	0xbdc33469	-0.09531481
224	0x3db04d99	0.086085506
225	0xbc3b298f	-0.011423483
226	0xbe516c74	-0.20451528
227	0xbdcccd45	-0.100000896
228	0xbe7101c5	-0.23535831
229	0x3d8f2104	0.06988719
230	0xbdfc2706	-0.12312131
231	0x3cb9ff8a	0.022704858
232	0xbe5e340b	-0.2169954
233	0x3e055713	0.13021497
234	0x3dc0a0d9	0.09405679
235	0x3e1cbd6d	0.15306635
236	0xbba41711	-0.0050076325
237	0xbe9e1674	-0.30876505
238	0x3eaea751	0.34112027
239	0x3dcd9680	0.10038471
240	0x3c5a3b90	0.013319865
241	0x3e4967fc	0.19668573
242	0xbde17e89	-0.11010463
243	0x3dadd127	0.08487158
244	0x3d0c097b	0.03418873
245	0x3d7d39e9	0.061822806
246	0xbe05d390	-0.13068986
247	0xbe2f9a25	-0.17148645
248	0x3e2ab3e8	0.16670191
249	0xbb9037cf	-0.004401184
250	0x3e7600a8	0.24023688
251	0x3c03bf62	0.008041235
252	0x3d657cb5	0.056027133
253	0x3de9f607	0.11423879
254	0x3e605a2e	0.21909401
255	0x3d11e213	0.03561599

2.bias f4 [64]
0	0x3c0a750f	0.0084507605
1	0x3e01ab16	0.1266292
2	0x3cffd028	0.031227186
3	0x3c3941fc	0.011307236
4	0xbbae656e	-0.00532215
5	0x3c6be273	0.014397251
6	0xbcb90912	-0.022587333
7	0xbba19105	-0.0049306178
8	0x3d146866	0.036232375
9	0x3ceaee97	0.028678222
10	0x3e35e406	0.17762765
11	0xbd982522	-0.074289575
12	0x3c0c6c4d	0.008570743
13	0x3d870a0e	0.06593715
14	0x3c07cda3	0.008288774
15	0x3e2538ad	0.16134901
16	0x3df67264	0.12033537
17	0x3de2326c	0.110447735
18	0x3c31ffea	0.010864237
19	0xbe21e3cb	-0.15809552
20	0xbd461e37	-0.04836866
21	0x3dc4e924	0.096147805
22	0x3d1e6ad7	0.03867611
23	0xbd2db015	-0.042404253
24	0x3d7cc5dd	0.061712135
25	0xbd9729c8	-0.07381016
26	0xbe014acb	-0.12626188
27	0xbd02ba34	-0.03191586
28	0x3c6d6fd4	0.014491994
29	0x3a285460	0.0006421264
30	0xba303b52	-0.00067227066
31	0x3d919bfb	0.07109829
32	0x3c513a63	0.012770268
33	0xbcd5e372	-0.026109431
34	0xbd005d80	-0.03133917
35	0xb83f4a7d	-4.560732e-05
36	0x3db96f5a	0.09054442
37	0xbd5907d1	-0.05298597
38	0x3e003b86	0.12522706
39	0xbd4ac6db	-0.04950605
40	0x3c9cc177	0.01913522
41	0xbbbae6da	-0.005703789
42	0xbdeaeaac	-0.11470541
43	0xbe0e79bf	-0.1391363
44	0xbc17f67f	-0.009275078
45	0xbdcccae3	-0.09999635
46	0xbd3e438f	-0.046451148
47	0x3d5e9bfb	0.054347973
48	0x3dbe216e	0.0928372
49	0x3da94b51	0.082663186
50	0x3de44a1b	0.11146947
51	0x3da6cb04	0.08144191
52	0xbde9382e	-0.113876686
53	0x3e1d53a0	0.15363932
54	0x3d170aa7	0.036875393
55	0xbdc649af	-0.09682023
56	0xbc115b42	-0.008871855
57	0x3dfbfacf	0.12303697
58	0xbdb3c46c	-0.08777699
59	0x3c45a6df	0.012063711
60	0xbd056fb8	-0.032577246
61	0xbc79a737	-0.015237621
62	0xbd13c4a6	-0.03607621
63	0xbd3ee9dc	-0.046609744
