dir_save/we0_actor_90.pth (torch, 35005 bytes, 4 tensors)

0.weight f4 [64, 64]
0	0x3dea3657	0.11436146
1	0x3eb42d34	0.35190737
2	0x3e6c955f	0.23103856
3	0xbe37bf41	-0.17944051
4	0xbc3cc206	-0.011520868
5	0xbea205b9	-0.3164499
6	0xbe8adfa1	-0.2712374
7	0xbd53829e	-0.051638238
8	0xbdd78643	-0.10523655
9	0x3d74edee	0.05979722
10	0x3e3c3b10	0.18381906
11	0x3e83d13c	0.2574557
12	0xbe17b004	-0.14813238
13	0x3e8b4eb5	0.27208486
14	0xbd241a85	-0.040064353
15	0xbd6ed5be	-0.05830931
16	0x3c7736e7	0.015088773
17	0x3d923481	0.071389206
18	0x3dadab4a	0.084799364
19	0xbcc756df	-0.024333416
20	0xbe5d3dd0	-0.21605611
21	0xbeecf3ef	-0.46279857
22	0xbde7d22a	-0.113193825
23	0x3d80a6c3	0.06281807
24	0xbe9965bf	-0.2996044
25	0xbcffffd9	-0.031249927
26	0xbee6a824	-0.45050156
27	0x3d039b74	0.032130674
28	0xbe0cbe54	-0.1374448
29	0x3e1334fc	0.1437568
30	0x3e5424aa	0.20717111
31	0xbdfcacbc	-0.12337634
32	0xbe20611b	-0.15662043
33	0x3d214516	0.039372526
34	0xbd791ba3	-0.060817372
35	0xbe114754	-0.14187366
36	0xbe3d7e91	-0.18505313
37	0x3c54db72	0.012991773
38	0x3dc296fb	0.095014535
39	0x3ed3a233	0.41334686
40	0xbe8b2ec0	-0.27184105
41	0x3b7db0e4	0.0038710171
42	0xbdf80dc3	-0.12112
43	0xbeba8afe	-0.36434168
44	0x3c1a83ab	0.009430806
45	0xbe935135	-0.28772894
46	0xbe1fa53e	-0.15590379
47	0xbe7ded4f	-0.24797557
48	0xbdeceebf	-0.11568975
49	0xbe601915	-0.21884568
50	0xbdbfdecb	-0.09368666
51	0xbe196704	-0.14980704
52	0xbc333d98	-0.010939978
53	0x3db5368f	0.08848297
54	0x3e3cf6ac	0.18453473
55	0xbeb1e1dc	-0.3474263
56	0xbecc3816	-0.3988654
57	0xbe62baf0	-0.22141623
58	0xbe199cad	-0.15001173
59	0x3df76002	0.12078859
60	0x3c5e7c6b	0.013579468
61	0xbe12903b	-0.14312832
62	0xbb5264c7	-0.0032103525
63	0xbce488e7	-0.027897311
64	0x3ebdb811	0.37054494
65	0xbe01ed51	-0.12688185
66	0x3e4f7d28	0.20262587
67	0xbd528245	-0.051393766
68	0xbcaecfbb	-0.021339288
69	0xbe5ce2bf	-0.21570872
70	0x3e573d4a	0.21019474
71	0xbe1efc4c	-0.15525931
72	0x3e124845	0.14285381
73	0x3de2e91f	0.110796206
74	0x3ed54c78	0.41659904
75	0xbeef1688	-0.46696877
76	0x3d77fbab	0.060542744
77	0xbd9c8fd6	-0.07644622
78	0xbe807f81	-0.25097278
79	0xbe6b11f0	-0.22956061
80	0x3e171bee	0.14756748
81	0x3e2150ee	0.15753528
82	0x3d98b3f5	0.07456199
83	0xbcecb271	-0.028893681
84	0x3b903057	0.004400294
85	0xbe5c79a4	-0.21530777
86	0x3e61c872	0.2204912
87	0x3cc3a839	0.023883926
88	0x3e0d3baf	0.13792299
89	0xbef9275e	-0.48662847
90	0xbecef0d6	-0.40418118
91	0xbe05d080	-0.13067818
92	0xbd8aa7c5	-0.06770281
93	0x3e0f0ef1	0.13970543
94	0xbd95fb4f	-0.07323324
95	0x3dbc005c	0.09179756
96	0xbe341b5c	-0.17588562
97	0xbc61daf3	-0.013785112
98	0x3e8c5cf4	0.27414668
99	0x3d8ee7d8	0.069778144
100	0xbe3447ca	-0.1760551
101	0x3e4cf1d4	0.20014125
102	0x3dc9e7d5	0.098586716
103	0x3e1a8364	0.15089184
104	0xbd703b0a	-0.058650054
105	0xbd7ab636	-0.061208926
106	0xbce90b32	-0.028447721
107	0x3dc2428a	0.094853476
108	0x3cf5bef3	0.029998278
109	0xbddb1e51	-0.10699142
110	0xbe0117fb	-0.12606804
111	0x3e4b7b53	0.19871263
112	0x3e402814	0.18765289
113	0xbd6150f3	-0.05500884
114	0x3da0139f	0.078162424
115	0x3d6d4944	0.0579312
116	0x3deba332	0.115057364
117	0x3eaac996	0.33356923
118	0xbe1cb091	-0.1530173
119	0xbe826697	-0.25468895
120	0xbc576ba5	-0.013148223
121	0xbda1d76a	-0.07902415
122	0xbdacff17	-0.08447092
123	0xbe26dc01	-0.16294862
124	0x3ec62ee9	0.38707665
125	0x3e737df1	0.23778512
126	0xbd519480	-0.05116701
127	0xbe0a902f	-0.13531564
128	0x3e023d77	0.1271876
129	0xbe1d06bc	-0.153346
130	0xbe084dae	-0.13310882
131	0x3cdace10	0.026709586
132	0xbd1d86a5	-0.038458485
133	0x3d99284b	0.074783884
134	0xbbe72de8	-0.007055033
135	0xbd0b8b99	-0.034068678
136	0x3d60380e	0.054740958
137	0xbba345aa	-0.00498267
138	0xbcbd8ac8	-0.023137465
139	0x3e29cdf5	0.16582473
140	0x3ba639d4	0.0050728116
141	0xbe439179	-0.19098462
142	0xbd6a8d7d	-0.05726384
143	0xbd06e326	-0.03293147
144	0x3d71a08d	0.058991004
145	0xbe29420f	-0.16529106
146	0xbe699e03	-0.22814183
147	0x3e016404	0.12635809
148	0xbecfee2d	-0.406114
149	0x3b22c601	0.0024837258
150	0xbdca44da	-0.09876414
151	0x3e8d6180	0.2761345
152	0x3d51f36f	0.051257547
153	0xbcd7bf69	-0.026336389
154	0xbe6add3f	-0.22935961
155	0xbe9450d3	-0.28967914
156	0xbdd98f4e	-0.10623036
157	0x3c53fe98	0.012939118
158	0x3e5e93d1	0.21736075
159	0xbd800224	-0.06250408
160	0xbe10c543	-0.1413775
161	0xbd80d10f	-0.06289875
162	0xbd88e061	-0.06683422
163	0xbe5be3b2	-0.21473578
164	0xbe50fede	-0.20409724
165	0xbeac4826	-0.33648795
166	0xbdaa8075	-0.083252825
167	0xbdc2c01e	-0.095093
168	0x3d7e2278	0.06204459
169	0x3df9c94c	0.121965975
170	0xbdc2c519	-0.0951025
171	0xbe89bbfe	-0.2690124
172	0xbe69aef2	-0.22820643
173	0x3da7eb7b	0.08199211
174	0xbc548471	-0.01297103
175	0x3ea2c5d8	0.31791568
176	0x3bf11910	0.007357724
177	0xbea54bd5	-0.32284418
178	0xbe66fb29	-0.22556747
179	0x3dbfa2b4	0.09357205
180	0x3c5567dc	0.01302525
181	0xbe55f1f4	-0.20893079
182	0x3e690a16	0.22757754
183	0xbef2f81b	-0.47454914
184	0x3d844432	0.0645832
185	0xbed36bdc	-0.41293228
186	0x3e03813b	0.12842266
187	0xbd9e3ec6	-0.07726817
188	0xbd8407de	-0.06446813
189	0xbe88f8b8	-0.26752257
190	0xbcb20b34	-0.021733858
191	0xba01eda3	-0.000495637
192	0x3e9ad668	0.30241704
193	0xbeb69cf1	-0.35666612
194	0xbca0fec1	-0.019652726
195	0xbe1d4ff5	-0.15362532
196	0x3e0cdbef	0.13755773
197	0x3d9716a5	0.07377366
198	0x3dd696aa	0.10477956
199	0xbbd33e04	-0.006446602
200	0x3e2d1aed	0.16904803
201	0xbe8499dc	-0.25898635
202	0x3e0b9cc6	0.13634023
203	0x3d4cb246	0.049974702
204	0xbd8c86f6	-0.06861679
205	0xbc9b830f	-0.018983392
206	0xbe208514	-0.15675765
207	0x3d8afb1b	0.06786176
208	0xbd2ec19f	-0.04266512
209	0xbd8b5d04	-0.06804851
210	0xbd74c13e	-0.059754603
211	0xbeb6159a	-0.35563356
212	0xbd5865cd	-0.05283146
213	0x3e9695bb	0.2941111
214	0xbcb252dc	-0.021768026
215	0x39ba2de5	0.0003551088
216	0x3eaaf809	0.3339236
217	0xbd84ce32	-0.06484641
218	0x3e43b131	0.19110562
219	0x3e03ab5f	0.12858342
220	0xbe4fb550	-0.20284009
221	0xbe90ac69	-0.2825654
222	0xbe960253	-0.29298648
223	0xbd5a162f	-0.053243812
224	0x3e51eee2	0.20501283
225	0x3d533c8c	0.051571414
226	0x3e46b450	0.19404721
227	0x3e1b3b87	0.15159427
228	0xbdbf4ad7	-0.093404464
229	0xbe1d0d96	-0.15337214
230	0x3e7757fb	0.24154656
231	0xbe1faead	-0.15593977
232	0xbddea22e	-0.10870777
233	0x3c134f0b	0.008991013
234	0xbb9c3ee4	-0.0047682393
235	0x3ba9ea2b	0.0051853857
236	0xbda1ed7a	-0.07906623
237	0x3e418461	0.18898155
238	0x3e8e7ef0	0.2783122
239	0x3d25dab3	0.04049177
240	0xbe8016e1	-0.25017455
241	0x3d5e73e0	0.054309726
242	0xbe0eb2c1	-0.13935377
243	0xbdb459f0	-0.08806217
244	0x3e76cbf9	0.24101247
245	0xbe27f53b	-0.16402142
246	0x3e47a706	0.19497308
247	0x3e9e6514	0.3093649
248	0xbe640aef	-0.22269796
249	0xbe6ddaf5	-0.23228057
250	0xbda7c710	-0.08192265
251	0xbdad6194	-0.08465877
252	0x3dc40a4f	0.09572279
253	0xbf008f3a	-0.50218546
254	0x3dcaca37	0.09901851
255	0x3de813c2	0.113318935

0.bias f4 [64]
0	0x3d7ffaf5	0.06249519
1	0x3d7b465d	0.0613464
2	0xbe957e57	-0.29197952
3	0x3b3098e5	0.00269466
4	0x3d8eb4ab	0.069680534
5	0x3c7c6a05	0.015406136
6	0xbdb590b3	-0.0886549
7	0xbd8ec2e1	-0.06970764
8	0xbcee50f2	-0.029091332
9	0x3d5a50f6	0.053299867
10	0xbd2b8dd0	-0.04188329
11	0x3e178deb	0.14800231
12	0xbd11adfa	-0.035566308
13	0x3e7ae829	0.24502625
14	0x3e21006c	0.15722817
15	0x3d9a9194	0.07547298
16	0xbd72e158	-0.059296936
17	0x3d197c76	0.03747221
18	0xbd403ee2	-0.04693497
19	0xbdd73d99	-0.10509796
20	0x3cb96909	0.022633092
21	0xbc2b7c41	-0.010466636
22	0x3e8f5e83	0.28001794
23	0x3d8d9b3c	0.06914374
24	0xbd836a2d	-0.06416736
25	0x3da6e49b	0.08149072
26	0x3db3b0d1	0.087739594
27	0x3c49c184	0.012314204
28	0x3ceebf48	0.029143944
29	0xbd486dd0	-0.04893285
30	0x39da319f	0.0004161717
31	0xbb69ae09	-0.0035656712
32	0x3d3b0322	0.045657285
33	0x3b038177	0.002006618
34	0xbc14c287	-0.009079582
35	0x3d9d0fcd	0.076690294
36	0xbdb06b4d	-0.08614216
37	0x3e16a6cf	0.1471207
38	0x3d8b76eb	0.06809791
39	0x3d65b294	0.05607851
40	0xbd6eb5b8	-0.05827877
41	0xbd27cfe5	-0.040969748
42	0x3c45489e	0.012041239
43	0x3d7f7cb8	0.0623748
44	0x3d8d926d	0.06912694
45	0x3d618748	0.055060655
46	0xbd6264f2	-0.05527205
47	0x3d76eca0	0.060284257
48	0x3ccea50e	0.025225189
49	0x3a428698	0.0007420569
50	0x3e392a4e	0.18082544
51	0x3cc186db	0.023623874
52	0xbd6f9a91	-0.058497015
53	0x3ddc13b6	0.10745947
54	0x3db7bd23	0.08971622
55	0x3e30627c	0.17225069
56	0x3d271f29	0.0408012
57	0xbb1a2cad	-0.0023525164
58	0xbdc3d5a3	-0.09562232
59	0x3c6c7d7f	0.0144342175
60	0x3a89fe4a	0.0010528055
61	0x3dad77c2	0.084701076
62	0xbca2a98d	-0.019856239
63	0xbdfebfe7	-0.12438946

2.weight f4 [64, 64]
0	0xbde18f46	-0.11013655
1	0xbb08aa68	-0.0020853523
2	0xbeab668f	-0.33476683
3	0xbd39d6cf	-0.045370873
4	0x3e50c225	0.2038656
5	0x3dc2e9d1	0.09517253
6	0x3dbd5cd0	0.09246218
7	0xbddedce4	-0.10881975
8	0xbe79c270	-0.24390578
9	0xbe37e2b9	-0.17957582
10	0xbe9d67cf	-0.30743262
11	0x3cca4d34	0.024695016
12	0xbde68b05	-0.112569846
13	0x3e28535a	0.16438046
14	0xbddb050a	-0.106943205
15	0xbe0c4819	-0.13699378
16	0x3e119a38	0.14218986
17	0x3d1d85a7	0.03845754
18	0x3e431060	0.19049215
19	0xbc4aaa79	-0.012369745
20	0xbc12c976	-0.008959165
21	0xbc56637f	-0.013085245
22	0x3d16e61d	0.036840547
23	0x3db71da4	0.089412004
24	0xbdbb8387	-0.09155946
25	0x3e4d5019	0.20050086
26	0xbdce1b13	-0.10063758
27	0xbdede56c	-0.116160244
28	0x3dea4edf	0.11440825
29	0x3e8195f1	0.2530971
30	0x3c8d08da	0.017216135
31	0xbdc061b3	-0.09393635
32	0x3e7f4840	0.24929905
33	0xbd84e532	-0.06489028
34	0x3e17eefc	0.14837259
35	0x3e5b0c22	0.21391347
36	0x3e83d086	0.25745028
37	0xbe0db899	-0.1383995
38	0x3cf6a96d	0.030110085
39	0xbe11060b	-0.14162461
40	0xbde5f912	-0.11229147
41	0xbe00bf3d	-0.12572952
42	0x3debe8ee	0.11519037
43	0xbe2c0062	-0.16797021
44	0x3dbc4dd1	0.0919453
45	0x3e359b24	0.17734963
46	0x3ddd7678	0.10813612
47	0xbf091491	-0.53547007
48	0x3d3f04d4	0.046635464
49	0x3c8c12b6	0.017098766
50	0x3d16f329	0.03685299
51	0xbe236583	-0.15956692
52	0xbe8bcb07	-0.27303335
53	0x3da32518	0.079660594
54	0xbdf13c9d	-0.11779139
55	0xbda7e35b	-0.081976615
56	0x3e01adc8	0.12663949
57	0x3cf88c11	0.030340226
58	0x3dd391e0	0.10330558
59	0x3dbd495f	0.0924251
60	0xbe289ccf	-0.16466068
61	0xba07b721	-0.00051771296
62	0xbe3bd614	-0.18343383
63	0x3d40eb05	0.047099132
64	0xbe4cb016	-0.19989046
65	0xbdc816a2	-0.09769942
66	0xbd2da031	-0.0423891
67	0x3d4f1962	0.050561316
68	0xbe2af948	-0.16696656
69	0x3decd12c	0.11563334
70	0xbe4a8df2	-0.1978071
71	0xbe8b3175	-0.2718617
72	0x3d934d2f	0.07192456
73	0x3d0fae3d	0.035078276
74	0xbebaec59	-0.36508444
75	0x3e4d7fcf	0.20068286
76	0xbe1c0214	-0.15235168
77	0x3ed9ee4b	0.42564616
78	0xbe8efb3f	-0.2792606
79	0xbdd18900	-0.10231209
80	0x3e21834c	0.15772742
81	0xbc8e5546	-0.017374646
82	0x3d478cf3	0.048718404
83	0xbd4a72be	-0.049425833
84	0xbcf499f7	-0.029858572
85	0xbf05309c	-0.520273
86	0xbd8cb254	-0.06869951
87	0x3e1437e7	0.1447445
88	0xbc977dfa	-0.018492687
89	0x3e46a5c8	0.19399178
90	0xbd8d6426	-0.069038674
91	0xbe2eb3c1	-0.17060758
92	0x3e070462	0.13185266
93	0xbc4655b4	-0.012105394
94	0xbdcf5d89	-0.10125262
95	0x3e5a4218	0.21314275
96	0xbe718d5a	-0.23589078
97	0xbcb0f2b4	-0.021600105
98	0x3dc62406	0.0967484
99	0x3c861496	0.016367238
100	0x3ec50b76	0.38485307
101	0xbe0c1644	-0.13680369
102	0x3db9edfc	0.09078595
103	0x3d4ee661	0.050512675
104	0x3dd5f209	0.10446555
105	0xbdc188d1	-0.09449924
106	0x3c431932	0.0119078625
107	0xbe3a9430	-0.18220592
108	0x3ea6fb56	0.3261363
109	0xbe39d576	-0.18147835
110	0x3e0e01c5	0.13867863
111	0xbdc34e08	-0.09536368
112	0x3d4e1d0e	0.050320677
113	0xbd8d50cd	-0.06900177
114	0x3eace107	0.33765432
115	0x3d0a890e	0.03382211
116	0xbe5ae87a	-0.21377745
117	0x3d5c238a	0.05374483
118	0xbe412fde	-0.18865916
119	0xbc1e7006	-0.009670263
120	0x3ed6bf98	0.4194305
121	0x3dfc103e	0.123077855
122	0xbe462e02	-0.19353488
123	0x3d7bf3a8	0.061511666
124	0xbdb005b0	-0.08594835
125	0xbe82b46d	-0.2552828
126	0xbec02924	-0.37531388
127	0x3e3d35ad	0.18477507
128	0x3e0879d9	0.13327731
129	0x3dcbdbf3	0.09954061
130	0x3e1f7e9b	0.1557564
131	0xbdd92053	-0.106018685
132	0x3dd16aca	0.102254465
133	0x3ee9fb38	0.45699477
134	0xbdcb2b19	-0.099203296
135	0x3e7383c2	0.2378073
136	0x3e234318	0.15943563
137	0x3e155f9b	0.14587252
138	0x3e1a03f4	0.1504057
139	0xbcae7a6c	-0.02129861
140	0x3e7f0832	0.2490547
141	0xbd8eec44	-0.06978658
142	0x3e31daf6	0.17368683
143	0x3e972fe4	0.29528725
144	0x3d918e8b	0.07107266
145	0xbe0e917f	-0.1392269
146	0xbc41b1cb	-0.011822174
147	0xbed2e968	-0.411937
148	0x3e9f755b	0.31144223
149	0x3d9492e7	0.07254582
150	0xbd3eb7df	-0.046562072
151	0xbeabcf89	-0.33556774
152	0x3e99e711	0.30059102
153	0x3e3333f1	0.17500283
154	0xbd61dc00	-0.05514145
155	0x3d4ef5bf	0.05052733
156	0xbea9223b	-0.33033928
157	0x3e12c87f	0.14334296
158	0xbd643a5f	-0.05571973
159	0xbd939168	-0.072054684
160	0x3e6987c2	0.22805694
161	0x3e3f71e8	0.18695796
162	0x3e15555f	0.14583348
163	0xbed29d03	-0.41135415
164	0x3de97a5f	0.114002936
165	0xbd8b1c9f	-0.067925684
166	0x3d6a85e6	0.0572566
167	0xbe0656ad	-0.13119002
168	0xbdba9d80	-0.09112072
169	0x3dd89d26	0.10576849
170	0x3da8e783	0.08247282
171	0x3e4fdc21	0.20298816
172	0x3e15f9c4	0.1464606
173	0x3d994782	0.07484342
174	0x3d28afbf	0.04118323
175	0x3d1aa922	0.037758954
176	0x3e79317f	0.24335288
177	0xbed37ba9	-0.41305283
178	0xbe134bb1	-0.14384343
179	0x3e147ea7	0.14501439
180	0x3e71f64b	0.2362911
181	0xbddba2b0	-0.107243896
182	0xbdc899eb	-0.097949825
183	0xbe270635	-0.16310962
184	0xbd10226c	-0.035189077
185	0xbdd64ed8	-0.10464257
186	0x3dc460e6	0.095887944
187	0x3d08d274	0.03340383
188	0x3e90069c	0.28130043
189	0x3d1b5525	0.037922997
190	0x3dc6ad52	0.09701027
191	0xbdc6eafd	-0.09712789
192	0xbd361d3c	-0.044461474
193	0xbe8c421e	-0.27394193
194	0xbe80dabb	-0.25166878
195	0xbd079acf	-0.03310662
196	0xbe26a02b	-0.16272037
197	0xbdc21841	-0.09477282
198	0xbd4d85e6	-0.050176524
199	0xbd7133b1	-0.058887187
200	0x3ee177b1	0.4403663
201	0xbd90d910	-0.070726514
202	0xbda63826	-0.08116178
203	0xbe2522b7	-0.16126524
204	0x3e3449b1	0.17606236
205	0xbeac04ae	-0.3359732
206	0x3e40bbad	0.18821593
207	0xbe227cdd	-0.15867944
208	0x3e6072af	0.21918748
209	0x3bbe3e73	0.0058057844
210	0x3e079592	0.1324065
211	0x3e1c1b6c	0.15244836
212	0xbe5021db	-0.20325415
213	0x3e3ad4ca	0.18245235
214	0x3b995702	0.0046795616
215	0xbe382238	-0.17981803
216	0x3d8c46fc	0.06849477
217	0xbcce310d	-0.025169874
218	0xbce1ac6d	-0.02754804
219	0xbd0e6b28	-0.03477016
220	0x3de0b55e	0.10972093
221	0x3e4435af	0.19161104
222	0x3e4bdcb5	0.19908412
223	0xbe2a5c08	-0.1663667
224	0x3d9972f1	0.074926265
225	0xbce31cfa	-0.027723778
226	0xbe3c2c89	-0.18376364
227	0xbe1413d7	-0.14460693
228	0xbe6d4c43	-0.23173623
229	0x3d78e1c2	0.060762174
230	0xbdbe00b7	-0.0927748
231	0x3d07d828	0.033165127
232	0xbe605228	-0.2190634
233	0x3e10b1b8	0.14130294
234	0x3e01636d	0.12635584
235	0x3e53d024	0.20684868
236	0x3ca01e78	0.019545779
237	0xbea2fc51	-0.31833127
238	0x3ebcc158	0.3686626
239	0x3e0a8ad3	0.1352952
240	0x3da63caf	0.08117043
241	0x3e39594e	0.18100473
242	0xbdead4b3	-0.114663504
243	0x3dc72812	0.0972444
244	0x3cf3efbc	0.0297774
245	0x3d583478	0.052784413
246	0xbde8ec58	-0.11373204
247	0xbe27c1f4	-0.16382581
248	0x3e5176c1	0.20455457
249	0xbd4cf4ce	-0.05003815
250	0x3e7175b8	0.23580062
251	0xbcc230cd	-0.02370491
252	0x3daa79f0	0.08324039
253	0x3e321442	0.1739054
254	0x3e988eea	0.29796535
255	0x3bfce53c	0.0077177566

2.bias f4 [64]
0	0x3c294da7	0.010333455
1	0x3de07b31	0.10960997
2	0xbc9fb16b	-0.01949378
3	0xbc12aeac	-0.008952778
4	0xbd807e87	-0.06274133
5	0x3d0648dc	0.032784328
6	0x3cb0d1d1	0.021584423
7	0x3b5a1a1e	0.0033279727
8	0x3d84c35c	0.06482574
9	0x3da9493b	0.08265921
10	0x3e6bdf26	0.23034343
11	0xbda7a580	-0.081858635
12	0xbd21d9be	-0.039514296
13	0x3e0be932	0.13663176
14	0xbd1c38e6	-0.0381402
15	0x3d8d864f	0.06910383
16	0x3e05362b	0.13008945
17	0x3e07f8ff	0.13278578
18	0xbd93aa63	-0.07210233
19	0xbe6b56ca	-0.22982326
20	0xbe196b83	-0.14982419
21	0x3e3c15bc	0.18367666
22	0x3de5175d	0.11186097
23	0x3ce9ef53	0.028556501
24	0x3e237c24	0.15965325
25	0xbdab64c2	-0.083688274
26	0xbe3dccdd	-0.1853518
27	0xbd426b6e	-0.047465734
28	0x3c27797f	0.010221838
29	0x3cd35544	0.025797494
30	0xbd71fdba	-0.059079863
31	0x3dfab50e	0.12241565
32	0xbb8adba6	-0.00423761
33	0xbd2e5ca5	-0.04256882
34	0x3d384721	0.04498971
35	0xbc016880	-0.00789845
36	0x3e0a2a1a	0.13492623
37	0xbdb94c53	-0.09047761
38	0x3e510f27	0.20415936
39	0xbd1b4959	-0.037911747
40	0x3e14d487	0.14534198
41	0xbc5a36f2	-0.013318764
42	0xbd79420c	-0.060854003
43	0xbe423feb	-0.18969695
44	0xbd3a28b0	-0.04544896
45	0xbe279438	-0.16365135
46	0xbe015c51	-0.12632872
47	0x3c7ff495	0.015622278
48	0x3c747571	0.014920578
49	0x3e0aee28	0.13567412
50	0x3e138de5	0.14409597
51	0x3e2bf4d0	0.16792607
52	0xbdaa80fc	-0.08325383
53	0x3e43fd9a	0.1913971
54	0xbc4d17c4	-0.012517873
55	0xbdeb6c44	-0.114952594
56	0xbd476250	-0.048677742
57	0x3dba3186	0.09091477
58	0xbdabef19	-0.08395214
59	0xbd15ba5d	-0.036554683
60	0xbba2d9af	-0.0049697976
61	0x3a9a000e	0.0011749284
62	0xbc39e4fa	-0.011346096
63	0xbd2357a2	-0.039878495
