dir_save/we0_actor_20.pth (torch, 35005 bytes, 4 tensors)

0.weight f4 [64, 64]
00000000: a5e2 313e 8dd1 bf3e d366 593e 40eb 3cbe
00000010: 1243 913d 8296 a6be 1cdc 84be ef42 02bd
00000020: 7d58 abbd d884 883d a07c 083e d366 563e
00000030: f5e6 003d 32e7 7e3e 4aa5 a439 fca6 8dbd
00000040: b5aa 3d3d e400 8d3d 24d2 073e 8739 d8ba
00000050: 0626 68be 615f 04bf 25e9 01be bd09 bd3d
00000060: 8d7d 97be a845 0ebc 55a0 b6be 64e1 993b
00000070: b885 6ebe 3d11 2c3e da8b 413e 7e55 e1bd
00000080: fb4e c2bd b4e8 9cbc f24b 98bc f419 65bc
00000090: 5396 4cbe 0c4d 8cba 3733 a83d 5edb d93e
000000a0: 754c bbbe a9a8 4d3d feef 81bd 2597 38be
000000b0: 8746 773d e5f4 7abe a9ba 29be ec82 85be
000000c0: f595 04be f210 4abe 154a fcbd 4459 4abe
000000d0: 8317 9fbc 00ec c03d 7d51 2a3e e2ba 8fbe
000000e0: fca1 c5be 9a65 67be e6d1 61be 985a 7f3c
000000f0: 57ec 3e3d d944 b3bd b22d 553d 47d4 efbc
00000100: 6e22 c13e e68f 26be 24e3 503e c1e1 73bd
00000110: 5329 7abc c3fa 37be 768c 5b3e 4e2d 19be
00000120: 03a0 073e 475e f83d 53e0 9a3e f42f cebe
00000130: be48 df3d 8613 7abd a1eb 80be ca88 62be
00000140: 815a 203e e7ec 1f3e 949d b23d 031b 86bd
00000150: af40 803b 23e7 62be 5488 603e 5a6e f93c
00000160: a029 143e c365 0dbf d3db a4be 9d9f cebd
00000170: edd1 44bd 00ea 1c3e ed28 b0bd 0dfd bf3d
00000180: 471c 2fbe e776 d3bc 7852 9e3e 6ca8 003e
00000190: a75d 32be c07b 393e b84d c33d 2eff 1e3e
000001a0: de53 d1bc a044 45bd 87e2 48ba 447d 2b3e
000001b0: d997 2c3d da05 0bbe db6f 00be afef 483e
000001c0: 53b5 103e 7e3b 63bd 9795 b33d d11c 1c3d
000001d0: 2cc4 cb3d 2242 a93e 775c 01be 44e1 5bbe
000001e0: 0359 b4bc 43ac a0bd a4b8 99bd b1b8 0bbe
000001f0: 9e3e c43e dfe5 623e f056 72bd f9e3 17be
00000200: 83c3 f73d f6c6 1dbe cef9 49be a128 573d
00000210: b789 91bb 44d3 ae3d 9539 013d 09bf 9e3c
00000220: 56ce 883d 16db 483c 9e98 1bbd 5a20 ee3d
00000230: b93e 563d 3957 3cbe 792e 85bd 2b63 b1bd
00000240: 1dd4 13ba 5bf6 37be 43a2 48be 27bb eb3d
00000250: 16e0 c1be 5297 92bd 62e1 0fbe aeca 913e
00000260: 2652 373d edba 37bd 46b4 42be 0175 8bbe
00000270: d3d9 74be b520 763d dc17 4c3e af95 a9bc
00000280: 0301 d9bd d2f2 ddbd ca6e 1dbc d912 8bbd
00000290: 592e 66be e6d2 9dbe fe01 febd 3928 65bd
000002a0: c12e 5fbb eabe b03d 887c b1bc 94b1 f1bd
000002b0: 52f2 e7bd e935 f63d ad71 3cbd 987c 8d3e
000002c0: 692b f4bc 98c2 8ebe f0bc 86be 2d08 553d
000002d0: c296 213c 3e7b 3fbe 1b43 4a3e 62bf e7be
000002e0: e470 d93d e1b2 ddbe 0486 f13c 9438 36be
000002f0: 93b4 20bb 34e4 a2be 9366 e73b ff7a cc3c
00000300: 94bf a13e 249a 9cbe 3d09 16bd f87a cbbd
00000310: 3651 bc3d 505c 733d 5db8 bb3d ff64 f9bc
00000320: 4a26 853d 8263 73be 3384 153e cfbd efbd
00000330: f25c 3bbe 428a 843c 053a c3bd 1cbc ddbc
00000340: c42f 5bbd 2b89 b0bd 81a6 6fbd 26fc 2cbe
00000350: 98f2 0dbb 65db 9b3e 5cfa 83bc 5585 a7bc
00000360: ed54 983e 4720 4fbc 15b2 2c3e 71a4 b53d
00000370: 68dd 2fbe c9f0 98be dcf9 81be 83ad 72bd
00000380: 5488 863e 14b9 713d 1f04 0f3e 8727 1e3e
00000390: edc1 82bd c439 4bbe 9860 743e 348b 18be
000003a0: 9772 20be 4335 133d ecee 033d 20af 50bc
000003b0: eea1 87bd ce06 213e 36ae 8c3e ab56 2e3d
000003c0: 3624 03be 651f 7dbc c275 18bd 8872 a53b
000003d0: ad68 643e b530 91bd b848 603e a8ee 9d3e
000003e0: 5278 56be da12 6cbe e347 75bd d893 87bd
000003f0: de70 c03d d114 f7be 7e60 623d 9c7a 233e
0.17371614 0.37464562 0.2123063 -0.18449116 0.07092871 -0.32536703 -0.2594918 -0.031802114
-0.08366487 0.06665963 0.1332879 0.20937662 0.031470258 0.24892882 0.00031403668 -0.06916615
0.046305377 0.068849355 0.13263756 -0.0016496637 -0.22670755 -0.51708037 -0.12686594 0.09230373
-0.29587975 -0.0086835995 -0.356692 0.004696058 -0.23293197 0.16803451 0.18901005 -0.110026345
-0.094877206 -0.01915393 -0.018590901 -0.0139832385 -0.19979219 -0.0010704114 0.082128935 0.42550176
-0.3658177 0.050209675 -0.06344603 -0.18026407 0.060369994 -0.24507482 -0.16575111 -0.26076448
-0.12947829 -0.19733027 -0.123188175 -0.19760615 -0.019420391 0.094200134 0.16632648 -0.28072268
-0.38600147 -0.22597352 -0.22052726 0.015585564 0.04661211 -0.08753366 0.05204553 -0.029276026
0.3772158 -0.1626583 0.20399147 -0.059541468 -0.0152686415 -0.17966752 0.214403 -0.14958689
0.13244633 0.12127357 0.3024927 -0.4027096 0.10902546 -0.061053775 -0.2517977 -0.22122493
0.15659525 0.15617715 0.08721462 -0.06548121 0.003913961 -0.22158484 0.21927005 0.030448128
0.14469004 -0.552334 -0.32198963 -0.100890376 -0.048051763 0.15323639 -0.08601556 0.093744375
-0.1710063 -0.025813533 0.30922294 0.12564248 -0.17418538 0.18113613 0.09536308 0.15527031
-0.025552686 -0.04816115 -0.000766315 0.16747004 0.042137 -0.13576451 -0.1254267 0.19622682
0.1413167 -0.055476658 0.087687664 0.03811342 0.09949526 0.33058268 -0.12632929 -0.21472651
-0.0220151 -0.07845356 -0.075059205 -0.13644673 0.38329023 0.22158001 -0.05916494 -0.14833058
0.12097838 -0.15407929 -0.19724199 0.05252898 -0.0044414657 0.085363895 0.031549055 0.019378202
0.066799805 0.012259265 -0.037987344 0.11627264 0.05230591 -0.18392648 -0.065030046 -0.08661493
-0.00056392123 -0.17965071 -0.19593148 0.11510306 -0.37866277 -0.07157768 -0.1405082 0.28474945
0.044756077 -0.044856 -0.19014081 -0.27237704 -0.23911218 0.060089786 0.19930977 -0.020701258
-0.10595896 -0.1083733 -0.009608934 -0.06790704 -0.22478618 -0.30824965 -0.12402724 -0.055946562
-0.0034054967 0.08630164 -0.021665826 -0.118014485 -0.11325516 0.12022001 -0.046006847 0.2763412
-0.029805856 -0.27882838 -0.26316023 0.05200975 0.009862604 -0.18699357 0.19752161 -0.452632
0.10617235 -0.43300536 0.029482849 -0.1779502 -0.0024521693 -0.3181473 0.0070617883 0.024960993
0.31591475 -0.3058635 -0.036629904 -0.09935564 0.09195177 0.059414208 0.09166024 -0.030443667
0.06501444 -0.23768428 0.14601211 -0.11706125 -0.18297175 0.016179208 -0.09532551 -0.027067237
-0.05351235 -0.08619913 -0.0585084 -0.16893062 -0.002165949 0.30440822 -0.016110592 -0.02044932
0.29752293 -0.012641973 0.16864808 0.08869255 -0.17174304 -0.29871204 -0.2538594 -0.059247505
0.26275885 0.059014395 0.13966416 0.15444766 -0.06384645 -0.19846255 0.23864973 -0.14896852
-0.15668713 0.035939466 0.032210276 -0.012737066 -0.066226825 0.15725252 0.27476662 0.04256312
-0.12806782 -0.01544938 -0.037221678 0.0050490536 0.22305556 -0.07089368 0.2190274 0.30846143
-0.20944336 -0.23054066 -0.05988301 -0.06619996 0.09396528 -0.4825807 0.055267803 0.1596474

0.bias f4 [64]
00000000: a74b 983d 4e97 873d bac1 81be 4a9f 433c
00000010: 1a2a 633d fc0d 553d 6a2a 04be 35a9 96bd
00000020: 7dd9 0cbd 3589 2b3d 477c 9bbd ef44 0a3e
00000030: feba 4bbd 11ae 8d3e f892 1f3e 9fc5 693d
00000040: fa5a 75bd 4114 823d 4241 16bd 57aa c7bd
00000050: 1546 1d3c 1a0a c3bc b9af 863e ca37 493d
00000060: b935 23bc 837e bc3d c0a3 443d 8f09 1b3d
00000070: 849a 8b3c fad1 5bbc 5c53 0ebd 7417 14bc
00000080: 313b 2b3d b6cb 7d3d dd8a 243c 675d 773d
00000090: bafa 5abd bbc2 943d 57f7 1f3d 8f66 9a3d
000000a0: 6092 13bd 328c d5bd 8644 123d df6e cf3d
000000b0: d60e aa3d da0a e13c bdf6 3fbc 2d18 813d
000000c0: df3c 893c 5f3d 80bc a01a 683e a732 6d3d
000000d0: 0118 a9bd bf76 a83d de1a bc3d 95fb 013e
000000e0: e5c3 3c3d a063 093b f460 32bd 2142 733b
000000f0: 424d 5abd 5e89 853d a36c 2fbd 7b91 d3bd
0.074363045 0.06620656 -0.25343114 0.011939833 0.055460073 0.05201529 -0.12906805 -0.073564924
-0.0343871 0.041878898 -0.075920634 0.13502859 -0.049738877 0.27671865 0.15583408 0.05707323
-0.059901215 0.063515194 -0.03668333 -0.097492866 0.009599228 -0.023808528 0.2630594 0.04912547
-0.009961539 0.09203818 0.048007727 0.037850913 0.017041452 -0.0134167615 -0.034747466 -0.009038795
0.041804496 0.061961852 0.010042873 0.06039181 -0.053461768 0.072637044 0.03905424 0.07539093
-0.036028266 -0.10427131 0.03570988 0.10128569 0.08303611 0.027470995 -0.011716542 0.06303439
0.016752658 -0.015654264 0.22666407 0.057909634 -0.082565315 0.08225774 0.09184812 0.12693627
0.046085257 0.0020963922 -0.043549493 0.0037118273 -0.053296335 0.06520341 -0.042828213 -0.103304826

2.weight f4 [64, 64]
00000000: 7215 79bd ed37 02bd 2e38 94be 40a5 a3bd
00000010: 2124 623e 2560 373d 3e77 6f3d 3700 53bd
00000020: 7362 2ebe 86fb 48be 60b7 4abe 5eb1 0bbd
00000030: bdb3 d2bd 1294 203e 6722 813b 6e11 6abd
00000040: 11ee 383e 3a7e 273d c1a3 193e d392 91bc
00000050: b3f6 3abd 106d da3d 315b b33c 4555 b43d
00000060: 8e63 c6bd 2509 2c3e 8206 c5bd 004e 24be
00000070: c174 833b 6091 6b3e 7afd 0bbd ac6b 48bc
00000080: f098 663e ea75 f93a 30e6 1e3e 8c49 533e
00000090: 852a 873e 462f 0abe b412 263d b3bb e8bc
000000a0: 1709 cdbd 6180 a0bd 391b e33d e755 a1bd
000000b0: e994 193d 0cc0 823e 735a 843d f4e6 cbbe
000000c0: 9448 dc39 accb bfbc 20c7 333d 0461 2bbe
000000d0: 1d0b 5ebe a076 c53d 342d 40be 278a bcbd
000000e0: 6b82 893d f650 bb3c ff83 c63d 5775 fd3d
000000f0: a73d 0bbe 23e7 093c 3251 16be c9f5 223c
00000100: bc5e 0bbe aab7 f3bc ae65 02be f0cc aebc
00000110: 46a9 51be d04a 913d b879 35be 3ee4 89be
00000120: f57b ca3c dbdc 933d 4d85 8abe af40 f33d
00000130: 85dd 4bbe 6bcf ef3e 28a7 66be 5674 15bc
00000140: 4bf6 273e 2d99 a9bd 35d9 8a3d c716 f0bd
00000150: 9ada 80bd c6e0 f0be bdea 84bb 4cf7 513e
00000160: f854 abbd 62e1 023e 0505 5d3c 2e52 dbbd
00000170: 40db 073d 7966 a5bd 2f28 a6bd 4151 7b3e
00000180: fbfa 85be 270a cd3c 4eae a53d 0cb7 203c
00000190: 66bd a13e 8dd3 8cbd ca1e d63d 614b d53d
000001a0: 6db9 2a3d e4ff 2abd d2a5 363d 4a38 98bd
000001b0: e019 753e 9843 c6bd 19a1 873d f917 6cbd
000001c0: 993f 203e 7932 27be d25a b83e c3ef eebc
000001d0: 527b 93be 1ad8 b63d 015c 1fbe ff85 5a3d
000001e0: 96a4 aa3e 553d f93c 5506 5dbe 3883 f63c
000001f0: 004b cabd 70ea 4dbe 9d59 adbe 5689 f53d
00000200: 018c 0e3e 668d 383e b93f 6e3d 3455 dbbd
00000210: 2f87 e63c 02c5 d33e f181 13be cc4b 1f3e
00000220: d334 893d 36bb 193e 3951 233d aa80 393d
00000230: 5072 213e b340 343b c838 413d 1058 873e
00000240: de31 3fbc 95b9 52be 2206 0b3d 9e22 e0be
00000250: 5d05 7b3e 2948 33bd b12d 1e3d 09a4 88be
00000260: 9c1d 7e3e 268a 1b3e 5b0b 81bd cd56 2c3d
00000270: 6066 3abe 904c 2e3e c680 863c 6870 9ebd
00000280: 31da e53d cbd8 2a3e 2709 f53d 2ab0 9bbe
00000290: e6f8 ba3d d11d b8bc c7bd 373d 78ec f5bd
000002a0: 51f8 1fbe 15a3 a43c fa00 ff3d 530d 393e
000002b0: 476c e93d b1a2 033d 054a 8d3c 6e54 85bb
000002c0: 0c95 973e 6f68 d1be 8173 12be e2e6 ac3d
000002d0: e8cc 193e 4c0d 06bd ed85 94bc c697 c2bd
000002e0: 5cbf 423d 85d4 0bbe 638e 183e 31e4 e8bb
000002f0: e35f 693e 63e3 b43d 73d6 17bc c8ec 13bd
00000300: bfa1 c1bd cca3 96be 1014 7ebe 24a3 6f3b
00000310: eae2 1abe b051 f3bd 05ca 16bd 6595 68bd
00000320: 8fac e73e e1d3 42bd 6ac4 a7bd 0b9c 17be
00000330: 3d56 263e ef69 b2be 719f 343e 45f1 41be
00000340: 17c3 6a3e ba85 bb3c 071e 113e 5240 383e
00000350: 4522 2bbe 4c5a 333e 7f5e 30bc 0773 46be
00000360: 73e7 ac3d 74ef f33b fb19 07bd 6871 7fbd
00000370: ecea e43d b791 1e3e 640f 4b3e 9070 3fbe
00000380: 3bf5 f73d c4ee 38bd 123b 25be ff4b 0ebe
00000390: 9b6b 51be e6da 313d 4658 c0bd d764 103d
000003a0: 76e3 4dbe 5d04 f93d f25a 083e c0cf 183e
000003b0: 7e33 843c e514 95be cfbe c33e f048 c03d
000003c0: 5aa1 b63d 0cb7 3e3e ce62 fbbd 91ff e63d
000003d0: e428 003d c258 ff3c 0b39 15be b1e7 37be
000003e0: 7bf6 2c3e 977f 55bc f5ea 823e bbc5 cfbc
000003f0: 9016 e23d 0579 1c3e a8ea 863e 6669 033d
-0.060811467 -0.031791616 -0.28949112 -0.07990503 0.22084095 0.044769425 0.058463328 -0.051513877
-0.17029743 -0.19627199 -0.19796515 -0.034104697 -0.102881886 0.15681484 0.0039408687 -0.05714553
0.18059565 0.040891863 0.15003873 -0.017770207 -0.045645427 0.10665333 0.02189407 0.08805326
-0.09686957 0.16800363 -0.09620382 -0.1604538 0.004011721 0.23004675 -0.03417728 -0.012232702
0.22519279 0.0019032334 0.15517497 0.20633525 0.26399627 -0.13494596 0.04054518 -0.028409814
-0.100114994 -0.07836986 0.11089177 -0.07877713 0.037495527 0.25537145 0.06462564 -0.3982464
0.00042015745 -0.023412548 0.043891072 -0.16736227 -0.21683927 0.096417665 -0.18767244 -0.09206038
0.067143284 0.022865754 0.09693145 0.123758964 -0.13597737 0.008416924 -0.14679411 0.009946295
-0.13610357 -0.029750664 -0.127341 -0.021337956 -0.20474729 0.070943475 -0.17722213 -0.26931947
0.02471731 0.07219859 -0.27054825 0.11877572 -0.19908722 0.46837935 -0.22524703 -0.009121975
0.16402547 -0.08281169 0.0677971 -0.117230944 -0.06291695 -0.4704649 -0.0040563033 0.20504493
-0.08365816 0.12781289 0.013489966 -0.10709034 0.033168077 -0.08076186 -0.08113133 0.24542715
-0.26168045 0.025029255 0.080898866 0.009809267 0.31589812 -0.068762876 0.10455091 0.10414768
0.041680742 -0.041747943 0.044591732 -0.07432611 0.23935652 -0.09680861 0.06622524 -0.05764005
0.1564926 -0.16327848 0.3600679 -0.029167062 -0.28805023 0.08927937 -0.1556244 0.053350445
0.33328694 0.030424753 -0.21584447 0.030091867 -0.09877586 -0.20108962 -0.33857432 0.119890854
0.13920595 0.18022689 0.05816624 -0.107096106 0.028140632 0.41361243 -0.14405037 0.15556258
0.066995285 0.15012822 0.03987238 0.04528872 0.15766263 0.0027504384 0.04717329 0.26434374
-0.011669604 -0.20578606 0.033941396 -0.4377641 0.24513765 -0.04376999 0.038617793 -0.2668765
0.24815983 0.15189418 -0.06300994 0.042074967 -0.18203115 0.17021394 0.016418826 -0.077362835
0.11223257 0.16684262 0.11964636 -0.3040784 0.09129505 -0.022475155 0.04485872 -0.120079935
-0.15622069 0.020097295 0.12451358 0.18071489 0.113976054 0.032137576 0.01724721 -0.0040689027
0.296059 -0.4089999 -0.14301874 0.08442475 0.15019572 -0.032727525 -0.018130267 -0.09501605
0.047545776 -0.13655289 0.14898066 -0.0071072807 0.22790484 0.08832433 -0.009267437 -0.036114484
-0.09454679 -0.29421842 -0.2481234 0.0036565745 -0.15125623 -0.11880815 -0.036813755 -0.0567831
0.4524884 -0.047565345 -0.0819176 -0.1480562 0.16243835 -0.34846446 0.17638947 -0.18939693
0.22925983 0.022890914 0.14171611 0.17993286 -0.16712292 0.17514914 -0.010764717 -0.19379817
0.08442583 0.0074443165 -0.03298376 -0.062364012 0.1117762 0.15485273 0.1983009 -0.18695283
0.12107321 -0.04514958 -0.16135815 -0.13896178 -0.20451204 0.04342165 -0.09391837 0.03525242
-0.201063 0.12159035 0.13315943 0.14923 0.016137835 -0.29117504 0.38231513 0.09388912
0.08917494 0.18624514 -0.12274705 0.11279214 0.031288996 0.031170253 -0.14572541 -0.17959477
0.168909 -0.013030908 0.25569883 -0.02536284 0.1103946 0.1528054 0.26350904 0.032082938

2.bias f4 [64]
00000000: 0814 623b 88cd 313e 1a5d 383d 5f1f b7bc
00000010: 8660 22bd 3b33 5f3c 0983 2e3c 9715 bd3a
00000020: 8adc 173d d3ad fd3c 7f0f 613e 6ef7 83bd
00000030: c001 e9bc 44c1 ca3d e533 27bd 348b 633d
00000040: 77c4 1f3e b15b c63d d8ca afbc a298 6dbe
00000050: 6317 e5bd 3b6e 1f3e e31e a43d 0419 3b3c
00000060: 4263 e23d b93f 9abd 5eef 24be 6e2a 71bd
00000070: 633d 8a3c 2973 eebc a426 20bc 50aa d83d
00000080: e08e 4d3c 5c2b 19bd 6214 1f3c cac4 82bc
00000090: ffaf e23d cf21 9bbd 030a 333e 5697 cabc
000000a0: 2b68 de3d eece 47bc 77ba 94bd d119 3fbe
000000b0: 0ce4 c0bc ae2c 25be e358 aebd 7694 943d
000000c0: d386 2e3d 21bc c83d a9ee 1a3e a7fc c83d
000000d0: 75d9 a2bd c7ef 183e a71f 453d 7237 02be
000000e0: 27d5 2cbd 8096 d03d eb86 b3bd 24af b0bc
000000f0: d7c4 58bc 0b7c 5abc 75e4 ddbc 608f 4cbd
0.0034496803 0.1736356 0.045010664 -0.022353826 -0.039642833 0.013623054 0.010651358 0.001442599
0.037075557 0.030966675 0.21978568 -0.06443678 -0.028443217 0.09900144 -0.040820975 0.055552676
0.15602289 0.096854575 -0.021459028 -0.23202756 -0.11186101 0.15569393 0.08013704 0.011419538
0.11054088 -0.075316854 -0.16106936 -0.058878355 0.016874975 -0.029107647 -0.009774838 0.105793595
0.012546271 -0.037394866 0.0097094495 -0.015962977 0.11068725 -0.07574808 0.17484288 -0.024730366
0.10859712 -0.012195332 -0.07262128 -0.18662192 -0.023546241 -0.16130325 -0.085130475 0.07254879
0.042609047 0.09801508 0.15130104 0.098138146 -0.07951633 0.14935218 0.04812589 -0.12716463
-0.042195465 0.101849556 -0.08765968 -0.021567889 -0.013230524 -0.013335238 -0.027086476 -0.04994142
