dir_save/we0_critic_linear_90.pth (torch, 1371 bytes, 1 tensors)

weight f4 [1, 64]
5.0600743 1.1067086 -3.7246895 1.6188354 -6.359557 -0.51610833 2.6097627 -1.8422995
6.266519 2.0687673 -5.3590884 6.5209246 -3.5106432 -1.4745401 0.6007549 2.1315215
-0.36104482 4.843332 1.6670165 -5.8139853 2.681331 6.4729633 -2.911746 -4.6419334
-5.043173 4.8000965 -6.530844 -2.8797154 -3.0634172 -5.102372 4.66305 -5.316139
6.6759534 -5.0241323 0.63186914 5.9914265 0.7001232 2.803193 -3.7955701 -1.6070226
-6.48938 -6.102977 -6.5022426 2.2613945 3.0770977 3.8643427 -6.584635 -4.577373
6.5250206 -2.6415324 -4.0499697 5.8933997 6.471728 -1.7103604 -3.4656103 -4.2456603
5.160087 6.167362 6.417921 6.5415053 5.850285 5.012968 -4.007744 -1.3866543
00000000: 21ec a140 a1a8 8d3f 5061 6ec0 0036 cf3f
00000010: 7e81 cbc0 ad1f 04bf 5a06 2740 78d0 ebbf
00000020: 5387 c840 af66 0440 a77d abc0 6aab d040
00000030: 61ae 60c0 bbbd bcbf 13cb 193f d96a 0840
00000040: deda b8be 93fc 9a40 cc60 d53f 2b0c bac0
00000050: ed9a 2b40 8422 cf40 0c5a 3ac0 b88a 94c0
00000060: ac61 a1c0 649a 9940 adfc d0c0 424d 38c0
00000070: 070f 44c0 a246 a3c0 b537 9540 d01d aac0
00000080: 69a1 d540 b1c5 a0c0 2dc2 213f c4b9 bf40
00000090: 463b 333f 8467 3340 9fea 72c0 ebb2 cdbf
000000a0: 00a9 cfc0 964b c3c0 5f12 d0c0 b0ba 1040
000000b0: 2bef 4440 6451 7740 54b5 d2c0 d779 92c0
000000c0: f8cc d040 de0e 29c0 5a99 81c0 bb96 bc40
000000d0: 6518 cf40 17ed dabf 8fcc 5dc0 73dc 87c0
000000e0: 6f1f a540 085b c540 9c5f cd40 0354 d140
000000f0: 8935 bb40 3c6a a040 703f 80c0 e37d b1bf
