dir_save/we0_critic_0.pth (torch, 35005 bytes, 4 tensors)

0.weight f4 [64, 64]
0	0xbe770690	-0.24123597
1	0x3edff4c2	0.43741423
2	0x3f24f793	0.6444027
3	0xbe9d08b6	-0.30670708
4	0x3fb60b6c	1.4222236
5	0xbe44f830	-0.19235301
6	0xbeefd3c0	-0.4684124
7	0x3efd7532	0.49503475
8	0xbea54d42	-0.32285506
9	0xbe5dba0b	-0.21653001
10	0x3c7107f3	0.014711368
11	0xbe8475ac	-0.25871027
12	0xbeef1f5c	-0.46703613
13	0x3e9db29a	0.30800325
14	0x3fc4d11a	1.5376313
15	0x3d462eea	0.048384584
16	0xbe9672cc	-0.29384458
17	0x3e8f7080	0.28015518
18	0xbe8e6ad3	-0.27815875
19	0xbf69a599	-0.91268307
20	0xbf1164e5	-0.5679458
21	0xbc123cab	-0.008925597
22	0xbd801be4	-0.0625532
23	0xbedf5c74	-0.43625224
24	0x3eb79449	0.3585532
25	0xbf27826e	-0.65433395
26	0xbe678aeb	-0.22611587
27	0xbde44eec	-0.11147866
28	0x3e8023fe	0.2502746
29	0xbc611084	-0.013736848
30	0x3e08c51f	0.13356446
31	0x3f593917	0.8485274
32	0x3e98a6e2	0.2981482
33	0xbecbb099	-0.3978317
34	0xbeb93eb0	-0.3618064
35	0xbea7ba3c	-0.32759273
36	0x3f6d3210	0.92654514
37	0x3e4388bf	0.19095133
38	0x3efa1a4a	0.48848182
39	0x3ecfa75e	0.4055738
40	0xbec78f6b	-0.38976607
41	0x3da0bdbb	0.07848688
42	0x3ebae579	0.365032
43	0x3f866c82	1.0501864
44	0x3e098269	0.13428654
45	0xbdbf445c	-0.093392104
46	0xbe62263a	-0.22084895
47	0x3e8a135f	0.26967904
48	0x3f7ddaf3	0.99162215
49	0x3ee9d516	0.45670384
50	0xbf8c5b24	-1.0965314
51	0xbe44df3b	-0.1922578
52	0x3cd8a97d	0.026448006
53	0xbf452644	-0.77011514
54	0xbddf98e9	-0.10917837
55	0x3e9a400a	0.30126983
56	0xbec98674	-0.39360392
57	0xbf2ea0fd	-0.682144
58	0xbf18078d	-0.5938652
59	0xbf159e32	-0.5844451
60	0xbf362f7f	-0.71166223
61	0xbe8d2d61	-0.27573684
62	0xbef4ebb5	-0.4783608
63	0xbf3a64c8	-0.7281003
64	0xbf54444c	-0.8291671
65	0xbe21699e	-0.15762946
66	0x3ee2ed01	0.44321445
67	0x3f141737	0.57847923
68	0x3ea349de	0.31892294
69	0x3ce62619	0.028094338
70	0x3e684470	0.22682357
71	0xbcff388e	-0.031154897
72	0xbeaf9780	-0.34295273
73	0xbf813b18	-1.0096159
74	0x3e9775d6	0.2958209
75	0xbe0ec423	-0.13942008
76	0xbf29f8d1	-0.6639529
77	0x3ee39dc9	0.44456318
78	0xbf311208	-0.6916814
79	0xbd9c7a67	-0.07640534
80	0xbcab0ec0	-0.020881057
81	0x3dbbd57e	0.0917158
82	0xbf457cee	-0.7714375
83	0x3efa4935	0.48883978
84	0x3ea771fd	0.32704154
85	0xbe638e04	-0.22222143
86	0x3f00f1dc	0.5036905
87	0xbebda1bb	-0.37037453
88	0xbe65c6cf	-0.2243912
89	0x3c890822	0.01672751
90	0xbdfc038f	-0.12305366
91	0x3d13430f	0.035952624
92	0xbccaf2ec	-0.024774037
93	0xbea5049d	-0.32230082
94	0xbe82d379	-0.25551966
95	0xbe78c704	-0.24294668
96	0xbc93d185	-0.018044243
97	0x3f050cc5	0.5197261
98	0x3ef4d7e8	0.47820973
99	0x3e4f7f03	0.20263295
100	0xbe81cb0b	-0.25350222
101	0xbea38272	-0.3193546
102	0x3ef8d55c	0.4860028
103	0xbea32151	-0.31861356
104	0xbd20d38d	-0.03926425
105	0x3f0ca563	0.5493986
106	0x3eb4b2f7	0.3529279
107	0xbe1773a1	-0.14790203
108	0x3eb43b40	0.35201454
109	0x3e69b15d	0.22821565
110	0x3f3e957e	0.74446857
111	0xbf17198e	-0.5902337
112	0x3e13f048	0.14447129
113	0x3f962bcc	1.1732116
114	0xbec15308	-0.3775866
115	0x3f7a9a61	0.97891814
116	0xbe345a99	-0.17612685
117	0x3d11c326	0.0355865
118	0x3f0f176d	0.5589512
119	0x3f8fb207	1.1226205
120	0xbe43d4f2	-0.19124201
121	0x3f21f902	0.6327058
122	0xbe2a8864	-0.16653591
123	0x3d91cdf0	0.071193576
124	0xbe868f2e	-0.26281112
125	0xbe24687d	-0.16055484
126	0xbe97104e	-0.29504627
127	0x3e75c576	0.24001107
128	0xbe2ed355	-0.17072804
129	0x3f579f01	0.84226996
130	0xbf7ec8d6	-0.995252
131	0x3e723aa1	0.23655178
132	0xbeb040ec	-0.3442453
133	0x3e5a2083	0.21301465
134	0x3f454ae5	0.77067405
135	0xbf190087	-0.5976643
136	0xbf4b41ff	-0.7939758
137	0xbe2d6ee4	-0.16936833
138	0x3daf9b79	0.08574576
139	0x3f4ea736	0.80723894
140	0x3f4c40bf	0.79786295
141	0x3eac45c3	0.33646974
142	0x3d6951ec	0.056962892
143	0xbec91809	-0.3927615
144	0xbe2044ce	-0.15651247
145	0x3d9a83fa	0.07544704
146	0xbe4de297	-0.20105968
147	0x3f2f8f56	0.6857809
148	0x3f569af5	0.83830196
149	0x3da6fd92	0.081538334
150	0x3f7f6665	0.99765617
151	0xbed964b8	-0.42459655
152	0xbd1e2fe2	-0.038619883
153	0xbf3d18c7	-0.7386593
154	0x3f94be10	1.1620502
155	0xbe1199dd	-0.1421885
156	0x3e56ba1b	0.20969431
157	0xbe58f15a	-0.21185818
158	0x3ee19302	0.4405747
159	0x3e65aeec	0.22430009
160	0xbf4ce5fc	-0.8003843
161	0x3ecd78f1	0.40131333
162	0xbe26ae14	-0.16277343
163	0xbda4070b	-0.08009156
164	0xbc76ab2c	-0.015055459
165	0xbe04646f	-0.12928937
166	0x3e575500	0.21028519
167	0x3e72a992	0.23697498
168	0xbdae35fc	-0.085063905
169	0x3f03dcfa	0.5150906
170	0xbe223e08	-0.15843976
171	0x3e513e9e	0.20434043
172	0xbd9e97af	-0.07743775
173	0xbeb36852	-0.35040528
174	0x3dcde85c	0.10054085
175	0xbe842ef8	-0.25817084
176	0x3dd3b6b6	0.10337584
177	0xbf2cd564	-0.6751311
178	0xbefd2c85	-0.49448028
179	0x3db60d90	0.088893056
180	0x3e75ad0d	0.23991795
181	0xbeb87a1e	-0.36030668
182	0x3de73e0c	0.112911314
183	0x3d0f3fa1	0.03497279
184	0xbe975404	-0.29556286
185	0xbf270803	-0.652466
186	0xbd4462d7	-0.047945824
187	0x3f1d8abb	0.6153981
188	0x3ede40e3	0.4340888
189	0x3de318b9	0.110887
190	0x3e944a27	0.28962824
191	0x3e286e06	0.1644822
192	0xbde9155b	-0.11381026
193	0x3ea3c6da	0.3198765
194	0xbeba3fc0	-0.36376762
195	0xbf66b68c	-0.90122294
196	0x3e4ea587	0.20180331
197	0x3e2220ca	0.1583282
198	0xbdd621b5	-0.10455648
199	0xbe53a6ef	-0.20669149
200	0x3d765674	0.060141042
201	0xbed616fe	-0.41814417
202	0xbef4e975	-0.47834364
203	0xbedf32c4	-0.4359342
204	0x3e919016	0.2843024
205	0x3e7c6cec	0.24650925
206	0x3f88288f	1.0637378
207	0x3ede69b5	0.43440023
208	0xbef8e84d	-0.4861473
209	0x3e47ef53	0.19524889
210	0x3e561c17	0.20909153
211	0xbf0f2001	-0.5590821
212	0xbe008f0a	-0.12554565
213	0x3f8f3a15	1.11896
214	0xbe345b32	-0.17612913
215	0xbf90a032	-1.1298888
216	0x3e1d1570	0.15340209
217	0xbf13d0e0	-0.5774059
218	0xbea5e90c	-0.32404363
219	0xbdeef77f	-0.116683
220	0x3eb9b5ac	0.36271417
221	0xbeb22fc3	-0.34802064
222	0xbdbddebb	-0.09270998
223	0x3ef948de	0.48688406
224	0x3eddd954	0.4332987
225	0xbe9ffbf4	-0.31246912
226	0xbecbf73e	-0.39837068
227	0xbea7fd4a	-0.32810432
228	0x3f2f160f	0.68393034
229	0xbde5f04f	-0.11227476
230	0xbc9faea2	-0.019492451
231	0x3d665b3d	0.056239355
232	0xbf06456c	-0.5244968
233	0xbe106d35	-0.14104159
234	0x3e0738c5	0.1320525
235	0x3f568341	0.8379403
236	0x3f1a912a	0.6037775
237	0x3e5ded06	0.21672449
238	0xbe02e565	-0.1278282
239	0x3e0acb0a	0.13554016
240	0x3f194ce6	0.5988296
241	0xbe012964	-0.12613446
242	0xbeb21275	-0.34779707
243	0xbe4fc159	-0.202886
244	0xbdfce43d	-0.123482205
245	0xbf24e1bb	-0.6440694
246	0xbe9aefa1	-0.30260947
247	0x3f1b2634	0.6060517
248	0xbe837c43	-0.25680742
249	0xbe4bd9c7	-0.19907294
250	0xbd0fdcfa	-0.03512285
251	0x3e23e815	0.16006501
252	0xbdf7c135	-0.12097398
253	0xbf2aab8f	-0.6666803
254	0xbe4960b3	-0.19665794
255	0x3cbea0cf	0.023270039

0.bias f4 [64]
0	0xbe380e18	-0.17974126
1	0x3e97df1a	0.296624
2	0x3dcc6944	0.09981015
3	0x3d0f9d54	0.03506215
4	0x3d51b73c	0.051200137
5	0x3e22b362	0.15888742
6	0xbe293681	-0.16524698
7	0x3e19eb96	0.15031275
8	0x3e397839	0.18112268
9	0xbed087be	-0.40728563
10	0xbcc08953	-0.023502981
11	0xbe0b7996	-0.136206
12	0xbe3e94dd	-0.18611474
13	0x3e75585a	0.23959485
14	0xbe6ee4fd	-0.2332954
15	0xbe72dbd7	-0.23716675
16	0x3f1dfedc	0.6171701
17	0xbee9d987	-0.45673773
18	0xbe666451	-0.22499205
19	0xbdb8aa59	-0.09016866
20	0x3d183103	0.037156116
21	0x3da06a38	0.078327596
22	0x3c41df01	0.011832953
23	0xbea0a6f9	-0.3137739
24	0x3f32b842	0.69812405
25	0xbce4caad	-0.027928675
26	0xbf14c129	-0.5810724
27	0xbd289cad	-0.041165043
28	0x3e0c371a	0.13692895
29	0x3e98d7d1	0.29852155
30	0xbd51ca03	-0.051218044
31	0x3e14acca	0.14519039
32	0xbe9a538a	-0.3014186
33	0x3c05c687	0.008165008
34	0xbed24a51	-0.41072324
35	0x3ec4b16e	0.38416618
36	0x3cbc455b	0.02298229
37	0x3e6802b0	0.22657275
38	0xbeb86afc	-0.36019123
39	0xbd782518	-0.06058225
40	0xbebeb375	-0.3724629
41	0x3e429692	0.1900275
42	0xbe94b1da	-0.2904194
43	0xbddec2ce	-0.10877
44	0xbd945f47	-0.07244735
45	0x3ddc8d80	0.107691765
46	0x3eb5dc1a	0.35519487
47	0x3d9708c9	0.073747225
48	0xbe65102a	-0.22369447
49	0xbe69f9eb	-0.22849242
50	0xbda8db92	-0.08245005
51	0xbe1b66f5	-0.15175994
52	0x3d9f5d68	0.07781488
53	0xbe864430	-0.26223898
54	0x3e2b4018	0.16723669
55	0xbe5999c2	-0.2125006
56	0x3e1c2ee1	0.15252258
57	0xbee86bc2	-0.45394713
58	0x3deac4c2	0.1146331
59	0xbf038601	-0.5137635
60	0xbe89cff9	-0.26916483
61	0xbe01ab86	-0.12663087
62	0xbe2bfdb4	-0.16795999
63	0x3dc9eca0	0.09859586

2.weight f4 [64, 64]
0	0xbdd3f46a	-0.10349353
1	0x3de32ab7	0.110921316
2	0x3f0239d2	0.50869477
3	0xbb452f47	-0.0030087994
4	0x3ef0c1c4	0.4702283
5	0xbe3d949c	-0.18513721
6	0x3ec49a07	0.38398764
7	0x3e90505e	0.28186315
8	0xbe999294	-0.29994643
9	0x3e958d2d	0.2920927
10	0x3dbcb850	0.09214842
11	0xbd8bed52	-0.06832375
12	0x3f0bd293	0.54618186
13	0xbd904afc	-0.07045552
14	0xbf1f2d93	-0.62178916
15	0xbe351b4d	-0.17686196
16	0xbe025b2e	-0.12730095
17	0x3e8ed5d1	0.27897504
18	0x3e60a3f1	0.21937539
19	0x3ec15c52	0.37765747
20	0xbe8caa61	-0.2747374
21	0x3e988b4e	0.2979378
22	0x3e852385	0.26003662
23	0xbc8e522f	-0.017373173
24	0xbed09fa2	-0.4074679
25	0xbf24c0e5	-0.64356834
26	0x3f057c3b	0.52142686
27	0x3f5749c0	0.8409691
28	0x3ea0ba10	0.31391954
29	0x3e9e48dd	0.30914965
30	0xbf0723e9	-0.5278917
31	0x3f0b7ec4	0.54490304
32	0xbb4da8fa	-0.0031381235
33	0x3db7eb3c	0.08980414
34	0x3e0996c9	0.13436426
35	0xbe45e877	-0.1932696
36	0x3e2de81d	0.16983075
37	0xbd8e05e1	-0.06934715
38	0xbce26cba	-0.027639735
39	0x3ee7412a	0.45166904
40	0xbe43037f	-0.19044302
41	0x3ef0e1a4	0.4704715
42	0xbec4bb5d	-0.38424197
43	0x3e8094cd	0.25113526
44	0x3f11e193	0.56984824
45	0xbf626a32	-0.8844329
46	0x3b988798	0.004654836
47	0x3ca0b0b3	0.019615507
48	0xbda08705	-0.07838253
49	0x3e435991	0.19077136
50	0x3de66512	0.112497464
51	0xbe474462	-0.1945968
52	0x3dde6eff	0.108610146
53	0xbd669d46	-0.05630233
54	0xbe965294	-0.29359877
55	0xbec93316	-0.39296788
56	0x3de3e8c2	0.111283794
57	0xbdf21a8b	-0.11821469
58	0xbdad8a3e	-0.08473633
59	0x3f3b8c3b	0.7326085
60	0xbc5b7b99	-0.013396167
61	0xbe3b91e5	-0.18317373
62	0xbf12c946	-0.5733837
63	0xbe222ad4	-0.1583665
64	0xbf10ff7f	-0.56639856
65	0xbfb277bc	-1.394279
66	0x3e01412b	0.12622516
67	0xbe2c5e16	-0.16832766
68	0x3f36247b	0.71149415
69	0xbd8965b3	-0.06708851
70	0x3f121a46	0.5707134
71	0xbdca60b4	-0.09881726
72	0xbf57c9e0	-0.8429241
73	0x3f972058	1.1806746
74	0xbf7b4c3a	-0.9816319
75	0x3edd37e4	0.43206704
76	0x3f234796	0.63781106
77	0x3eaffbdb	0.34371838
78	0x3eafe085	0.34350982
79	0x3e753805	0.23947151
80	0xbd929ad7	-0.071584396
81	0xbe4b790c	-0.19870394
82	0x3dff6a83	0.124714874
83	0xbf0af623	-0.54281825
84	0xbf8ed0ed	-1.1157509
85	0x3ee72b1c	0.45150077
86	0xbf021df4	-0.50826955
87	0x3e304048	0.17212021
88	0xbf6864bf	-0.90778726
89	0x3eebaebb	0.46031746
90	0x3f941623	1.1569256
91	0x3f17cde1	0.5929852
92	0xbf2fb781	-0.6863938
93	0x3f83a235	1.0283877
94	0xbf0df211	-0.5544749
95	0x3f2fe8f5	0.6871484
96	0x3fadd8fb	1.3581842
97	0xbe3998b0	-0.18124652
98	0x3f0f3426	0.5593895
99	0xbf3f3c30	-0.74701214
100	0x3e1f9f12	0.15588024
101	0xbf48a23d	-0.78372556
102	0xbf221557	-0.6331381
103	0x3f071013	0.527589
104	0xbf5f4175	-0.87209255
105	0xbdbe0f1c	-0.09280226
106	0x3f9b6335	1.213965
107	0x3f9e2097	1.2353696
108	0x3f2d01ec	0.6758106
109	0xbf19ab13	-0.60026664
110	0xbe45730a	-0.19282165
111	0xbec0cacf	-0.3765473
112	0x3e9bcffe	0.30432123
113	0xbebd64ed	-0.36991063
114	0xbd47117c	-0.04860066
115	0x3f863b24	1.0486798
116	0xbe16155e	-0.14656588
117	0x3ea2f502	0.3182755
118	0xbeb8fd03	-0.36130533
119	0x3f4a5252	0.7903186
120	0x3f8557f3	1.0417465
121	0x3e247e79	0.1606387
122	0x3f17c459	0.5928398
123	0x3f7bdaa1	0.98380476
124	0x3e8da050	0.2766137
125	0xbeab5780	-0.33465195
126	0xbf849f95	-1.03612
127	0xbf113630	-0.5672331
128	0x3ee7baa5	0.45259586
129	0xbed2e1a4	-0.41187775
130	0xbf498c71	-0.7872992
131	0x3e5928c9	0.21206965
132	0xbe457a24	-0.19284874
133	0xbf801f4a	-1.0009549
134	0xbb333217	-0.0027343088
135	0xbef01af8	-0.46895576
136	0x3f2cc509	0.6748815
137	0x3d1824f5	0.03714462
138	0x3f05c540	0.52254105
139	0xbe6b0dfc	-0.22954553
140	0xbf4a371f	-0.7899036
141	0xbf4bed75	-0.79659206
142	0x3ea4cf46	0.32189387
143	0x3ee419d0	0.44550943
144	0x3d97f0f4	0.07419005
145	0xbe65dfb0	-0.22448611
146	0xbcc6b1f2	-0.024254773
147	0xbebc24dd	-0.36746874
148	0xbd9bb5c5	-0.07603029
149	0xbf52eb5d	-0.82390386
150	0xbe3fa13a	-0.18713847
151	0x3ef91dd5	0.48655573
152	0xbd9478e0	-0.072496176
153	0x3f01c27e	0.50687397
154	0x3d8ffaed	0.07030282
155	0xbed2f452	-0.41202027
156	0xbe979992	-0.29609352
157	0x3dcfc33a	0.101446584
158	0xbe6d8dbf	-0.23198603
159	0xbf1e8664	-0.61923814
160	0xbe34cbc6	-0.17655858
161	0x3d4e6acc	0.05039482
162	0xbe796ab9	-0.24357118
163	0x3d4a11f2	0.04933352
164	0xbe1a975e	-0.15096804
165	0xbf2d6b82	-0.6774217
166	0x3ef8e744	0.48613942
167	0xbf91eaf0	-1.1399822
168	0x3eb29039	0.34875658
169	0xbf439a44	-0.76407266
170	0x3f942658	1.1574202
171	0xbd5c8227	-0.05383506
172	0xbf2e491c	-0.68080306
173	0x3f03c75b	0.5147607
174	0x3f9e0af3	1.2347091
175	0x3d0b4e93	0.03401048
176	0x3eaf755f	0.34269235
177	0xbf0e8f85	-0.55687743
178	0xbe276ba3	-0.16349654
179	0x3edc7935	0.43061224
180	0x3f57b909	0.84266716
181	0x3e9eb2cf	0.30995795
182	0x3eeba8a5	0.46027103
183	0x3f249631	0.64291674
184	0xbe67d500	-0.22639847
185	0x3df26b0f	0.11836826
186	0x3f034a7d	0.51285535
187	0xbf8b1561	-1.0865899
188	0x3e04c59a	0.12966004
189	0xbf2f89a3	-0.6856939
190	0x3ebe25ea	0.371383
191	0xbe0cecac	-0.13762158
192	0xbedf94db	-0.43668255
193	0xbfa260b1	-1.2685758
194	0x3e344196	0.17603144
195	0xbd6435fb	-0.055715542
196	0x3f7e3c9f	0.9931125
197	0xbe58b34f	-0.21162151
198	0x3f3a2ba6	0.7272285
199	0x3c217ae1	0.009855957
200	0xbf717c0b	-0.943299
201	0x3f612c24	0.8795798
202	0xbf950049	-1.1640712
203	0x3e969902	0.2941361
204	0x3f226545	0.63435775
205	0x3f01193c	0.5042913
206	0x3ea88a33	0.32917938
207	0xbd98db66	-0.07463722
208	0x3e2256ad	0.15853377
209	0xbe95184b	-0.29120097
210	0x3dfc3eb6	0.12316649
211	0xbf108481	-0.56452185
212	0xbf8b9344	-1.0904317
213	0x3f4e7a2a	0.8065516
214	0xbf0ed35b	-0.5579125
215	0x3ee7ddf9	0.4528654
216	0xbf5c585e	-0.8607234
217	0x3eb9c049	0.36279514
218	0x3fa46699	1.284381
219	0x3f308b86	0.68962896
220	0xbf33e08c	-0.70264506
221	0x3f70a61a	0.9400345
222	0xbf0796a0	-0.5296421
223	0x3f7459c0	0.9544945
224	0x3fcab0dd	1.5835224
225	0xbdc3a666	-0.09553222
226	0x3ee423cd	0.44558564
227	0xbf548b1f	-0.8302478
228	0x3e926eae	0.28600067
229	0xbf5b6164	-0.8569548
230	0x3e5d7c12	0.2162936
231	0x3f13a665	0.5767577
232	0xbf157f09	-0.58396965
233	0x3d394298	0.045229524
234	0x3f73a006	0.9516605
235	0x3faab061	1.3335077
236	0x3f6b44c3	0.919018
237	0xbf5a45b5	-0.85262614
238	0xbf052c6d	-0.52020913
239	0xbf28b583	-0.65901965
240	0x3ea73117	0.3265464
241	0xbe9112b5	-0.28334585
242	0x3e060875	0.13089164
243	0x3f9df680	1.2340851
244	0xbea86aa0	-0.32893848
245	0x3ed50fbb	0.41613564
246	0xbe803e54	-0.25047553
247	0x3f2d7401	0.6775513
248	0x3f6808dd	0.90638524
249	0xbd996cd3	-0.0749146
250	0x3ef78459	0.4834316
251	0x3f816d89	1.0111552
252	0xbc8c37bb	-0.017116418
253	0xbe8032c1	-0.25038722
254	0xbfa1f024	-1.265141
255	0xbebfaef2	-0.3743816

2.bias f4 [64]
0	0xbf9f9a13	-1.2468895
1	0xbfda8ad0	-1.7073612
2	0x3e9e352b	0.3089994
3	0xbfe63eed	-1.7987953
4	0x3fb73eb6	1.4316013
5	0x3f4da64c	0.80331874
6	0xbfb63fec	-1.4238257
7	0x3ec45153	0.38343295
8	0xbf9bf222	-1.2183268
9	0xbfb878bb	-1.4411844
10	0x3f86fe4b	1.0546354
11	0xbfac4b76	-1.3460529
12	0x3f86e5d5	1.0538889
13	0x3fe7ab62	1.8099177
14	0xbeb533e7	-0.3539116
15	0xbf82c399	-1.0215942
16	0x3fc526c6	1.5402458
17	0xbf5b73a7	-0.85723346
18	0xbfdfbcc6	-1.7479484
19	0x3f7d886c	0.9903629
20	0xbeb79e5c	-0.35863006
21	0xbf9f2470	-1.2432995
22	0x3f2f17ac	0.68395495
23	0x3fa13a66	1.2595947
24	0x3facbbda	1.3494828
25	0xbf2937b3	-0.66100615
26	0x3fb80ee5	1.4379545
27	0x3e9dcfe2	0.30822664
28	0x3f85280d	1.0402848
29	0x3f7725ba	0.9654194
30	0xbf83fbd8	-1.0311232
31	0x3f434d91	0.7629023
32	0xbfa13c76	-1.2596576
33	0x3faf7685	1.3708044
34	0xbf4c9364	-0.799124
35	0xbf65b9a9	-0.8973642
36	0xbfacb772	-1.3493483
37	0xbfaa12c6	-1.3286979
38	0x3f781403	0.96905535
39	0x3fc58918	1.5432463
40	0x3fb7abdd	1.4349324
41	0x3fa4a2c8	1.2862177
42	0x3fa968d9	1.3235122
43	0xbf564bea	-0.83709586
44	0xbfc4c8e0	-1.5373802
45	0xbf9130d2	-1.1343024
46	0x3fb7b166	1.4351013
47	0x3f5e9b65	0.86955863
48	0xbf79cbbd	-0.97576505
49	0x3f344677	0.7042002
50	0x3f89f620	1.0778236
51	0xbfad3328	-1.3531237
52	0xbfbd878c	-1.4806991
53	0x3fc894ee	1.567045
54	0x3fbfe33d	1.4991223
55	0x3f809ee5	1.0048491
56	0xbfb9c981	-1.4514619
57	0xbfbebe9d	-1.490192
58	0xbfa92e1e	-1.3217199
59	0xbfb9425a	-1.4473374
60	0xbf8aa80f	-1.0832537
61	0xbf34e229	-0.70657593
62	0x3f7a5ecf	0.97800916
63	0x3fda5920	1.7058449
