dir_save/we0_critic_30.pth (torch, 35011 bytes, 4 tensors)

0.weight f4 [64, 64]
-0.6884716 0.39341787 0.6769448 -0.34282804 1.3662486 -0.14088342 -0.13377687 0.2857344
-0.4738107 -0.450717 -0.21471576 0.2894854 0.20040393 0.034019276 1.738187 -0.06777045
-0.3598388 0.3559121 -0.2781839 -0.6568315 -0.87704927 -0.10725912 0.1461524 -0.7402819
0.4514475 -1.3562838 -0.27377436 -0.251104 0.26688564 -0.2630156 -0.446596 0.68804437
0.47065234 -0.34142113 -0.1361596 -0.25806662 1.1708659 0.3317476 0.59758246 0.20082434
-0.4204236 0.2051403 0.1276446 1.0973225 0.19419111 0.18783312 -0.0055860165 0.36454478
1.4165006 0.21693417 -1.7944382 -0.119503655 -0.07754663 -1.4356309 0.16693932 0.63102627
-0.2529405 -0.5530418 -0.3612703 -0.29145762 -0.84653944 -0.70740885 -0.20914285 -0.76647544
-0.07188105 0.05501401 0.71787614 0.5610369 -0.26851854 -0.26394856 0.18094182 -0.013958074
-0.5504432 -0.55400133 1.2353666 -0.11180233 0.13116643 0.31542668 -0.7810396 -0.14347802
0.1468279 0.2000885 -0.9218355 0.45814154 0.32443804 -0.41605824 0.5687285 -0.4536118
0.74465334 0.19357027 -0.7457266 -0.3744035 0.019861715 -0.09473865 -0.54432416 -0.25434047
0.32081714 0.19543797 0.1307045 -0.20951067 -0.2497284 -0.3742911 0.42724666 -0.3033759
-0.77089167 0.12214893 0.5002603 -0.07244347 0.90864646 -0.061937556 0.76552147 -0.5163144
0.3626506 1.2632021 -0.45549843 0.8680713 -0.3407842 0.16244712 1.0394166 0.8249787
-0.2549455 1.1986336 0.3819173 0.023143815 -0.82058215 0.5922694 -0.79103774 0.07539825
-0.17187282 0.57915837 -0.8675332 0.29483056 -0.6767976 0.3340624 0.6662356 -0.5475604
-0.93162215 -0.042067416 0.034731876 0.5597545 0.8804896 -0.092908815 -0.5629593 -0.45121017
-0.23635352 -0.012953649 -0.87860096 0.6110776 0.80647945 0.5433747 0.8891377 -0.3825673
-0.34859818 -0.6175228 0.7020238 -0.2561337 0.17446084 -0.15720454 0.78914803 0.25549552
-1.1339917 1.0020008 0.5398049 0.4494703 -0.040972408 -1.137419 0.16111882 0.19132787
0.045637418 0.4930574 -0.13462508 0.42092687 -0.38553515 -0.48089248 -0.055115007 -0.45978287
-0.102495275 -0.65628296 -0.13980404 0.078631945 0.06698411 -0.26281872 0.075124644 0.4414282
-0.08927499 -0.70254636 0.118718036 0.5572786 0.9123259 -0.37422794 0.13074228 0.55609125
-0.18870941 0.93432206 0.14626949 -0.40367296 -0.41674274 0.08071256 -0.4724057 -0.12869489
0.45857465 -0.63133377 -0.3713719 -0.5539148 1.2965674 -0.092668295 0.9638837 1.009246
-1.1623368 0.35761487 0.46053487 -0.18538973 -0.5151881 1.6683339 -0.123484716 -0.73766893
-0.08265718 -0.9667746 -0.31298548 0.26543218 0.3854167 -0.27872512 -1.0032202 0.63688195
0.59020174 0.41883996 -0.38168192 -0.2313193 0.59372497 0.012588189 0.17236888 -0.5787605
0.047307484 -0.24503532 0.06361625 0.25186032 1.2017094 0.68433803 -0.13801265 -0.2932939
0.45254767 -0.08348409 -0.23863193 0.058275275 -0.13606407 -0.9951785 -0.32521358 0.43840727
-0.20387784 -0.3514634 -0.10379167 0.25710756 -0.15465689 -0.93697315 -0.13727382 0.5612912
00000000: ad3f 30bf 116e c93e 414c 2d3f 2887 afbe
00000010: 3ce1 ae3f be43 10be cefc 08be c74b 923e
00000020: 5197 f2be 61c4 e6be 73de 5bbe 6e37 943e
00000030: b036 4d3e cc57 0b3d e97c de3f 3ccb 8abd
00000040: cb3c b8be 1c3a b63e 1f6e 8ebe 1c26 28bf
00000050: 4d86 60bf abaa dbbd faa8 153e 1d83 3dbf
00000060: 2024 e73e b59a adbf 272c 8cbe b490 80be
00000070: 3ca5 883e fba9 86be 3ba8 e4be ad23 303f
00000080: 58f9 f03e c0ce aebe 6c6d 0bbe 4f21 84be
00000090: efde 953f d2da a93e 2afb 183f e5a4 4d3e
000000a0: c341 d7be 4c10 523e 44b5 023e 1075 8c3f
000000b0: 09da 463e 5357 403e e70a b7bb 9da5 ba3e
000000c0: e44f b53f fe23 5e3e 27b0 e5bf 55be f4bd
000000d0: c4d0 9ebd c1c2 b7bf 24f2 2a3e f08a 213f
000000e0: 6b81 81be 2694 0dbf 6cf8 b8be ef39 95be
000000f0: cfb6 58bf bf18 35bf 8b29 56be bc37 44bf
00000100: 5f36 93bd 5f56 613d bbc6 373f 1da0 0f3f
00000110: 437b 89be 4424 87be d048 393e 68b0 64bc
00000120: d8e9 0cbf 08d3 0dbf 7e20 9e3f 9ff8 e4bd
00000130: 7e50 063e 9b7f a13e 36f2 47bf e7eb 12be
00000140: 0e5a 163e 00e4 4c3e 69fd 6bbf 8791 ea3e
00000150: be1c a63e 9605 d5be 3198 113f ce3f e8be
00000160: 9aa1 3e3f 4937 463e f0e7 3ebf d1b1 bfbe
00000170: 09b5 a23c 5606 c2bd d458 0bbf ea38 82be
00000180: 2542 a43e e420 483e 67d7 053e f789 56be
00000190: cdb8 7fbe 15a3 bfbe 13c0 da3e 1654 9bbe
000001a0: 2859 45bf 3829 fa3d 0f11 003f 3e5d 94bd
000001b0: 0e9d 683f 3cb2 7dbd 37f9 433f 2e2d 04bf
000001c0: 57ad b93e 9bb0 a13f 1737 e9be ec39 5e3f
000001d0: 447b aebe 8a58 263e 9a0b 853f ce31 533f
000001e0: 3788 82be d36c 993f aa8a c33e 1998 bd3c
000001f0: ac11 52bf f89e 173f 7381 4abf 666a 9a3d
00000200: 6eff 2fbe b943 143f a816 5ebf 08f4 963e
00000210: 9c42 2dbf 3a0a ab3e 6b8e 2a3f eb2c 0cbf
00000220: ca7e 6ebf e24e 2cbd 0343 0e3d 124c 0f3f
00000230: c467 613f fa46 bebd 1a1e 10bf 0505 e7be
00000240: a806 72be 8b3b 54bc feeb 60bf 956f 1c3f
00000250: 7075 4e3f 9b1a 0b3f 879e 633f dcdf c3be
00000260: 767b b2be f915 1ebf d5b7 333f f523 83be
00000270: dda5 323e 3afa 20be 9b05 4a3f 4fd0 823e
00000280: a426 91bf 9041 803f a730 0a3f f920 e63e
00000290: afd2 27bd f296 91bf 55fc 243e 74eb 433e
000002a0: 4dee 3a3d 0572 fc3e 28db 09be ba83 d73e
000002b0: dd64 c5be 8a37 f6be 46c0 61bd a968 ebbe
000002c0: 0be9 d1bd 2902 28bf ca28 0fbe c909 a13d
000002d0: f72e 893d 2d90 86be f3da 993d e102 e23e
000002e0: ced5 b6bd 14da 33bf 7122 f33d cfa9 0e3f
000002f0: 318e 693f ce9a bfbe 4ee1 053e ff5b 0e3f
00000300: 0a3d 41be bb2f 6f3f abc7 153e 39ae cebe
00000310: 4e5f d5be a04c a53d 29df f1be 98c8 03be
00000320: 4cca ea3e 179f 21bf 7524 bebe 5ccd 0dbf
00000330: ecf5 a53f e0c8 bdbd 15c1 763f f92e 813f
00000340: 74c7 94bf 4c19 b73e 3acb eb3e ced6 3dbe
00000350: 5ee3 03bf f78b d53f 8ee5 fcbd dfd7 3cbf
00000360: 2b48 a9bd 8a7e 77bf a23f a0be bae6 873e
00000370: 5655 c53e 0fb5 8ebe 8569 80bf b20a 233f
00000380: 7617 173f 3172 d63e d06b c3be f7de 6cbe
00000390: 5cfe 173f b13e 4e3c 7881 303e a629 14bf
000003a0: 7ec5 413d 8aea 7abe 3d49 823d d6f3 803e
000003b0: 9dd1 993f c730 2f3f 3053 0dbe 9e2a 96be
000003c0: 54b4 e73e b5f9 aabd ee5b 74be 0eb2 6e3d
000003d0: 6154 0bbe 05c4 7ebf 6582 a6be eb76 e03e
000003e0: 5ac5 50be 03f3 b3be ba90 d4bd 9aa3 833e
000003f0: 605e 1ebe 79dd 6fbf 8291 0cbe c8b0 0f3f

0.bias f4 [64]
-0.40555862 0.29061532 0.12029518 0.009952876 0.086115345 0.09305824 -0.08090253 0.39258063
0.4606186 -0.27542925 -0.25412956 -0.12552164 0.08955992 0.0985484 -0.16476095 -0.34162903
0.31258503 -0.46433738 0.21980584 0.10014845 0.068354405 -0.07165973 0.46789208 -0.10823639
0.43696326 -0.28668872 -0.62653196 0.14857373 0.41682142 0.5550077 -0.11464222 -0.025119007
-0.23900923 -0.046316758 -0.18323311 0.5213599 0.22250265 0.21535787 -0.040087722 0.15437959
-0.19262779 0.38760304 -0.33569852 -0.10066237 -0.33879423 -0.011413836 0.45534414 0.5784286
-0.15428732 -0.1845371 -0.20334005 -0.3148621 0.27347773 -0.33983427 0.12936907 -0.105724566
0.26445496 -0.8496044 0.43759957 -0.5995889 -0.065991044 -0.29461268 -0.37867036 -0.043697182
00000000: 61a5 cfbe 88cb 943e 525d f63d 6311 233c
00000010: 3e5d b03d 5295 be3d 3ab0 a5bd 5400 c93e
00000020: 33d6 eb3e 1005 8dbe 451d 82be bf88 00be
00000030: 316b b73d bed3 c93d 18b7 28be 00ea aebe
00000040: 250b a03e a1bd edbe c814 613e a11a cd3d
00000050: 65fd 8b3d 56c2 92bd 8d8f ef3e 0aab ddbd
00000060: a6b9 df3e ddc8 92be 6664 20bf b623 183e
00000070: 9e69 d53e fc14 0e3f 8ac9 eabd 60c6 cdbc
00000080: d6be 74be a4b6 3dbd 76a1 3bbe d877 053f
00000090: bcd7 633e c686 5c3e 0633 24bd af15 1e3e
000000a0: 3840 45be e873 c63e ade0 abbe 1328 cebd
000000b0: 7076 adbe 1901 3bbc de22 e93e e613 143f
000000c0: 7ffd 1dbe 4bf7 3cbe 6038 50be 9b35 a1be
000000d0: 4605 8c3e c2fe adbe 5379 043e 1f86 d8bd
000000e0: a466 873e ad7f 59bf 0d0d e03e a87e 19bf
000000f0: 5026 87bd 79d7 96be 15e1 c1be d1fb 32bd

2.weight f4 [64, 64]
0.20225997 -0.4253836 0.41381007 -0.022469439 0.10802163 -0.044793345 -0.063547164 0.25054818
-0.4858504 0.04482258 0.16486025 -0.055251513 0.453077 -0.13397251 -0.88060826 -0.13736892
-0.11178819 0.60179293 0.5009614 0.9249362 -0.46794203 0.66763616 0.24826032 0.21317345
0.13940796 -1.4348582 0.74956304 0.5903772 0.65042186 0.18719684 -0.7002558 0.51235473
-0.5315298 0.23858406 0.25574052 1.3106409 0.25316948 -0.11284555 0.19502404 0.8963418
-0.34760076 0.73367643 -0.8013661 0.007784465 0.8011823 -0.89985806 -0.8092153 -0.1672457
-0.08756903 0.47750854 0.13669667 0.046570636 -0.19231442 -0.1747137 -0.65372294 -0.8842493
0.44426107 -0.4718863 -0.16311422 0.7295237 -0.012956901 0.37609726 -0.8469598 -0.038514417
-0.44369122 -1.1405648 -0.059335984 -0.2612942 1.0400351 0.044073317 0.863089 0.08736913
-1.468723 0.24893782 -0.7136891 0.79816794 0.04496307 0.53480643 -0.13004002 0.6373177
-0.091715194 -0.24080023 0.9188959 -0.83501726 -0.54421777 -0.0970954 -0.28552115 1.1728412
-0.56151354 -0.35101807 1.4871174 0.9617507 -0.45142797 0.7954479 -0.94436973 1.1163193
1.8165271 0.2733826 0.976447 -1.0208204 1.3905586 -0.8227487 -0.4373411 0.5833199
-0.91005635 -0.12875344 1.4443794 1.0477726 0.41819048 -0.37656793 -0.05371045 0.35444173
0.37652546 -0.42608634 0.3436073 1.6264105 -0.7661505 0.5139545 -0.93051386 -0.35611516
0.7824698 0.36524543 0.4190057 1.331861 1.0251474 0.07482354 -1.3071734 -0.92667764
-0.13606225 -0.46341273 -0.7866755 -0.22759 -0.0145692695 -0.90338427 0.62007475 -0.029772058
0.29772735 0.57373023 0.40570968 -0.14235741 -0.7717123 -0.88552415 0.26290902 0.2570731
-0.21693233 -0.892296 -0.1896541 -1.2791132 -0.2536475 -0.73082995 -0.3838975 1.0669645
-0.6461618 0.26285192 0.26394892 -0.30621642 -0.7916171 0.16949476 0.028255086 -0.07574234
0.1832067 -0.025538353 -0.05926004 -0.76757836 -0.019005666 -0.92745155 0.6113941 -1.0623287
0.27702793 -1.9578192 1.5814308 0.16263391 -0.5380802 -0.046432167 1.034416 0.06793036
0.28442648 -0.959252 -0.3489474 1.4962991 0.826832 0.25933 0.18741229 0.65099335
-0.26259312 0.39359224 0.8515011 -0.97778904 0.18252401 -0.79958045 0.52117527 -0.5211282
-0.26937613 -1.0737991 0.29485536 0.06318147 0.8219967 0.04668572 0.89310634 0.27798033
-1.5417441 0.2838004 -0.9128943 0.81273675 0.09667418 0.68088 -0.27309445 0.21089555
-0.19072081 -0.24348718 1.1303214 -0.3089578 -1.004861 0.414803 -0.60623795 1.289601
-0.37515813 -0.6717178 1.7251356 0.91589576 -0.5822465 0.5633726 -0.6672843 0.925088
1.9060795 0.44277626 1.3946476 -0.55349094 1.2927545 -0.6829067 0.24492799 0.69026154
-0.70657367 0.17842864 0.8041932 0.89183307 0.9541192 -1.1903507 -1.0671664 0.38297662
0.31472036 0.33320424 0.62089795 1.0454439 -1.11441 0.54581624 -0.79592055 -0.6045023
0.8585316 -0.16448744 0.21026458 1.4156259 0.9078256 0.29611012 -1.503308 -0.48870483
00000000: 3d1d 4f3e e1cb d9be eade d33e d411 b8bc
00000010: 723a dd3d 3a79 37bd 0425 82bd da47 803e
00000020: 62c1 f8be e297 373d 20d1 283e 694f 62bd
00000030: b5f9 e73e 1730 09be 8b6f 61bf 70aa 0cbe
00000040: 35f1 e4bd 1a0f 1a3f 023f 003f 9ec8 6c3f
00000050: 1996 efbe 34ea 2a3f f437 7e3e 244a 5a3e
00000060: f6c0 0e3e 6fa9 b7bf 5de3 3f3f f622 173f
00000070: 0c82 263f 87b0 3f3e f743 33bf ae29 033f
00000080: 5612 08bf 614f 743e 6cf0 823e 15c3 a73f
00000090: 6e9f 813e 911b e7bd 62b4 473e a876 653f
000000a0: baf8 b1be 38d2 3b3f 5426 4dbf d314 ff3b
000000b0: 491a 4d3f 195d 66bf bc28 4fbf 7542 2bbe
000000c0: 6457 b3bd 007c f43e 36fa 0b3e dac0 3e3d
000000d0: 12ee 44be 26e8 32be 635a 27bf 2a5e 62bf
000000e0: 3076 e33e 159b f1be 6a07 27be 11c2 3a3f
000000f0: 2f49 54bc d28f c03e 5cd2 58bf 4bc1 1dbd
00000100: 7f2b e3be 07fe 91bf 4a0a 73bd 5ac8 85be
00000110: df1f 853f 3986 343d 67f3 5c3f 96ee b23d
00000120: 1eff bbbf 8ee9 7e3e 54b4 36bf bc54 4c3f
00000130: 322b 383d 13e9 083f 3629 05be 4127 233f
00000140: 2dd5 bbbd 5694 76be c33c 6b3f b1c3 55bf
00000150: db51 0bbf f4d9 c6bd d42f 92be a91f 963f
00000160: 5abf 0fbf a4b8 b3be dd59 be3f 4b35 763f
00000170: 9121 e7be 79a2 4b3f 37c2 71bf 8de3 8e3f
00000180: f683 e83f cef8 8b3e 6ef8 793f 3eaa 82bf
00000190: d3fd b13f a99f 52bf 2ceb dfbe 7454 153f
000001a0: 74f9 68bf f1d7 03be 6de1 b83f 6a1d 863f
000001b0: 101d d63e 83cd c0be 7dff 5bbd 6379 b53e
000001c0: f2c7 c03e fd27 dabe 4ced af3e 382e d03f
000001d0: 7022 44bf 8692 033f 2836 6ebf ba54 b6be
000001e0: f14f 483f 7301 bb3e ea87 d63e 6c7a aa3f
000001f0: 0838 833f 163d 993d 7551 a7bf bf3a 6dbf
00000200: e753 0bbe 6f44 edbe 9163 49bf 5a0d 69be
00000210: f2b3 6ebc 3144 67bf 38bd 1e3f 88e4 f3bc
00000220: b86f 983e fcdf 123f 2eb9 cf3e 24c6 11be
00000230: f08e 45bf b6b1 62bf 039c 863e 169f 833e
00000240: 8223 5ebe 836d 64bf af34 42be fbb9 a3bf
00000250: 16de 81be ac17 3bbf 378e c4be 4b92 883f
00000260: dc6a 25bf 8794 863e 5024 873e 66c8 9cbe
00000270: 6ba7 4abf 0990 2d3e 3677 e73c cd1e 9bbd
00000280: 8a9a 3b3e cf35 d1bc a8ba 72bd 0480 44bf
00000290: c5b1 9bbc 776d 6dbf 5384 1c3f 63fa 87bf
000002a0: 9bd6 8d3e d299 fabf 536c ca3f 8189 263e
000002b0: a0bf 09bf a82f 3ebd be67 843f 131f 8b3d
000002c0: 59a0 913e 8a91 75bf 3ca9 b2be bb86 bf3f
000002d0: 43ab 533f e7c6 843e 02e9 3f3e 80a7 263f
000002e0: 9b72 86be ec84 c93e fafb 593f 6250 7abf
000002f0: 93e7 3a3e 4eb1 4cbf be6b 053f a868 05bf
00000300: abeb 89be 4072 89bf 48f7 963e 4965 813d
00000310: 606e 523f 8739 3f3d 9ea2 643f 7053 8e3e
00000320: df57 c5bf 494e 913e 71b3 69bf 840f 503f
00000330: 1dfd c53d 274e 2e3f 09d3 8bbe 01f5 573e
00000340: 514c 43be b454 79be 5fae 903f b72f 9ebe
00000350: 499f 80bf 0f61 d43e 6932 1bbf a511 a53f
00000360: ba14 c0be b3f5 2bbf 3ed1 dc3f 2578 6a3f
00000370: 1b0e 15bf 3039 103f 25d3 2abf 91d2 6c3f
00000380: 6afa f33f 92b3 e23e d083 b23f 95b1 0dbf
00000390: fb78 a53f f9d2 2ebf 67ce 7a3e fbb4 303f
000003a0: 03e2 34bf ffb5 363e 9bdf 4d3f 2c4f 643f
000003b0: 2841 743f 695d 98bf e998 88bf 8315 c43e
000003c0: 0723 a13e bf99 aa3e 2bf3 1e3f 1bd1 853f
000003d0: fda4 8ebf 9dba 0b3f 73c1 4bbf aac0 1abf
000003e0: bac8 5b3f 656f 28be 994f 573e 3b33 b53f
000003f0: 4267 683f bf9b 973e 666c c0bf 8537 fabe

2.bias f4 [64]
-1.3195604 -2.1364157 0.46382007 -2.3115995 1.5621487 0.8517634 -1.9816345 0.35583547
-1.4310088 -1.5161861 1.5002303 -1.8197482 1.728961 2.345091 -0.60649616 -1.7161034
1.7864568 -1.349818 -2.1495516 1.0404778 -0.62101156 -1.6550651 0.96226436 1.4826037
1.5349656 -0.97007126 1.8119265 0.40357664 1.420894 1.6175305 -1.3815305 0.74468726
-1.6102706 1.3444157 -0.79749304 -1.2778251 -1.4284623 -2.102185 1.5642388 1.9611846
1.5628654 1.4730299 1.7878098 -1.1663384 -2.3593705 -1.6990032 1.5679414 1.522337
-1.4193131 0.69617665 1.7463944 -1.5532422 -1.6864316 2.3732827 2.4735596 1.1671972
-1.5777463 -1.5630298 -1.7551761 -1.7192247 -1.2209176 -1.2107093 1.069818 2.277965
00000000: 5be7 a8bf 09bb 08c0 d379 ed3e 3ff1 13c0
00000010: 7df4 c73f 2b0d 5a3f 33a6 fdbf 1130 b63e
00000020: 4c2b b7bf 6312 c2bf 8c07 c03f 82ed e8bf
00000030: 984e dd3f f915 1640 5543 1bbf 47a9 dbbf
00000040: 9eaa e43f d6c6 acbf 4192 09c0 602e 853f
00000050: 9dfa 1ebf 2cd9 d3bf f556 763f f5c5 bd3f
00000060: c179 c43f 9756 78bf 35ed e73f 99a1 ce3e
00000070: dbdf b53f 3d0b cf3f fed5 b0bf d3a3 3e3f
00000080: 591d cebf d015 ac3f 8128 4cbf c68f a3bf
00000090: dad7 b6bf 338a 06c0 fa38 c83f 1908 fb3f
000000a0: f90b c83f 3e8c bc3f f4d6 e43f 944a 95bf
000000b0: edff 16c0 f078 d9bf 4eb2 c83f f0db c23f
000000c0: 0dac b5bf a238 323f da89 df3f a4d0 c6bf
000000d0: fedc d7bf dde3 1740 cd4e 1e40 b866 953f
000000e0: 97f3 c9bf 5c11 c8bf 9ca9 e0bf 8e0f dcbf
000000f0: 0747 9cbf 86f8 9abf ccef 883f 2eca 1140
