dir_save/we0_actor_-500.pth (torch, 35017 bytes, 4 tensors)

0.weight f4 [64, 64]
000000 b4 13 94 3e d0 8e ac 3e 9c d6 4e 3e 82 75 60 be
       0.28921282 0.33702707 0.20199054 -0.21919826
000010 df f3 99 3d 69 1f af be 4f 24 94 be f9 00 2b bd
       0.07517218 -0.34203652 -0.2893395 -0.041748974
000020 d2 ed 8c bd 36 35 ff 3c ab 62 04 3e bd fd 3d 3e
       -0.06881298 0.031153303 0.12928264 0.18553825
000030 6f 64 de 3b 24 33 e3 3d 95 13 07 bd b6 64 8d bd
       0.006786875 0.11093739 -0.03297766 -0.06903975
000040 aa 86 9a 3d 7d a0 59 3d f2 08 3b 3e 48 92 71 bd
       0.075452164 0.05313157 0.18265131 -0.058977395
000050 3c c6 75 be dc dc 10 bf 1f 32 00 be 78 66 52 3d
       -0.24001402 -0.56587005 -0.1251912 0.051367253
000060 6c a6 3e be 5d 42 85 bc 1a 57 97 be 6c 2d d2 bc
       -0.18618172 -0.016266996 -0.2955864 -0.025656424
000070 f1 38 fc bd 3d ef 22 3e 53 25 38 3e 27 c8 d1 bd
       -0.12315548 0.15911575 0.17982988 -0.10243254
000080 b8 41 b4 bd 20 e7 c0 bc 52 26 68 bd 46 b1 0c 3a
       -0.08801597 -0.023547709 -0.05667717 0.0005366992
000090 f0 4a 3b be 86 63 ff 3c 0f 26 a2 3d f5 3f d5 3e
       -0.18290305 0.031175386 0.07917415 0.41650358
0000a0 af 0c e4 be 44 cc c9 3d 15 5a 93 bd 93 cf dd bd
       -0.44540927 0.09853414 -0.07194916 -0.10830607
0000b0 47 9d bd 3d 9b 33 4d be 03 c2 1e be 4a b1 78 be
       0.09258514 -0.20039217 -0.15503697 -0.2428638
0000c0 30 10 6c bd 51 41 54 be 78 93 e4 bd 51 48 65 be
       -0.057632625 -0.20728041 -0.1116094 -0.22390868
0000d0 34 52 65 bc 59 15 08 3e 63 ed 84 3d 3b af 7e be
       -0.0139966495 0.13289393 0.064905904 -0.24871533
0000e0 a6 f3 cb be b2 9f 55 be bb 60 50 be 8f 7f f2 3c
       -0.39834327 -0.208617 -0.203494 0.02960184
0000f0 1d c5 2d 3d 1f 9d 99 3c 59 38 e0 3c e7 cb 96 bd
       0.04242431 0.018751679 0.027370619 -0.0736311
000100 f1 ed cc 3e 1f 3f 33 be 44 89 4b 3e c3 34 a2 bd
       0.40025285 -0.17504548 0.19876581 -0.0792022
000110 6b 19 1a 3c 5e d2 3a be 79 dd 45 3e f5 3c 1e be
       0.009405474 -0.18244311 0.19322766 -0.15452941
000120 ad 28 13 3e ef a1 c5 3d 0e 77 7f 3e b0 9e b6 be
       0.14370985 0.09650027 0.2494776 -0.35667944
000130 23 b2 a1 3d 2d 71 1b bd 02 de 78 be b2 2e 5b be
       0.07895305 -0.03794973 -0.2430344 -0.21404532
000140 a2 72 1b 3e d8 5f 25 3e e9 b4 a9 3d ac ee 98 bd
       0.15180448 0.16149843 0.08286459 -0.07467398
000150 3f b7 17 bb c5 92 5b be 63 22 66 3e a6 e5 fb 3c
       -0.0023149995 -0.21442707 0.22474055 0.030749153
000160 c5 fb 04 3e b9 5e 0e bf 9a 24 ae be ab c4 ab bd
       0.12986667 -0.55613285 -0.340123 -0.08387121
000170 d2 bb 36 bd e7 e0 16 3e 5c 3e ec bd 2f 4b 9d 3d
       -0.044612713 0.14734231 -0.115353316 0.07680356
000180 33 b5 47 be b5 9d e5 bb ac 2d b5 3e 9e 7a 0b 3e
       -0.19502716 -0.0070073255 0.35386407 0.13620993
000190 55 8d 2c be 5c 77 3e 3e 92 b8 cc 3d 12 91 1c 3e
       -0.16850789 0.1860022 0.099961415 0.15289715
0001a0 a1 a9 a9 3b a8 60 c1 bc be 13 eb 3c e5 0d 4a 3e
       0.005177692 -0.02360566 0.028695937 0.19731863
0001b0 41 22 85 3d cb 14 ed bd 39 07 ec bd 97 50 4f 3e
       0.06500674 -0.115762316 -0.11524815 0.20245586
0001c0 da fa 1c 3e 5d a1 74 bd ca 4a b4 3d 17 ec cc 3c
       0.15330067 -0.0597242 0.088033274 0.02501492
0001d0 1c f2 c2 3d a8 ef 9e 3e 44 be e8 bd 76 ed 8a be
       0.09518835 0.31042218 -0.11364415 -0.27134293
0001e0 b8 89 dc bc 66 22 b0 bd a8 0e a3 bd 82 15 02 be
       -0.026921138 -0.08600311 -0.0796178 -0.12703517
0001f0 be 33 be 3e 96 fd 3c 3e 27 dc 61 bd 12 a4 12 be
       0.3714885 0.1845611 -0.055141594 -0.143204
000200 84 de 2d 3e 3c c9 32 be ab f4 33 be cd ca 70 bb
       0.16979414 -0.17459577 -0.17573802 -0.0036741972
000210 48 cc aa 3d 6e 12 83 3d f8 24 84 ba 32 db b8 bb
       0.08339745 0.063999996 -0.0010081818 -0.0056413645
000220 75 34 eb 3d 7a fe 53 3c 3e 77 38 3d 22 ae cc 3d
       0.11484615 0.01293909 0.045035593 0.09994151
000230 99 0e 60 3d ba 09 58 be ae a9 3c bd 50 24 8e bd
       0.05470142 -0.2109746 -0.046060257 -0.0694052
000240 3b b8 9f bc b1 06 29 be 65 e9 2e be 9f 19 5f 3d
       -0.019497028 -0.16506459 -0.1708122 0.054467794
000250 4d 3a d5 be 6d 88 74 bd d3 05 e9 bd a1 91 49 3e
       -0.41646042 -0.05970042 -0.11378064 0.1968446
000260 cb 6c a7 3d a4 45 e0 bd e9 41 2b be e1 35 9c be
       0.081750475 -0.10950783 -0.16724361 -0.30509856
000270 05 62 56 be 62 a9 10 3d ed c7 b5 3d 2c 57 29 bc
       -0.20935829 0.035317786 0.088760234 -0.010335725
000280 22 34 87 bd bd 69 03 be 88 a1 92 bc 67 c3 75 bc
       -0.066017404 -0.12833305 -0.01789929 -0.015000201
000290 cb 86 48 be bc 80 a0 be 34 d3 c8 bd 74 f6 9d bd
       -0.1958267 -0.31348217 -0.09805909 -0.07713023
0002a0 d3 8f 6c bd 91 12 59 bb ef 08 25 bd 40 3d 80 bd
       -0.05775435 -0.0033122639 -0.040291723 -0.062616825
0002b0 2b 76 b6 bd 5d d6 b0 3d 54 34 51 bd 47 16 96 3e
       -0.089092575 0.086346366 -0.051075295 0.2931387
0002c0 7e 5a 7b 3d 1c 65 9d be 5f 8c 96 be 3d 0f 10 3b
       0.061365597 -0.30741203 -0.2940397 0.002198174
0002d0 86 08 8b 3c d9 f7 42 be 58 41 42 3e e0 f0 a9 be
       0.016971838 -0.19039859 0.18970239 -0.33191586
0002e0 c3 3d ac 3d 10 e0 cf be 6c 6d 03 3d 2a 4a 17 be
       0.084102176 -0.40600634 0.032086775 -0.14774385
0002f0 eb 91 dd bc b7 10 8a be ce 88 c1 3c 40 6f 64 3d
       -0.027047118 -0.26965877 0.023624804 0.05577016
000300 f0 40 81 3e bb e6 89 be 10 42 9e bd 4b b4 60 bd
       0.25244856 -0.26933846 -0.07727444 -0.05485944
000310 15 f4 48 3d 44 54 41 3d f1 ab 2c 3e dd 1a 04 bd
       0.0490609 0.047199503 0.16862465 -0.03225218
000320 23 87 1f 3d b6 78 35 be e4 03 2f 3e 50 c8 8e bd
       0.038947236 -0.17721829 0.17091328 -0.069718
000330 ae 4c 01 be b1 85 1a 3d cc e5 fc bd c1 d7 13 bd
       -0.12626907 0.037725154 -0.12348518 -0.03609443
000340 f8 2e 03 be 5d 24 f8 bd 26 3e 72 bd 8b 80 a2 bd
       -0.12810886 -0.12116311 -0.0591413 -0.07934674
000350 91 a3 a7 bc 91 67 a3 3e e2 99 0c 3a 22 75 83 3c
       -0.020463737 0.31914952 0.00053635065 0.016047064
000360 05 13 99 3e fe af ba bb 89 84 1f 3e 38 e1 6d 3d
       0.29897323 -0.0056972494 0.15577902 0.058076113
000370 67 03 12 be fb a4 a2 be 82 36 8a be 26 55 70 bd
       -0.1425911 -0.31766495 -0.2699471 -0.058674954
000380 b3 92 96 3e d0 85 48 3d 91 e3 ac 3d cf 85 e0 3d
       0.29408798 0.04895574 0.08441842 0.10963022
000390 53 1d 67 bd f0 90 2f be dc 67 83 3e 51 58 18 be
       -0.05642445 -0.17145133 0.25665176 -0.1487744
0003a0 74 61 3e bd 15 f4 34 3c 2a 09 af 3c c1 d0 4c bd
       -0.046479657 0.011044522 0.021366674 -0.05000377
0003b0 30 1d 9a bd 3f 42 f2 3d 32 1a 8a 3e 00 9c 61 bd
       -0.07525098 0.11829042 0.2697311 -0.055080414
0003c0 89 4d 28 be 0a c2 d2 bc 9e a4 a6 bd 46 84 b3 3d
       -0.16435827 -0.02572729 -0.08136867 0.087654635
0003d0 0a ad 58 3e 6b ca 05 bd 1d 43 82 3e 78 3a 9b 3e
       0.21159759 -0.032663744 0.25441828 0.30318046
0003e0 fe c5 55 be f2 66 5e be 9c 9b 41 bd b9 89 6d bd
       -0.2087631 -0.21718958 -0.04726754 -0.05799267
0003f0 5e b0 85 3d b9 50 fd be 50 72 9f 3d ff e5 6e 3e
       0.0652778 -0.4947565 0.07785475 0.23329924

0.bias f4 [64]
000000 6d 61 82 3d 8d 95 83 3d 91 58 8d be 23 32 64 3c
       0.06366239 0.06425009 -0.27606633 0.013927969
000010 86 dd 24 3d fd bf 2e 3d f2 90 f4 bd 2d fc 42 bd
       0.040250324 0.042663563 -0.119417086 -0.047603775
000020 cc 86 bb bc b0 53 b9 3c 37 89 0a bd 5f 22 e1 3d
       -0.022891425 0.022622913 -0.033822265 0.10992884
000030 84 d1 c9 bc 28 40 7e 3e d8 dc 0b 3e 67 3d 79 3d
       -0.024636038 0.24829161 0.13658464 0.060849573
000040 14 60 22 bd c7 ec b2 3d 63 8e a0 bd 84 50 1d bd
       -0.03964241 0.08736568 -0.07839658 -0.038406864
000050 ec 4c ea bc d7 11 4b bc 6a 7a 77 3e 0a b9 13 3d
       -0.028601132 -0.01239439 0.24167791 0.03606514
000060 57 51 0d 3c 70 f5 e9 3d 8e cc 86 3d 73 5d ed 3b
       0.00862535 0.114237666 0.065819845 0.007243806
000070 b0 8c 0c 3c cb 44 b8 bc 6c fc cd bc 01 67 87 bc
       0.008578464 -0.02249374 -0.025144778 -0.016528608
000080 3a 60 75 3d e3 5c 5a 3d ef 4b b7 bb 17 dc c4 3d
       0.059906222 0.05331124 -0.005593769 0.09612291
000090 b1 f3 03 bd 09 6b 3a 3d 79 1f 1a 3d 0c 4a 32 3d
       -0.032214824 0.045512233 0.03762767 0.043527648
0000a0 7c e8 3f 3c 24 11 d4 bd 63 1a 21 3d df 0e b9 3d
       0.011713143 -0.10354832 0.039331805 0.090360396
0000b0 41 e3 a2 3d 8c c3 e1 3c 58 d6 ef bc 4d ce 36 3d
       0.079535015 0.027559064 -0.029277012 0.044630338
0000c0 79 46 c0 3c 9e 57 c2 bc 11 fe 3b 3e 35 62 50 3d
       0.023471104 -0.02372342 0.18358637 0.050874908
0000d0 63 66 99 bd dd 89 be 3d 51 6c b0 3d c3 0f a5 3d
       -0.07490232 0.09303639 0.0861441 0.08059647
0000e0 8e 64 7e 3c 9a b6 b6 3c bf 3b 14 bd af ff d4 3c
       0.015526904 0.022303868 -0.03618979 0.026000826
0000f0 ae 6c 55 bc ac 17 57 3d d6 90 02 bd 7a 2e cf bd
       -0.0130264 0.05251281 -0.031876408 -0.101162866

2.weight f4 [64, 64]
000000 48 aa e1 bc e0 23 23 3c 49 b9 69 be 09 1b a4 bd
       -0.027547017 0.009957284 -0.22824587 -0.08012969
000010 19 4e 83 3e f4 14 7d 3d 4b 0e 39 3d a8 af 19 bd
       0.2564552 0.06178756 0.045179646 -0.037521034
000020 2e 2b 28 be 39 6a 46 be 6b f8 2d be 25 15 a8 bc
       -0.16422722 -0.19376458 -0.16989295 -0.020517895
000030 9c 80 c8 bd f0 99 35 3e e6 36 fd 3b 4a 4b ec bc
       -0.09790155 0.17734504 0.0077274917 -0.028844494
000040 04 c3 36 3e d1 ee d4 3c b7 7e 08 3e 0e a0 a7 ba
       0.1784783 0.025992783 0.13329588 -0.0012788789
000050 94 e0 73 bc 2d 48 cd 3d 0c 50 fb 3c 8c 84 d2 3d
       -0.014885087 0.10023532 0.030677818 0.102791876
000060 fe 97 40 bd 7d a3 52 3e 2b ff 9e bd 36 a0 21 be
       -0.04701995 0.20570178 -0.07763513 -0.15783772
000070 d3 b8 bb bc 0f ab 3f 3e 9e 07 71 bd 9f 0f a9 bc
       -0.02291528 0.18717597 -0.058845155 -0.020637332
000080 66 c8 61 3e fb e0 c6 3c 4e 5a 22 3e df 4d 1f 3e
       0.22049102 0.0242772 0.15854761 0.15557049
000090 9a 83 8b 3e c9 ad e7 bd 83 a3 c0 3c da 7a f7 bc
       0.27248842 -0.11312444 0.023515468 -0.030209947
0000a0 a7 39 cf bd 1c a2 ad bd e4 1d 0a 3e 45 44 c6 bc
       -0.10118418 -0.084781855 0.13487965 -0.024202475
0000b0 11 85 43 3d 03 17 8d 3e 96 db 34 3d a3 c3 ca be
       0.047734324 0.2755662 0.044154726 -0.39602384
0000c0 79 5e 0c 3d 35 aa 1b bd 16 e4 c2 3c 1b 84 36 be
       0.034269784 -0.03800412 0.0237904 -0.17823832
0000d0 ff 3f 56 be a4 9e 8d 3d 57 c5 35 be 2e a0 72 bd
       -0.2092285 0.06915024 -0.1775106 -0.05923479
0000e0 1b 91 45 3d cb b8 57 3c c7 74 fc 3c 87 b2 9f 3d
       0.048234086 0.013166617 0.030817403 0.07797723
0000f0 4a 46 0d be d1 9b 55 bd 88 89 25 be d7 87 ee bc
       -0.13796344 -0.05215055 -0.16165745 -0.029117508
000100 58 e6 2e be e5 44 24 bd 66 9f db bd 05 4a fa ba
       -0.17080057 -0.040104765 -0.10723762 -0.0019095546
000110 95 f6 c9 bd 9b 20 b0 3d 09 55 38 be de fc 2c be
       -0.09861485 0.08599969 -0.18001188 -0.16893336
000120 e4 99 a4 3d 3d 1f 97 3d 85 51 95 be 7d d4 26 3e
       0.08037165 0.07379005 -0.29163757 0.16291995
000130 02 38 37 be 78 e9 e2 3e dc ea 88 be cb 7d ec bc
       -0.17892459 0.44318748 -0.26741683 -0.028868577
000140 62 86 19 3e ab ee 7d bd 98 0d e6 3c 68 9c 0f be
       0.14992669 -0.06199519 0.028082654 -0.14024508
000150 2e c7 73 bd 4b a1 e7 be 42 28 ef bc cf f1 37 3e
       -0.059516124 -0.45240244 -0.029194001 0.17963336
000160 f8 ac 44 bd a0 0d 1a 3e b8 de 22 bd 84 b1 b1 bd
       -0.04801652 0.1504426 -0.039763182 -0.086764365
000170 da 13 13 b9 6c 03 c0 bc 1a d7 c3 bd c6 73 40 3e
       -0.00014026408 -0.023439132 -0.09562512 0.18794164
000180 d1 ac 46 be 89 f9 67 ba 90 89 05 3e 25 b1 42 bd
       -0.19401862 -0.00088491343 0.13040757 -0.04753222
000190 8e b9 b4 3e 3d 5a bc bd 9f 0d c3 3d d5 f4 2d 3e
       0.35297817 -0.09196899 0.095240824 0.16987927
0001a0 df 3a b3 3d c5 05 23 bb c4 38 4f 3d b1 ea 91 bd
       0.08751463 -0.0024875265 0.050591245 -0.07124842
0001b0 2f ba b6 3e 68 e5 1d be 77 5c b4 3d aa 06 76 bd
       0.35688922 -0.15419543 0.08806699 -0.06006495
0001c0 d6 d1 1f 3e 64 4d fc bd f4 c3 ae 3e 24 7c 45 bb
       0.1560739 -0.123194486 0.34133875 -0.0030133808
0001d0 7d 42 90 be 88 d2 1a 3e ae 2d 2a be 81 9e 51 3b
       -0.28175727 0.15119374 -0.16618988 0.0031985345
0001e0 7d 32 8e 3e 6c 5b e5 3d c9 50 90 be de ff a2 3d
       0.27772895 0.11199078 -0.28186634 0.07958959
0001f0 ef 20 ce bc 70 42 7a be a7 b1 9e be f9 ac f1 3d
       -0.025162188 -0.24439406 -0.30994913 0.1180057
000200 8d f3 a9 3d 8f 88 53 3e a9 9e 69 bd 23 c2 9c bd
       0.08298407 0.20657562 -0.057036076 -0.07654216
000210 37 cf c5 3c c6 7b d5 3e 4f b5 31 be 96 b9 03 3e
       0.02414666 0.41695994 -0.1735432 0.12863764
000220 e6 bd 31 3d 12 c4 b4 3d 57 02 80 bc b3 e5 74 3d
       0.043393992 0.0882646 -0.015626116 0.05978937
000230 e9 51 26 3e b5 c7 a3 bc d4 c6 c0 3d 68 80 5d 3e
       0.16242184 -0.019992689 0.094129235 0.21631014
000240 25 ac 56 bd 6c 8b 38 be de 92 16 bc e9 e2 cc be
       -0.052410264 -0.18021935 -0.009190289 -0.4001687
000250 2c 62 70 3e 6a 8e 49 bd 6d 99 08 3d 28 a3 97 be
       0.2347495 -0.049208082 0.033349443 -0.29616666
000260 ab 3f 85 3e 0c f3 ef 3d d6 04 61 bd a1 74 78 bc
       0.26025137 0.117162794 -0.054936253 -0.015164525
000270 ed b4 1a be 3a 98 27 3e 0a ce e6 3d f4 5d f3 bd
       -0.1510808 0.16366664 0.112697676 -0.118831545
000280 af 59 e6 3d 9f f1 f3 3d 4a 7a e2 3d 62 36 28 be
       0.112475745 0.1191132 0.11058481 -0.16426995
000290 6b 5c b6 3d e4 71 0b bd 07 b8 d7 bb 6e 2c ea bd
       0.08904346 -0.03404416 -0.006583217 -0.114342555
0002a0 db 7e 10 be e6 23 01 3d 5c 73 a2 3d c3 6f ea 3d
       -0.14110892 0.031528376 0.07932159 0.11447098
0002b0 03 34 61 bb 60 ef a1 bc 41 62 a1 3c 07 c6 72 3c
       -0.0034363277 -0.019767463 0.019700171 0.014817721
0002c0 fa 4a 47 3e 9c 80 c7 be e7 20 18 be 2b f4 af 3d
       0.19462195 -0.3896531 -0.14856301 0.08591493
0002d0 84 bd 14 3e 5d 19 01 bd 08 5e 9e bd 10 90 b0 bd
       0.1452542 -0.03151833 -0.07732779 -0.08621228
0002e0 65 20 c3 3d ac 36 32 be cb 77 30 3e 05 b2 99 3c
       0.09527663 -0.17403668 0.17233197 0.018761644
0002f0 3f 7f 23 3e 2d fb 0e 3e 06 c7 f1 ba a8 24 dd bc
       0.1596651 0.13963003 -0.0018446154 -0.026995018
000300 0d f1 e7 bd 5e 8c a3 be 95 64 76 be c9 13 b3 bc
       -0.11325274 -0.3194303 -0.24061806 -0.02186002
000310 9e 32 2f be 0c 40 d4 bd 73 57 3c bd cd f9 83 bd
       -0.17109153 -0.103637785 -0.045981836 -0.0644413
000320 ab ec d2 3e 21 3b 43 bd 43 26 3b bd 59 1e 3e be
       0.41196188 -0.04766381 -0.045690786 -0.18566264
000330 dc 19 0a 3e 07 5c a1 be 41 01 41 3e 9f 55 31 be
       0.13486427 -0.31515524 0.18848135 -0.17317818
000340 4e 8b 7a 3e 8b c8 50 3b 83 f2 c9 3d c4 20 4c 3e
       0.24467203 0.0031857814 0.098607086 0.19934374
000350 50 80 46 be da 14 5f 3e fb 74 47 3c f1 2f 2d be
       -0.19384885 0.21785298 0.012173886 -0.1691282
000360 e0 97 3d 3d ca 73 23 bd 74 b3 21 3c f6 ce 9c bd
       0.046287417 -0.039905347 0.009869445 -0.07656662
000370 2e 77 bc 3d 12 a6 13 3e 0c 3a 47 3e b9 3d fd bd
       0.09202419 0.1441882 0.19455737 -0.12365288
000380 28 9c c4 3d 87 91 b0 bc fa 48 4e be f7 fa d0 bd
       0.09600097 -0.021553768 -0.20145026 -0.10204118
000390 90 57 62 be 50 43 6d 3d 4d e4 d5 bd 5f d6 4b 3d
       -0.22103715 0.057925522 -0.104439355 0.049764987
0003a0 d4 e3 59 be 22 ba 02 3e f7 60 d2 3d 70 eb 1f 3e
       -0.21278316 0.12766317 0.10272401 0.15617156
0003b0 22 83 19 3a 7d 46 a8 be 47 1a b3 3e 43 00 dc 3d
       0.0005856027 -0.32866278 0.34980986 0.107422374
0003c0 0f 53 d9 3c 64 31 45 3e 7f b5 fb bd 48 a6 bf 3d
       0.026528863 0.19257122 -0.12290477 0.093578875
0003d0 b0 bd 73 3d bc 44 68 3d d5 0a 00 be 6c db 18 be
       0.059507072 0.056706175 -0.12504132 -0.14927453
0003e0 89 f8 39 3e 4e ca b6 bc 9f 8f 7f 3e 6f 08 f3 3b
       0.18161215 -0.022313263 0.24957131 0.007416777
0003f0 11 2a 8e 3d 42 94 05 3e 70 c3 69 3e c9 21 30 3d
       0.06941617 0.13044837 0.2282846 0.04300097

2.bias f4 [64]
000000 9a b0 86 3c 37 d4 15 3e bb 3d 9e 3c bc af 12 3a
       0.016441632 0.14631735 0.019316545 0.00055956445
000010 ad 3a a4 bc b8 0e 77 3c 6e 71 a6 bb 87 36 3f 3b
       -0.02004751 0.015079193 -0.00507944 0.0029176788
000020 63 21 39 3d f7 49 d6 3c 59 4c 2d 3e 9c b0 9f bd
       0.045197856 0.026158316 0.16923656 -0.077973574
000030 fc b4 17 bc eb b3 a2 3d 5b b6 92 bc 0a 45 a8 3d
       -0.009259459 0.07944473 -0.01790922 0.08216293
000040 39 25 0c 3e 96 6e d7 3d 7c aa 71 3a de 0a 24 be
       0.13686074 0.105191395 0.00092188246 -0.1601977
000050 44 aa 80 bd 1c f8 04 3e b8 c6 52 3d 40 35 e0 bb
       -0.062824756 0.12985271 0.051459044 -0.0068422854
000060 39 47 11 3d 46 2c 80 bd d3 e7 16 be dd 80 dd bc
       0.035468314 -0.062584445 -0.14736871 -0.027038986
000070 b7 de b1 3c dd 7c d7 3b a8 4d b4 bc 08 39 a9 3d
       0.021712644 0.006576164 -0.022009686 0.08262831
000080 74 9b a7 b8 d5 66 ac bc 3d 4b a2 bc c0 38 f1 bb
       -7.992136e-05 -0.021045128 -0.019811267 -0.0073615015
000090 64 42 b2 3d 37 0b 2a bd 24 2d 10 3e 1d 88 b2 bc
       0.08704069 -0.0415146 0.1407972 -0.02179342
0000a0 83 52 5d 3d 5e 69 0b 3c 3c 2f e7 bd 68 dc 11 be
       0.054033767 0.008509008 -0.11288306 -0.14244235
0000b0 83 b7 18 bc 03 4b fd bd 13 c3 2b bd e1 32 6e 3d
       -0.009321096 -0.12367823 -0.041934084 0.05815399
0000c0 60 65 77 3d 76 48 84 3d 54 df e2 3d 67 74 9d 3d
       0.060399413 0.06459133 0.11077753 0.076882176
0000d0 46 9f de bd a1 48 0c 3e 63 e9 30 3d 83 eb bc bd
       -0.10870223 0.1369958 0.043191325 -0.09224608
0000e0 da 41 4b bd 2c c8 d4 3d df a5 a3 bd 63 7d 38 ba
       -0.049623348 0.10389742 -0.07990622 -0.0007037727
0000f0 28 cf 3f bd f5 61 bf bc 17 a7 20 bd 2f 23 24 bd
       -0.04682842 -0.02336214 -0.03922185 -0.040072616
