dir_save/we0_critic_linear_240.pth (torch, 1375 bytes, 1 tensors)

weight f4 [1, 64]
0	0x409e7328	4.951557
1	0x3f7cc11e	0.98732173
2	0xc0656362	-3.5841908
3	0x3fbe0dfc	1.4848018
4	0xc0cfdb7d	-6.495543
5	0xbeb7c89f	-0.3589525
6	0x402c5662	2.6927724
7	0xbfffd33f	-1.9986342
8	0x40c5370a	6.1629686
9	0x4006a6d3	2.1039321
10	0xc0aa2563	-5.317064
11	0x40d5adc9	6.677464
12	0xc0600252	-3.5001416
13	0xbfc2a5fc	-1.5206904
14	0x3f408718	0.75206137
15	0x4010a8b9	2.260298
16	0xbed05891	-0.4069257
17	0x409ca1d8	4.8947563
18	0x3fca21f0	1.5791607
19	0xc0b5c4f2	-5.680291
20	0x4035752a	2.8352761
21	0x40d24613	6.571054
22	0xc03aeae4	-2.9205866
23	0xc09394e7	-4.6119266
24	0xc0a1bc3b	-5.0542274
25	0x409ce5b4	4.90304
26	0xc0d66280	-6.699524
27	0xc037480c	-2.8637724
28	0xc045abe3	-3.0886161
29	0xc0a3a275	-5.113581
30	0x4092329e	4.568679
31	0xc0a4df87	-5.152286
32	0x40daa3e0	6.8325043
33	0xc0a1699f	-5.044143
34	0x3eef1ea1	0.46703056
35	0x40c4a2d5	6.144877
36	0x3f1055c6	0.5638088
37	0x4036a7e7	2.853998
38	0xc0716bd2	-3.7722058
39	0xbfc06b21	-1.5032693
40	0xc0d45886	-6.635806
41	0xc0c3f0e0	-6.1231537
42	0xc0d514b6	-6.658778
43	0x400c5273	2.1925323
44	0x404399a8	3.0562534
45	0x40794d93	3.8953598
46	0xc0d51d5c	-6.659834
47	0xc091fc3d	-4.562041
48	0x40d67dbd	6.702849
49	0xc02187ea	-2.5239205
50	0xc0800b90	-4.0014114
51	0x40b34cb4	5.603113
52	0x40d417cc	6.627905
53	0xbfe6b834	-1.8024964
54	0xc0638f44	-3.5556192
55	0xc08a26c4	-4.317232
56	0x40a01e46	5.0036955
57	0x40c04cde	6.009383
58	0x40d2620f	6.57447
59	0x40d3fc1d	6.6245255
60	0x40bfb252	5.9905176
61	0x409be78b	4.8720145
62	0xc07e0cea	-3.9695382
63	0xbfa1fc7d	-1.2655178
