dir_save/we0_actor_0.pth (torch, 34999 bytes, 4 tensors)

0.weight f4 [64, 64]
0	0x3e975023	0.29553327
1	0x3eae08e4	0.33991158
2	0x3e4ff06d	0.20306559
3	0xbe67ec27	-0.22648679
4	0x3dacb8cf	0.08433687
5	0xbebaf9bd	-0.3651866
6	0xbe81af48	-0.2532904
7	0xbd81a466	-0.06330185
8	0xbdf6a2e4	-0.12042788
9	0xbd6ed86e	-0.058311872
10	0x3e098ef2	0.13433436
11	0x3e217084	0.15765578
12	0xbda00529	-0.07813484
13	0x3dcee5d9	0.10102434
14	0xbca37059	-0.019951032
15	0xbd7c8f81	-0.061660293
16	0x3dd961ad	0.10614333
17	0x3d8a16a8	0.067426026
18	0x3e58ed8f	0.21184371
19	0xbd8fad36	-0.07015459
20	0xbe88386b	-0.26605543
21	0xbedc20e3	-0.4299384
22	0xbdd40d11	-0.10354055
23	0x3cf591ab	0.029976686
24	0xbe192f7d	-0.14959522
25	0xbd8b905b	-0.06814643
26	0xbe4e5a65	-0.2015167
27	0xbd015fa4	-0.03158535
28	0xbdcfdd5f	-0.10149645
29	0x3e0dfee5	0.13866766
30	0x3e31021a	0.17285958
31	0xbdc746ad	-0.09730277
32	0xbd69739b	-0.056995016
33	0xbd5aa4b6	-0.053379737
34	0xbb8f5d96	-0.00437517
35	0xbce651b2	-0.028115127
36	0xbe24dfc9	-0.16100992
37	0x3d4973c3	0.049182665
38	0x3de65382	0.112463966
39	0x3ebb09b5	0.36530843
40	0xbed5d147	-0.41761228
41	0xbbd19c81	-0.0063968305
42	0xbe03f1e0	-0.12885237
43	0xbdc68a08	-0.09694296
44	0x3df17595	0.11790005
45	0xbe4d46b5	-0.20046504
46	0xbe1b12ab	-0.1514384
47	0xbe6164ea	-0.22011152
48	0xbcf54c30	-0.029943556
49	0xbe73f66c	-0.23824471
50	0xbe08d8cb	-0.1336395
51	0xbe6c4b00	-0.23075485
52	0xbd3aca3d	-0.045603026
53	0x3e56dc7a	0.20982543
54	0x3db96024	0.090515405
55	0xbe7a1cc0	-0.2442503
56	0xbed3b8f4	-0.41352046
57	0xbe13ca2c	-0.14432591
58	0xbe2dd97e	-0.16977498
59	0x3accf705	0.0015637582
60	0xbb3a7588	-0.0028451402
61	0x3d3e241d	0.04642116
62	0x3d976623	0.07392528
63	0xbb8a1ad5	-0.0042146244
64	0x3ec38e98	0.38194728
65	0xbe00f105	-0.12591942
66	0x3de7e3cc	0.11322746
67	0xbda73398	-0.081641376
68	0xbcef904f	-0.029243616
69	0xbe387d0f	-0.18016456
70	0x3e405c28	0.18785155
71	0xbe1eba84	-0.15500838
72	0x3de94537	0.11390155
73	0x3dbac2ae	0.091191635
74	0x3e61ca1d	0.22049756
75	0xbe945374	-0.2896992
76	0x3dbc197a	0.09184547
77	0xbcca44f4	-0.024691083
78	0xbe4cb6dc	-0.1999163
79	0xbe516c59	-0.20451488
80	0x3e24d8d5	0.1609834
81	0x3e18a3eb	0.1490628
82	0x3db8cd2e	0.0902351
83	0xbd49f0ec	-0.049302027
84	0xbb93e52f	-0.004513405
85	0xbe4f313e	-0.20233628
86	0x3e6773b1	0.22602727
87	0x3cf2cbd0	0.029638201
88	0x3dd5b170	0.10434234
89	0xbf15f06a	-0.5856997
90	0xbe94e86e	-0.2908358
91	0xbdccd553	-0.10001626
92	0xbd35b9dc	-0.044366702
93	0x3e174de5	0.14775808
94	0xbdf6d83c	-0.12052962
95	0x3dad29e5	0.084552564
96	0xbe2d8f43	-0.16949181
97	0x3d03e6f1	0.032202665
98	0x3ecb0a34	0.39656222
99	0x3e05da30	0.13071513
100	0xbe2be808	-0.16787732
101	0x3e46782f	0.19381784
102	0x3dd1e30a	0.102483824
103	0x3e1078b6	0.14108548
104	0x3d3119a8	0.04323736
105	0xbd848731	-0.06471098
106	0xbafe0527	-0.0019380198
107	0x3e452629	0.19252838
108	0x3d8db52d	0.06919322
109	0xbe0ae82f	-0.13565134
110	0xbdf89abe	-0.1213889
111	0x3e4fee26	0.2030569
112	0x3e1afd81	0.15135767
113	0xbd83e8e5	-0.064409055
114	0x3db00717	0.08595102
115	0x3c824c87	0.015905632
116	0x3db7c64a	0.089733675
117	0x3e794b10	0.2434504
118	0xbdd8f152	-0.10592903
119	0xbe974aa4	-0.29549134
120	0xbc6f70f4	-0.0146143325
121	0xbd9e1090	-0.07718003
122	0xbd8b4fc7	-0.06802326
123	0xbe301421	-0.17195179
124	0x3ec169b7	0.37775967
125	0x3e2835df	0.164268
126	0xbba64852	-0.005074539
127	0xbda7dec8	-0.08196789
128	0x3e2e456c	0.1701867
129	0xbe2d3cd6	-0.16917738
130	0xbde511f3	-0.11185064
131	0xbb521ade	-0.003205947
132	0x3db88b0e	0.090108976
133	0x3d611b41	0.054957632
134	0x3c99d477	0.018778069
135	0xbcccf142	-0.025017384
136	0x3df9f1d8	0.12204331
137	0x3ce9cb30	0.02853927
138	0x3d3e58a3	0.04647125
139	0x3d925810	0.07145703
140	0xbc07d7b2	-0.008291172
141	0xbe548054	-0.20752078
142	0xbbbcd579	-0.0057627526
143	0xbd83524c	-0.06412181
144	0xbc46f699	-0.012143754
145	0xbe0fdd08	-0.1404916
146	0xbe102362	-0.14075997
147	0x3d926a76	0.07149212
148	0xbed75fe3	-0.42065343
149	0xbca0dfb5	-0.019637922
150	0xbdd2572f	-0.10270535
151	0x3e430551	0.19044997
152	0x3da0d999	0.078540035
153	0xbe166f33	-0.14690857
154	0xbe344899	-0.17605819
155	0xbeaae2b6	-0.33376092
156	0xbe4b29f5	-0.19840224
157	0x3cd6d3c8	0.026224032
158	0x3d687ed0	0.056761563
159	0x3ac9e7eb	0.00154042
160	0xbd3415b6	-0.043966018
161	0xbe123b46	-0.14280424
162	0xbbc757bf	-0.006083458
163	0x3cd3b16c	0.025841437
164	0xbe3e594b	-0.1858875
165	0xbe897c75	-0.26852766
166	0xbdae081a	-0.08497639
167	0xbde988b9	-0.11403031
168	0xbd91da9f	-0.07121777
169	0x3a28232d	0.0006413933
170	0xbd79c6e8	-0.060980707
171	0xbd5f62db	-0.054537635
172	0xbde4425d	-0.1114547
173	0x3df029fc	0.11726758
174	0xbd57ba78	-0.052668065
175	0x3e9ce456	0.30642956
176	0x3d6b596a	0.05745832
177	0xbea5a8b1	-0.32355264
178	0xbe9c7b2e	-0.3056273
179	0xbb9b4a74	-0.0047391
180	0x3c0a3e5a	0.008437717
181	0xbe332ea6	-0.17498264
182	0x3e4e54bf	0.20149516
183	0xbea583d1	-0.3232713
184	0x3da61f57	0.08111446
185	0xbecdf966	-0.40229338
186	0x3d2562cc	0.040377423
187	0xbe1b38bd	-0.15158363
188	0xbd270924	-0.0407802
189	0xbe8e7dbe	-0.2783031
190	0x3d4b7e61	0.04968107
191	0x3d85cc88	0.06533152
192	0x3e4e01cd	0.20117874
193	0xbe9571a0	-0.29188251
194	0xbd82717f	-0.06369304
195	0xbc3766bc	-0.011193927
196	0x3d490447	0.049076345
197	0x3d39ad58	0.04533133
198	0x3e314bcb	0.17314069
199	0xbcd5d94f	-0.026104597
200	0x3cba17b1	0.022716375
201	0xbe0c892e	-0.13724205
202	0x3e318bdb	0.17338507
203	0xbdad525c	-0.084629744
204	0xbdf077e7	-0.117416196
205	0x3bacad59	0.005269688
206	0xbe04a5f6	-0.12953934
207	0xbd5cf5e9	-0.053945456
208	0xbde54a87	-0.111958556
209	0xbe2ebc4c	-0.17064017
210	0xbde2dbb5	-0.11077062
211	0xbcb39c83	-0.021925217
212	0xbc94bf9d	-0.018157775
213	0x3eabb770	0.3353839
214	0x3c03fa47	0.008055276
215	0x3ca86c51	0.020559462
216	0x3e8e7290	0.2782178
217	0x3d087917	0.033318605
218	0x3deff559	0.11716718
219	0x3d44171b	0.047873598
220	0xbe18876f	-0.14895414
221	0xbe9f8435	-0.31155553
222	0xbe86d048	-0.2633078
223	0xbd3cdec0	-0.04611087
224	0x3e89195c	0.2677716
225	0x3d9849ff	0.07435989
226	0x3d14927d	0.036272515
227	0x3e130f65	0.14361341
228	0xbd7e62b7	-0.06210586
229	0xbe641271	-0.2227266
230	0x3e5751f6	0.2102736
231	0xbe30bdca	-0.17259899
232	0xbd14b554	-0.03630574
233	0x3d4d30d7	0.050095405
234	0xbc33580c	-0.010946285
235	0xbd8e81e6	-0.0695837
236	0xbd2a5a60	-0.041590095
237	0x3de7b4a5	0.11313752
238	0x3e86aab2	0.26302105
239	0xbdfda989	-0.12385852
240	0xbe6413f3	-0.22273235
241	0xbc848b23	-0.016179627
242	0xbdb3e3ee	-0.087837085
243	0x3dee1181	0.11624432
244	0x3e5e8a6c	0.21732491
245	0xbcafd40f	-0.021463422
246	0x3e82755b	0.2548016
247	0x3ea07073	0.31335792
248	0xbe64c640	-0.22341251
249	0xbe7324c3	-0.23744492
250	0xbd5ecfff	-0.05439758
251	0xbd192304	-0.03738691
252	0x3d71548b	0.058918517
253	0xbed37537	-0.41300365
254	0x3d5f5895	0.054527838
255	0x3e00743d	0.12544341

0.bias f4 [64]
0	0x3d1bb210	0.03801161
1	0x3d7aaa09	0.061197314
2	0xbe94dfb2	-0.29076916
3	0x3cb115e7	0.02161689
4	0x3d5b83d4	0.053592518
5	0x3c9c1851	0.019054564
6	0xbde59dd9	-0.11211748
7	0xbd6b3e0b	-0.057432216
8	0xbc07ec71	-0.008296118
9	0x3d84cdb0	0.06484544
10	0xbcca053d	-0.024660701
11	0x3dfc6fd4	0.12326017
12	0x3ae7e0f5	0.0017690944
13	0x3e6b65eb	0.22988097
14	0x3e073512	0.13203838
15	0x3d87182c	0.06596407
16	0xbd121fa3	-0.035674702
17	0x3dd538b5	0.10411207
18	0xbdb257b7	-0.087081365
19	0xbccbc306	-0.024873268
20	0xbd62ab13	-0.05533893
21	0xbd06b427	-0.03288665
22	0x3e3c2ced	0.18376513
23	0xbc073577	-0.008252493
24	0xbc6b3420	-0.014355689
25	0x3dec9808	0.11552435
26	0x3c162914	0.009165067
27	0xbb86e5a6	-0.0041167317
28	0xbc5d42be	-0.013504682
29	0xbc880941	-0.016605975
30	0xbd54714c	-0.05186586
31	0xbcc5b161	-0.024132432
32	0x3d19df48	0.037566453
33	0x3d248058	0.04016146
34	0xbcaa7dbb	-0.020811906
35	0x3deb7e13	0.11498656
36	0x3d33bb9a	0.043880083
37	0x3d23dfeb	0.040008467
38	0x3d35a6ff	0.044348713
39	0x3d33b6d1	0.04387552
40	0x3c8d97b8	0.01728426
41	0xbda453d1	-0.08023799
42	0x3bcf1bc9	0.006320451
43	0x3d9ca17f	0.076479904
44	0x3d3f9c67	0.046780016
45	0x3cb268a1	0.021778407
46	0xbcaa4a17	-0.020787282
47	0x3da06d62	0.07833363
48	0x3cd52017	0.026016278
49	0xbc97ce5c	-0.018531017
50	0x3e2ac7f9	0.16677846
51	0x3d38f12b	0.04515187
52	0xbcc32305	-0.02382041
53	0x3db7b8f4	0.08970824
54	0x3d9b1905	0.075731315
55	0x3d261bcd	0.040553857
56	0x3b2612d5	0.0025340815
57	0x3c4f5d07	0.012656457
58	0xbd99b8bc	-0.075059384
59	0x3d80501a	0.06265278
60	0xbc80d27d	-0.015725369
61	0x3d5cf1f0	0.053941667
62	0xbd6f75d1	-0.058461968
63	0xbdc701cd	-0.0971714

2.weight f4 [64, 64]
0	0x3d5e86ec	0.05432789
1	0x3dd1ba97	0.10240667
2	0xbe701e36	-0.23449025
3	0xbdb59580	-0.088664055
4	0x3e704719	0.23464622
5	0x3d75f7fc	0.06005095
6	0x3d4238b1	0.047417346
7	0xbd362264	-0.04446639
8	0xbe32058c	-0.17384928
9	0xbe4d6b74	-0.20060521
10	0xbe2e4480	-0.17018318
11	0x3c8b04db	0.016970089
12	0xbe1322d5	-0.14368756
13	0x3e21cc61	0.1580062
14	0x3cd162aa	0.025559742
15	0xbd33c9cd	-0.043893624
16	0x3e6ca7c4	0.23110873
17	0xb80ba04a	-3.3289463e-05
18	0x3e1f4d7f	0.15556906
19	0x3d8e1314	0.069372326
20	0xbd4dd73b	-0.050254088
21	0x3de7f01c	0.11325094
22	0x3cc774e6	0.024347734
23	0x3de2ef04	0.11080745
24	0xbd24ef45	-0.040267248
25	0x3e3d1432	0.18464735
26	0xbdd89675	-0.105755724
27	0xbd9a5e54	-0.07537523
28	0xbd9dcef1	-0.077054866
29	0x3e0c8fc1	0.13726713
30	0xbcf2f6e7	-0.029658748
31	0x3cba2efa	0.022727478
32	0x3e52c87d	0.20584293
33	0x3c9fe935	0.019520381
34	0x3e223d1d	0.15843625
35	0x3df98158	0.121828735
36	0x3e6c38d8	0.23068559
37	0xbdbe82e1	-0.09302307
38	0x3d1c46b5	0.03815337
39	0xbcb7a8c5	-0.022419343
40	0xbdea24c7	-0.11432796
41	0xbd7d65a5	-0.061864514
42	0x3e1a41bc	0.15064138
43	0x3d1ec2a3	0.03875984
44	0x3d9915ad	0.074748375
45	0x3e9843a7	0.29739115
46	0x3d41decb	0.047331613
47	0xbe9fa779	-0.3118246
48	0xb942fe9e	-0.00018596134
49	0xbccf97b7	-0.025340898
50	0xbbabc13d	-0.0052415417
51	0xbe31b39f	-0.17353676
52	0xbe40f285	-0.18842514
53	0x3d9ed8b8	0.077561796
54	0xbdd9141f	-0.10599541
55	0xbd05a7c9	-0.032630716
56	0x3d44f079	0.048080895
57	0xbcad8ea8	-0.021186188
58	0x3d10e1e7	0.035371687
59	0x3da74a70	0.08168495
60	0xbe4633b6	-0.19355664
61	0xbcfab716	-0.03060488
62	0xbe0b9ab7	-0.13633238
63	0x3d0e328c	0.034716174
64	0xbe0d6bd3	-0.13810663
65	0x3c6537e3	0.013990375
66	0xbd773891	-0.06035668
67	0x3a78b8ac	0.00094879675
68	0xbdef5f92	-0.116881505
69	0x3dea5391	0.1144172
70	0xbe130f56	-0.14361319
71	0xbdf3eb52	-0.11910118
72	0x3dafdeef	0.08587443
73	0x3e06f3b5	0.13178904
74	0xbe7f3826	-0.24923763
75	0x3e277c3f	0.1635599
76	0xbe14bce4	-0.14525181
77	0x3ed9f7e1	0.4257193
78	0xbe8fb898	-0.2807052
79	0xbd6859fa	-0.056726433
80	0x3deebe70	0.11657417
81	0xbdb414c6	-0.08793025
82	0xbc984d92	-0.018591676
83	0xbe111cd6	-0.14171156
84	0xbd99a836	-0.07502787
85	0xbeaedeb5	-0.34154287
86	0xbd7b8643	-0.06140734
87	0x3e38a643	0.18032174
88	0xbdfc54d7	-0.123208694
89	0x3e12e2a1	0.14344265
90	0xbdc34509	-0.09534652
91	0xbd970fda	-0.0737607
92	0x3d471092	0.048599787
93	0x3be7a11c	0.0070687663
94	0xbdc72a1a	-0.09724827
95	0x3e1b45d9	0.15163364
96	0xbdd7540c	-0.105140775
97	0x3c009d2c	0.007849973
98	0x3e00065a	0.12502423
99	0xbd77cc38	-0.060497493
100	0x3eb83b8a	0.35982925
101	0xbdcdef22	-0.100553766
102	0x3db50e8f	0.088406675
103	0x3e506dea	0.20354429
104	0x3d875199	0.066073604
105	0x3dcb57d6	0.09928863
106	0x3caaaa1e	0.020833071
107	0xbda23f04	-0.079221755
108	0x3ea93f8d	0.33056298
109	0xbe74ea8a	-0.23917595
110	0x3dd23f64	0.10265997
111	0x3d1a042a	0.037601627
112	0x3dde7931	0.10862959
113	0xbe14a123	-0.14514594
114	0x3e954f58	0.29162097
115	0x3cf07062	0.029350463
116	0xbe7a8b47	-0.24467193
117	0x3e10d9bd	0.1414556
118	0xbe2ce849	-0.16885485
119	0xbc414765	-0.011796807
120	0x3ea5cee7	0.32384416
121	0x3db3dd64	0.08782461
122	0xbe7a91ef	-0.24469732
123	0x3de61507	0.112344794
124	0xbd4e24ad	-0.050327946
125	0xbe801d1f	-0.25022218
126	0xbe938287	-0.28810522
127	0x3e262a8d	0.1622717
128	0x3d9eba44	0.07750371
129	0x3de2ea0a	0.11079796
130	0xbd936b8d	-0.07198248
131	0xbd811d43	-0.06304409
132	0x3c5253d8	0.012837373
133	0x3e8d99dc	0.27656448
134	0xbe161e90	-0.14660096
135	0x3d7e31c7	0.06205919
136	0x3d0be8cd	0.034157563
137	0x3dadc900	0.08485603
138	0xbd2de126	-0.042451046
139	0x3da7413b	0.081667386
140	0x3dd1f39a	0.102515414
141	0xbd4707bf	-0.04859137
142	0x3cff2c43	0.031149035
143	0x3e4b58dd	0.19858117
144	0xbd65b938	-0.05608484
145	0xbe1f35e3	-0.155479
146	0x3dc8abb5	0.097983755
147	0xbec839b7	-0.39106533
148	0x3dcdc084	0.10046485
149	0xbde519da	-0.111865714
150	0x3d2cad55	0.04215749
151	0xbe9cc300	-0.30617523
152	0x3e2f3923	0.1711164
153	0x3e44e7e8	0.1922909
154	0xbe037a66	-0.1283966
155	0xbb734121	-0.0037117677
156	0xbdf8757f	-0.121317856
157	0x3de8ab9a	0.113608554
158	0x3de52673	0.11188974
159	0xbd8c76d5	-0.06858603
160	0x3dae0a97	0.084981136
161	0x3e0f449c	0.13991016
162	0x3dd583d3	0.10425534
163	0xbe2948b1	-0.16531636
164	0x3e068f49	0.13140596
165	0xbd15c153	-0.03656132
166	0xbcbc58ab	-0.022991499
167	0xbdf31622	-0.11869456
168	0xbdd64866	-0.10463028
169	0x3ae434a5	0.0017410709
170	0x3dfb8ddf	0.12282919
171	0x3d8337b8	0.06407112
172	0x3d26f3a2	0.04075969
173	0x3c9d21d1	0.019181164
174	0x3cba9e5c	0.02278059
175	0x3bc5383a	0.0060186656
176	0x3e27cf7a	0.1638774
177	0xbeb028e9	-0.34406212
178	0xbd995df7	-0.074886255
179	0x3db65f75	0.08904926
180	0x3e017e2c	0.12645787
181	0xbd09c841	-0.033638243
182	0xbd909049	-0.0705877
183	0xbcff88b1	-0.03119311
184	0xbc334802	-0.010942461
185	0xbdc57f34	-0.09643403
186	0x3e2029fe	0.15641019
187	0x3dcdf5e2	0.10056664
188	0x3e5c547b	0.21516602
189	0x3e018b61	0.12650825
190	0x3b82505c	0.0039768647
191	0x3d0edb89	0.034877334
192	0xbe157898	-0.14596784
193	0xbeb46a28	-0.3523724
194	0xbe82ffba	-0.2558573
195	0xbd25489c	-0.04035245
196	0xbe08b285	-0.1334935
197	0xbdd9417b	-0.106081925
198	0xbd2a6225	-0.041597504
199	0xbdc112ed	-0.09427438
200	0x3ec616a1	0.3868914
201	0xbd8691ba	-0.06570764
202	0xbd919971	-0.07109345
203	0xbe519588	-0.20467198
204	0x3e1073d9	0.14106692
205	0xbe99e163	-0.3005477
206	0x3e31ebb5	0.17375071
207	0xbe18554d	-0.1487629
208	0x3e6c8e77	0.23101221
209	0x3b17c316	0.0023157052
210	0x3dd3aee3	0.10336091
211	0x3e1f8f47	0.15582
212	0xbe6b2d0d	-0.22966404
213	0x3e5becc9	0.21477045
214	0x3cfb833a	0.030702222
215	0xbe1f654a	-0.15565982
216	0x3c8930db	0.016746929
217	0xbd24d4fa	-0.040242173
218	0x3d35719a	0.044297792
219	0xbdf78367	-0.1208561
220	0x3de58d05	0.11208538
221	0x3dffe44a	0.124947146
222	0x3e486f69	0.1957375
223	0xbdb4fae7	-0.08836918
224	0x3dad7dd8	0.084712684
225	0x3c72afb4	0.014812399
226	0xbe5cca21	-0.21561481
227	0xbdc24276	-0.09485333
228	0xbe50b1b5	-0.2038029
229	0x3da552b3	0.08072414
230	0xbe01a905	-0.12662132
231	0x3c537d8e	0.012908353
232	0xbe631d1d	-0.22179075
233	0x3e1229f8	0.14273822
234	0x3d9ae58d	0.075633146
235	0x3de7d0c1	0.113191135
236	0x3b048c04	0.0020225057
237	0xbe9ca631	-0.30595544
238	0x3eaa11f2	0.33216816
239	0x3de1fd4a	0.11034639
240	0x3c247d84	0.010039691
241	0x3e4ba056	0.19885382
242	0xbda07e18	-0.078365505
243	0x3d9a2ae4	0.07527712
244	0x3d349260	0.044084907
245	0x3d842e1f	0.064541094
246	0xbe043893	-0.12912206
247	0xbe22abf9	-0.15885915
248	0x3e2538f2	0.16135004
249	0xbc7645c1	-0.015031279
250	0x3e679619	0.22615851
251	0x3c4a9a32	0.012365865
252	0x3d64b9a7	0.055841114
253	0x3dc2b8e4	0.09507921
254	0x3e59373f	0.21212481
255	0x3cd29fce	0.025710966

2.bias f4 [64]
0	0x3b80b849	0.0039282185
1	0x3dfc1ccf	0.12310182
2	0x3c40d611	0.011769787
3	0x3cce2ba4	0.025167294
4	0xbc4ba7ee	-0.012430174
5	0x3cb37f5d	0.021911317
6	0xbc20b676	-0.009809127
7	0x3b8ef619	0.004362833
8	0x3d14264b	0.03616933
9	0x3d02d798	0.031943887
10	0x3e2ed9ba	0.17075244
11	0xbdab2757	-0.08357113
12	0x3c0ddb97	0.008658311
13	0x3d15196e	0.036401205
14	0x3d1f34de	0.038868777
15	0x3e042a84	0.12906843
16	0x3de567f6	0.112014696
17	0x3dae7b65	0.085196294
18	0xbaf6c0e7	-0.00188258
19	0xbe275ca1	-0.16343929
20	0xbd4f96a8	-0.050680786
21	0x3dc638a6	0.096787736
22	0x3c79db1e	0.0152499955
23	0xbcdf8646	-0.027285706
24	0x3d108a2f	0.035288032
25	0xbd9bc83d	-0.07606552
26	0xbde936ae	-0.113873824
27	0xbd49f3e3	-0.049304854
28	0x3d0b09f3	0.033945035
29	0xbc917bf5	-0.017759303
30	0xbaddb508	-0.0016914913
31	0x3d89a224	0.06720379
32	0x3cacd8a8	0.021099404
33	0xbd0cb00d	-0.034347583
34	0xbd39a28d	-0.045321036
35	0x3c1eb755	0.009687264
36	0x3da7e104	0.08197215
37	0xbd1dba25	-0.0385076
38	0x3df79642	0.12089206
39	0xbd596d5f	-0.05308282
40	0x3c4b251f	0.012398987
41	0xbc980959	-0.018559145
42	0xbde10ce2	-0.10988785
43	0xbe058ddc	-0.13042396
44	0xbc8605b6	-0.016360145
45	0xbd9643f1	-0.073371775
46	0xbce1c266	-0.027558517
47	0x3cf16505	0.029467115
48	0x3dcc821a	0.099857524
49	0x3da8717b	0.0822477
50	0x3da917bc	0.0825648
51	0x3d7845bb	0.060613375
52	0xbde25852	-0.11052002
53	0x3e15f1e0	0.14643049
54	0x3cb59f60	0.022170722
55	0xbd66dac9	-0.056360994
56	0xbb13eb9a	-0.002257085
57	0x3dcc2bdf	0.09969305
58	0xbdaef2c3	-0.08542397
59	0x3ce8d990	0.028424054
60	0xbd3b047b	-0.04565857
61	0xbc2f586a	-0.010702232
62	0xbd55c676	-0.05219122
63	0xbd4bc599	-0.04974899
