dir_save/we0_critic_linear_-160.pth (torch, 1443 bytes, 1 tensors)

weight f4 [1, 64]
000000 11 ec a2 40 4a c8 a5 3f 51 27 08 c0 ee 38 de 3f
       5.0913167 1.2951748 -2.1273997 1.7361124
000010 ff 0d bd c0 8f 46 94 bf 23 4c 07 40 ad fd 81 bf
       -5.9079585 -1.1584033 2.114022 -1.0155541
000020 fe cb bd 40 00 a3 9a 3f e1 52 a5 c0 df d5 bb 40
       5.9311514 1.2080994 -5.166367 5.8698573
000030 25 49 58 c0 da 9a ca bf 66 a9 39 3f c1 d9 0c 40
       -3.3794644 -1.5828507 0.72524107 2.2007906
000040 d1 49 3e bf a6 4b 90 40 9b fa c9 3f d6 19 b7 c0
       -0.74331385 4.5092344 1.5779604 -5.721904
000050 c2 8b f4 3f f1 c8 bd 40 a3 36 48 c0 57 49 96 c0
       1.9105151 5.930779 -3.1283348 -4.6964526
000060 7e 32 9b c0 09 29 87 40 f3 29 bc c0 1f 8d 29 c0
       -4.8499136 4.223759 -5.8801208 -2.6492383
000070 3b 77 4d c0 6b 4d 93 c0 e5 eb 90 40 0a 1e b9 c0
       -3.2104023 -4.6032004 4.5287957 -5.784917
000080 55 cc c0 40 dc 77 b6 c0 0f cf 98 3f a9 46 bb 40
       6.024943 -5.7021313 1.1938189 5.8523755
000090 40 20 83 3f d4 80 2f 40 09 74 66 c0 8f 09 8f bf
       1.0244217 2.742238 -3.6008322 -1.1174792
0000a0 1f 93 b8 c0 6f 1e bc c0 25 3d bb c0 b3 da f2 3f
       -5.767959 -5.878715 -5.851214 1.8972992
0000b0 f5 1c 2d 40 19 fa 68 40 be e2 bf c0 b7 42 8c c0
       2.7048924 3.6402647 -5.9964285 -4.383144
0000c0 20 81 ba 40 48 d7 3f c0 76 53 81 c0 d8 f5 b9 40
       5.8282623 -2.9975147 -4.041438 5.81126
0000d0 72 36 b8 40 0c 48 bf bf 71 fa 42 c0 57 f4 85 c0
       5.756646 -1.4943862 -3.0465357 -4.1860766
0000e0 1a cb b7 40 cd 3d be 40 6c bd b8 40 5a 36 bd 40
       5.7435427 5.945044 5.773123 5.9128847
0000f0 38 6b b5 40 b0 81 a0 40 80 a4 8a c0 74 c2 bd bf
       5.669338 5.015831 -4.3325806 -1.4824967
