dir_save/we0_critic_-160.pth (torch, 35023 bytes, 4 tensors)

0.weight f4 [64, 64]
000000 50 78 17 bf ec 2d 0d 3f 91 5a 4a 3f 2b fe 0a be
       -0.5916796 0.55148196 0.79044443 -0.1357352
000010 f1 c8 bd 3f ab 1c 6f be ac ba 86 3b 70 ab df 3e
       1.4826947 -0.2335078 0.0041116085 0.43685484
000020 c6 07 86 bf 90 5f 73 bd bf 45 15 bd 16 c7 48 be
       -1.0471122 -0.059417307 -0.03644347 -0.19607195
000030 a4 a9 ca be d9 fb b4 3e 9a 84 f0 3f 87 95 8d bd
       -0.3958255 0.35348395 1.8790467 -0.06913286
000040 88 ff 6e bd 06 d3 62 3e b4 fc bf be 03 77 04 bf
       -0.058349162 0.22150812 -0.37497485 -0.517441
000050 19 ea 3c bf 33 3f 91 bd aa a9 00 bc 5d 15 46 bf
       -0.73794705 -0.070921324 -0.007852951 -0.7737635
000060 ea 9e d9 3e 5f c4 87 bf f9 a7 84 be 7a c7 f3 be
       0.42504054 -1.0606803 -0.25909403 -0.47613126
000070 b9 38 7a 3e 20 07 ed bd cb 6d be bd 2a b2 51 3f
       0.244357 -0.115736246 -0.09298285 0.8191248
000080 0f 0b 56 3e 67 c3 db be 50 aa de be bd 17 f0 be
       0.20902656 -0.42922518 -0.43489313 -0.4689311
000090 d1 2c 84 3f c3 2f 8f 3e e2 e2 f3 3e 29 1a a3 3e
       1.0326177 0.27966127 0.47634035 0.31855896
0000a0 18 6d e5 be bf c8 1d 3e 5e 1b 79 3e 77 fa a2 3f
       -0.44809794 0.1540861 0.24326846 1.2732686
0000b0 47 9b 8a 3e 9d ab 2f 3e 11 ba f9 bd e6 95 e2 3d
       0.27071592 0.17155309 -0.121936925 0.11063747
0000c0 7c f8 a5 3f e5 d1 be 3e 62 d1 85 bf cf 6e 4d bd
       1.2966456 0.37269512 -1.0454524 -0.050154503
0000d0 c6 b2 44 3d 92 fb a2 bf 5c be bb 3c ad b2 03 3f
       0.048022054 -1.2733023 0.022917919 0.5144451
0000e0 7e d6 5c be 48 9e 2d bf f1 13 f5 be 72 ba d3 be
       -0.21566197 -0.67819643 -0.47866777 -0.41353184
0000f0 99 09 3b bf b2 86 ae be bb 82 95 be db 0c ed be
       -0.7306152 -0.3408714 -0.29201302 -0.4629887
000100 af 3e 58 bf 1c ac c3 bd f8 dc 2e 3f 1b e6 16 3f
       -0.8447065 -0.09554312 0.6830592 0.58944863
000110 b0 2e 68 bd a8 7b 44 3d 71 80 5b 3e bc 1c 53 bc
       -0.05668515 0.04796949 0.21435715 -0.012885269
000120 bf 94 1f bf e8 98 56 bf e6 fc 2a 3f 76 d8 aa be
       -0.62336344 -0.83827066 0.6679214 -0.33368272
000130 24 8b 00 bf 95 17 e3 3e 58 15 46 bf 5e 3d 14 be
       -0.5021231 0.4435393 -0.7737632 -0.14476535
000140 c8 74 7a 3d 53 f2 5b 3e 48 6e 71 bf de 5f df 3e
       0.061146528 0.21479158 -0.943089 0.43627828
000150 99 50 a6 3e 70 f5 7a be c9 4c 11 3f 6c 26 02 bf
       0.32483366 -0.2450769 0.5675779 -0.5083988
000160 75 77 fd 3c 97 1c 50 3e 3d f5 13 be 2c f7 9a bd
       0.03094075 0.20323406 -0.1444902 -0.075666755
000170 49 2e 2e bd af f2 a6 be 99 35 ad be 54 96 81 be
       -0.04252461 -0.32607028 -0.33829954 -0.25310004
000180 ce 8f 95 3e 4e 6b 60 3e 3b ce 89 3e 72 aa e4 3c
       0.29211277 0.21915933 0.26915154 0.027913306
000190 46 87 7f be e2 dc f6 be 9e 2b da 3e 40 c3 9a be
       -0.24953946 -0.48215395 0.42611402 -0.3022709
0001a0 50 14 9e 3c 88 31 b5 3e 91 af a8 3e 06 84 a6 be
       0.019296795 0.35389352 0.32946447 -0.325226
0001b0 ba 8e 10 3f 56 2f 18 3e 41 3d 3d 3f 21 40 f1 be
       0.56467783 0.14861807 0.7392159 -0.4711924
0001c0 65 b5 26 3e 16 d6 a1 3f 56 ff dc be 55 89 4e 3f
       0.16280134 1.2643459 -0.43163556 0.806783
0001d0 a7 f8 6d be 61 8a 27 3e e1 a7 56 3f 7f b7 b9 3f
       -0.23239385 0.16361381 0.8384991 1.4509124
0001e0 ee 9f 81 be 86 69 5e 3f 2b e2 ea bd 10 13 32 3e
       -0.2531733 0.86879766 -0.11468919 0.17390084
0001f0 52 3d 37 bf df f6 e7 3e d3 be f8 be b5 b9 32 be
       -0.7157794 0.45305535 -0.48583087 -0.17453654
000200 e1 76 71 be 49 19 62 3f 98 f5 81 bf 75 47 af 3e
       -0.23580505 0.8831983 -1.0153074 0.34234205
000210 27 3a 11 bf b0 1b a0 3e a6 6e 43 3f e5 af 02 bf
       -0.5672936 0.31271124 0.7634071 -0.51049644
000220 cb 08 8a bf 90 b3 3d 3e 63 43 29 3c a5 8f c3 3e
       -1.0783933 0.18525529 0.010331008 0.3819553
000230 14 a0 56 3f d6 b9 61 bd ac db 82 be f8 3e d3 be
       0.8383801 -0.055108868 -0.2555822 -0.4125898
000240 f7 61 5c be d9 ad 94 bc a1 f8 33 bf cd ac 1b 3f
       -0.21521746 -0.018149303 -0.7030125 0.6081055
000250 94 08 60 3f ed 4b 9b 3e 70 0b 5c 3f 55 9a a2 be
       0.8751309 0.30331364 0.8595495 -0.3175837
000260 4a 82 8e be 02 bb c1 be 5e 29 22 3f ec 89 41 be
       -0.27833778 -0.37837988 0.6334437 -0.1890027
000270 79 fb 61 3e df 51 14 be dd 46 23 3f 18 77 9c 3e
       0.22068585 -0.14484356 0.63780004 0.3055961
000280 c9 19 8c bf 2d d2 2b 3f 31 38 ee 3e 31 cc 27 3f
       -1.0945369 0.6711758 0.46527246 0.65545946
000290 1a 2d af bd 77 eb 8b bf 3b 7c e9 3d df af 74 3e
       -0.08553524 -1.0931233 0.11400648 0.23895214
0002a0 a3 cf 8e 3d b8 89 ec 3e e3 0f ae bd f9 cd d0 3d
       0.06973197 0.4619882 -0.08499124 0.10195536
0002b0 f4 e4 34 bf 5e a2 32 bf 4c f5 cf bd 05 b0 c6 be
       -0.70661855 -0.69779 -0.101542085 -0.38806167
0002c0 81 3f 8c bc a4 45 16 bf 55 63 b8 be 76 b0 55 3e
       -0.017120125 -0.58700013 -0.36013284 0.20868096
0002d0 37 0d 41 3e 61 70 b8 be dd 86 1a 3e 2c f3 8f 3e
       0.18852697 -0.36023238 0.15090509 0.28115213
0002e0 b3 83 1d be 58 91 3f bf 5f 88 ce bd d1 e3 ed 3e
       -0.1538227 -0.7483115 -0.100846045 0.46462873
0002f0 d2 c1 53 3f a3 49 65 be b0 b6 df 3d 2a a5 e3 3e
       0.8271762 -0.22391371 0.10923517 0.44461948
000300 7f c2 2d bd c9 c2 3e 3f 55 ef e2 bc c1 bf 2d bf
       -0.042421814 0.7451597 -0.027702013 -0.6787072
000310 ba 11 39 be 62 1b 1e 3e 80 d1 c7 be 49 c9 e9 bc
       -0.18073168 0.15440133 -0.39027023 -0.028538363
000320 33 d3 0c 3f e8 27 50 bf b8 e9 08 bf d4 e9 1c bf
       0.55009764 -0.8131089 -0.53481627 -0.61294293
000330 c6 fe cc 3e 94 89 23 3d 08 0a 80 3f dc 11 6c 3f
       0.40038127 0.039926127 1.0003061 0.9221475
000340 01 59 7b bf 95 38 99 3e f8 81 ee 3e c3 7d ed be
       -0.98182684 0.2992598 0.46583533 -0.4638501
000350 86 98 ba be 80 29 b8 3f cd 7a 3a be f0 7b 5a bf
       -0.3644449 1.4387665 -0.18210907 -0.85345364
000360 cc 6e 42 3e 82 35 95 bf 1e e8 80 be 53 cc b3 3e
       0.18987578 -1.1656954 -0.2517709 0.35116825
000370 44 4c 0b 3e af e2 46 be 0d b3 88 bf 0f ed 3a 3f
       0.13603312 -0.1942241 -1.0679642 0.7301797
000380 91 7c c2 3e dd ec 0d be 6d 6a 1e be b3 c0 b7 be
       0.37985662 -0.13859887 -0.15470286 -0.35889205
000390 6c 4e fe 3e 54 fd 1e 3e 3a e9 5d 3d b3 10 d3 be
       0.49669206 0.15526325 0.0541775 -0.41223678
0003a0 b4 fe e2 be 0e 2d 1b be d2 bf 1b 3e e2 d9 24 3f
       -0.44334948 -0.15153906 0.15209892 0.6439496
0003b0 9b f9 56 3f 15 bf c0 3e 04 75 94 be 6b ba 3e bd
       0.8397462 0.37645784 -0.28995526 -0.0465645
0003c0 83 35 af 3e 1e a8 26 3d e9 80 b7 be 69 f6 26 be
       0.34220514 0.040687673 -0.35840538 -0.16304936
0003d0 ab 8d b2 bc 8d 3d 58 bf cd ea da be ea 20 8f 3e
       -0.021796068 -0.8446892 -0.42757264 0.279548
0003e0 2e 5d b7 bd 31 f7 e7 be 48 3c 3c be 79 de 13 3e
       -0.089533195 -0.4530578 -0.1838237 0.14440335
0003f0 09 50 1a bd 2f 50 59 bf f6 84 16 be 6b 58 1a 3f
       -0.037673984 -0.84887975 -0.14699158 0.60291165

0.bias f4 [64]
000000 0c 72 92 be b9 60 95 3e 16 fb 2b 3e 8b 69 3d 3e
       -0.28602636 0.29175356 0.16795 0.18497293
000010 bc 95 47 3e fa be 9a 3d 35 c5 f2 bd f2 37 b6 3e
       0.19490713 0.07555957 -0.118540205 0.35589558
000020 53 35 b1 3e 4a 7e bf be 5a f2 41 be 8d 18 44 be
       0.34610996 -0.37401038 -0.18940106 -0.1914999
000030 2f 78 87 3b 45 97 9d 3e c2 a2 4e be a8 a4 8c be
       0.0041342 0.30779472 -0.20179275 -0.27469373
000040 1f 3a 82 3e b6 f8 f0 be 5c 8d c1 3d 7b 52 2f 3b
       0.25434968 -0.4706475 0.0945079 0.0026752043
000050 88 66 c0 3a e4 61 81 3d fc 38 12 3e 1f 59 29 be
       0.0014678994 0.06317499 0.1427955 -0.16537903
000060 19 fb 0f 3f 5e 3c d5 bd ee 68 2b bf 51 55 e8 3d
       0.5624252 -0.10411905 -0.66956985 0.11344398
000070 e8 34 ea 3e e3 e9 0c 3f 3a 70 31 be 4b 29 f1 3d
       0.4574349 0.5504438 -0.17327967 0.11775454
000080 5b 4e 6f be e4 9c e7 bd 3e a1 a1 be 84 ef 01 3f
       -0.23369734 -0.113092214 -0.3156833 0.50756097
000090 52 96 0c 3e aa 28 8e 3e 49 4e 63 be e9 50 88 bd
       0.13729218 0.277654 -0.22197832 -0.066560574
0000a0 e9 51 93 be 7f 59 65 3e 19 a5 c0 be 7b dd 5e bd
       -0.2877343 0.22397421 -0.3762596 -0.05441044
0000b0 44 5d 8c be 3c 49 19 bd d6 4f b9 3e 69 1a b1 3e
       -0.27414906 -0.037423357 0.36193722 0.34590462
0000c0 b3 71 38 be 6c 72 16 be bd 89 5c be b3 70 73 be
       -0.18012123 -0.14692086 -0.21536918 -0.2377346
0000d0 6a 7c 9d 3d 94 20 b3 be 38 84 4a 3e 52 8c 68 be
       0.07689746 -0.34985793 0.19777 -0.22709778
0000e0 5e 6d 2d 3e 77 7c 3f bf b3 71 69 3e 30 6f 0c bf
       0.16936252 -0.74799293 0.22797279 -0.5485716
0000f0 3c 3f d4 bd 7d f5 5c be aa 18 b6 be 8f 0d 11 3d
       -0.103636235 -0.21578021 -0.35565692 0.03541332

2.weight f4 [64, 64]
000000 6a aa 9c 3d ee 4a ef bd 24 08 e1 3e ce fa 3b 3d
       0.076496914 -0.116842136 0.43951523 0.045893483
000010 e5 c3 ba 3d 2b dc 9e be 15 54 27 3e 06 e8 92 3e
       0.09119395 -0.3102735 0.16340668 0.28692645
000020 52 c1 c4 be 1b c3 36 3e c7 a3 e0 3c 4b 27 44 be
       -0.38428742 0.17847864 0.027421845 -0.19155614
000030 0d 7d 21 3f 4c 45 16 3d e0 39 4f bf 90 08 57 be
       0.6308144 0.03668718 -0.80947685 -0.2099936
000040 23 1c 3f be 59 c1 12 3f 41 5d 96 3e f2 01 7f 3f
       -0.18663077 0.57326275 0.29368022 0.99612343
000050 cb fb b8 be f6 f7 cd 3e 83 2e bb 3e 04 bc 1b 3e
       -0.36129603 0.40228242 0.36558923 0.15208441
000060 72 23 e2 bd 82 06 66 bf 58 71 10 3f 6a df 39 3f
       -0.11041917 -0.8985368 0.5642295 0.7260653
000070 8c 23 5a 3f d3 92 a8 3e 1a 22 0e bf be 23 d1 3e
       0.8521049 0.32924518 -0.55520785 0.40847582
000080 b5 61 01 be d4 cc b7 3c 2a 1c 91 3d 82 f1 1d 3f
       -0.12634929 0.022436537 0.0708545 0.61696637
000090 f1 4c c8 3c 21 3e 88 be c4 ff ae 3e 8d 7b 31 3f
       0.024450751 -0.266099 0.3417951 0.6932915
0000a0 db e3 8f be c0 e2 3c 3f 9d d8 30 bf 0e 64 af 3e
       -0.28103527 0.73783493 -0.69080526 0.34256023
0000b0 a2 91 67 3f a8 d9 5a bf 1f a8 f4 be 3b 35 30 3e
       0.90456593 -0.8548837 -0.47784516 0.17207806
0000c0 ca ed 75 be 1e ea 2e 3e 9a b0 24 3d 1c 0c 9f be
       -0.2401649 0.17081496 0.040207483 -0.31063926
0000d0 42 bf c8 3d 9f 91 da be 09 44 0c bf ef 5a 18 bf
       0.098021045 -0.42689225 -0.54791313 -0.59513754
0000e0 ed 61 e3 3e 09 3c 3a bf 50 5d a0 bc bd 11 26 3f
       0.4441065 -0.72747856 -0.019575745 0.64870816
0000f0 c7 f5 13 be 15 4b 11 be 25 8c 56 bf 45 da f9 bd
       -0.14449225 -0.14188798 -0.83807594 -0.12199835
000100 c8 f1 f5 be d6 be 9f bf dd 99 16 3e 0c 25 15 3e
       -0.48036027 -1.2480114 0.14707132 0.14564914
000110 34 d8 82 3f 39 f1 7d 3e a4 77 13 3f 4d 80 5d 3e
       1.022223 0.2479905 0.5760443 0.21630974
000120 88 35 ac bf a0 ae c5 3e 40 8a 5b bf 40 d6 27 3f
       -1.3453836 0.3860979 -0.8575783 0.65561295
000130 fc 41 8d 3e 93 59 00 3f 4e 46 6d 3d d2 bb 00 3f
       0.27589405 0.5013668 0.057928376 0.5028659
000140 93 cb 03 be 36 78 3f be bc c4 12 3f c2 14 5c bf
       -0.12870626 -0.186982 0.5733144 -0.85969174
000150 a0 88 40 bf 44 72 95 3e 11 f1 13 be 0d 87 54 3f
       -0.75208473 0.2918874 -0.14447428 0.8301857
000160 9f 43 5d bf cf d6 1d be 86 28 ac 3f 30 05 8c 3f
       -0.86431307 -0.15413974 1.3449867 1.0939083
000170 86 19 ae be 48 d5 71 3f ff cc 23 bf 7e 5a 4c 3f
       -0.34003848 0.94466066 -0.63984674 0.7982558
000180 11 af e0 3f b4 0d d5 3d 7f e5 55 3f 85 aa 80 bf
       1.7553426 0.10403004 0.8355331 -1.0052038
000190 c6 b3 97 3f 20 b6 65 bf b8 b9 9b be f7 40 5b 3f
       1.1851737 -0.89731026 -0.3041513 0.85646003
0001a0 05 11 90 bf 2a f8 89 3d a4 75 97 3f 28 46 6f 3f
       -1.1255194 0.06736787 1.1832776 0.93466425
0001b0 f0 1a 39 3f d3 46 1a bf 99 4a 22 be fc c3 a5 3e
       0.7230673 -0.6026432 -0.15848769 0.32376087
0001c0 c8 48 4d 3e f3 29 83 be f8 47 65 3e 09 67 b0 3f
       0.20047295 -0.25617942 0.22390735 1.3781444
0001d0 7a 99 1c bf ce 9e 89 3e 10 cd 4e bf 4a 07 62 3d
       -0.61171687 0.2687897 -0.8078165 0.055182733
0001e0 87 cd 4e 3f 07 d7 b3 3c 32 ad 0f 3f a3 85 a4 3f
       0.8078236 0.021953119 0.5612365 1.2853283
0001f0 a5 c5 2c 3f 25 35 85 bd 54 a2 a5 bf fe 48 87 bf
       0.6748908 -0.06504277 -1.2940164 -1.056915
000200 45 87 59 bd fb 73 cd be 6f 08 4c bf f7 fa 6a be
       -0.05310752 -0.4012755 -0.7970037 -0.22947298
000210 f5 30 b4 ba 45 92 52 bf 66 8c f8 3e 4e f0 e8 bd
       -0.00137475 -0.8225444 0.48544616 -0.113739595
000220 2b 85 52 3e f6 55 e4 3e cd c2 04 3f 0a 0d 69 bd
       0.20558612 0.44596833 0.5185974 -0.0568972
000230 57 97 60 bf 5b db 7a bf 9c 51 d3 3e 9c 10 c2 3e
       -0.87730926 -0.9799096 0.412732 0.37903297
000240 8f e2 07 3c 5d 5e f4 be d9 c5 92 bd 22 98 49 bf
       0.008293762 -0.47728243 -0.07166643 -0.7874776
000250 a1 c7 0b be 57 a0 45 bf d9 4f 05 bf d2 2c fc 3e
       -0.13650371 -0.77197784 -0.5207496 0.49252945
000260 93 aa 00 bf b2 bd b7 3e 18 71 65 3e db 52 ca be
       -0.50260276 0.35886914 0.22406423 -0.3951634
000270 22 65 62 bf 25 08 77 3d cc 87 91 be 33 df 40 be
       -0.88435566 0.0603105 -0.28423917 -0.18835144
000280 d4 0f 17 3e 5a e6 02 3c 2d 4f 18 3d ae 28 1f bf
       0.14752132 0.00798949 0.037184883 -0.6217145
000290 2e ef 16 be 8f 16 52 bf 13 5d f8 3e ad b4 66 bf
       -0.14739677 -0.8206567 0.4850851 -0.9011944
0002a0 0a 7e 81 3e b6 ec ff bf 1a 20 9c 3f db 2f aa 3d
       0.25291473 -1.9994113 1.2197297 0.08309909
0002b0 2f 6b 23 bf ad bb a5 3e 52 a9 8f 3f 6e 0e c1 3b
       -0.63835424 0.32369748 1.1223547 0.0058916127
0002c0 66 a2 78 3e 04 33 90 bf b5 fd 57 be ff 73 8e 3f
       0.242807 -1.1265569 -0.21092875 1.1129149
0002d0 0f 24 35 3f 2c b4 b1 3e 2b 14 ec 3e 76 d9 23 3f
       0.70758146 0.34707773 0.46109137 0.64003694
0002e0 4b 60 35 be 72 08 cf 3e 8f 05 3e 3f 40 00 89 bf
       -0.17712514 0.4043613 0.7422723 -1.0703201
0002f0 45 2e af 3e 22 3e 45 bf 5c 3a 0e 3f 2c 85 d3 be
       0.34214988 -0.7704793 0.555578 -0.4131254
000300 44 6f b1 be b3 42 8e bf b9 59 0f 3f d8 da 7f 3e
       -0.346552 -1.1114105 0.5599628 0.24985826
000310 fd d0 6e 3f 8c 9e 50 3c e4 ae 4e 3f c5 14 b1 3e
       0.9328764 0.012733113 0.8073561 0.34586158
000320 74 c0 b7 bf 3c 0d d5 3e e0 07 83 bf 17 81 34 3f
       -1.4355607 0.4161166 -1.0236778 0.70509475
000330 38 fb 89 3e 26 f3 23 3f ab 6f 09 be 8d 3a 05 3e
       0.26949477 0.6404289 -0.13421504 0.13010617
000340 b1 b1 5b be 86 9f 8f be 80 33 49 3f 5e a4 11 bf
       -0.21454503 -0.28051394 0.7859421 -0.5689143
000350 0d 0a 90 bf e5 95 16 3f 36 12 e1 be 41 a3 8a 3f
       -1.1253067 0.5882247 -0.43959206 1.0831071
000360 50 41 36 bf f6 96 95 be 4a 13 d3 3f 0f dd 80 3f
       -0.7119341 -0.29216737 1.6490262 1.0067462
000370 d4 d9 d8 be 5f b7 2f 3f cb fe 2a bf e4 b8 7b 3f
       -0.4235369 0.6863918 -0.66795033 0.98328996
000380 4a 5b e9 3f 87 e7 9e 3e 4e e3 38 3f 08 9c 69 bf
       1.8230984 0.31036016 0.7222184 -0.9125371
000390 f7 49 8f 3f 17 c7 3d bf 88 c2 c7 3e 7c fd 3a 3f
       1.1194447 -0.7413191 0.39015603 0.73043036
0003a0 7b 54 20 bf f1 7f 6d 3e c6 83 3d 3f f0 f5 85 3f
       -0.62628907 0.23193337 0.74029195 1.0465679
0003b0 7b f0 84 3f 71 b3 97 bf e0 82 43 bf ce d7 1a 3e
       1.0385889 -1.1851636 -0.76371574 0.15121385
0003c0 33 e7 0d 3d 74 f1 a1 3e 92 86 04 3f e7 83 46 3f
       0.034644317 0.31629527 0.5176784 0.77545017
0003d0 0a 55 76 bf ad f5 a2 3e 16 87 43 bf d9 b9 4f be
       -0.9622351 0.3182806 -0.76378 -0.20285739
0003e0 63 10 35 3f f6 e8 0f bf 14 39 a2 3e 72 11 b1 3f
       0.7072813 -0.56214845 0.31684172 1.3833449
0003f0 6c 95 c9 3e b8 45 37 3c 71 d4 c2 bf cc bd 13 bf
       0.39371812 0.011186056 -1.5221082 -0.5771148

2.bias f4 [64]
000000 4d 59 97 bf b2 06 ff bf d3 8e b5 3e 2d da 0c c0
       -1.1824127 -1.9923918 0.3546053 -2.2008164
000010 0d 0f ba 3f 62 4a 79 3f 98 aa e4 bf 92 ef 0a 3f
       1.4535843 0.97379124 -1.7864561 0.54271805
000020 d5 85 b9 bf 0b b1 cd bf a3 2e a7 3f 51 7b db bf
       -1.4493967 -1.6069654 1.3061107 -1.7147008
000030 34 0d ba 3f 49 e9 0b 40 77 52 a7 be a5 c8 bb bf
       1.4535279 2.1861136 -0.32680103 -1.4670607
000040 2a 24 cd 3f 18 c7 97 bf 63 cc 0a c0 0b a8 85 3f
       1.6026661 -1.1857634 -2.1687248 1.0441908
000050 51 c9 00 bf a5 be c5 bf 75 b2 33 3f 25 a0 9f 3f
       -0.50307184 -1.5448805 0.7019418 1.2470747
000060 0b 23 a8 3f e4 73 57 bf 26 3a d3 3f 77 cb 6f 3e
       1.3135694 -0.8416121 1.650212 0.2341746
000070 21 e0 9d 3f 77 2b b6 3f 2d 72 a0 bf d8 fe 62 3f
       1.2334024 1.4232014 -1.2534844 0.8867011
000080 71 a1 b9 bf 6c 54 af 3f 6d a6 41 bf 9e 33 86 bf
       -1.4502393 1.3697639 -0.7564457 -1.0484502
000090 f3 fe bb bf dd c1 00 c0 1a 4b ab 3f e3 98 cf 3f
       -1.4687179 -2.0118325 1.3382294 1.6218532
0000a0 f4 e4 c8 3f 6e 7c b9 3f 49 c2 cd 3f 5f 07 88 bf
       1.5694871 1.4491098 1.6074916 -1.062725
0000b0 dd 43 08 c0 55 c9 ca bf f0 5c cb 3f 31 22 a7 3f
       -2.129142 -1.5842692 1.5887737 1.3057309
0000c0 3b 4b b0 bf d6 e4 6d 3f da 51 cc 3f 6b c8 b8 bf
       -1.3772959 0.929273 1.5962479 -1.4436163
0000d0 f9 26 d0 bf 5a 8a 08 40 9b 17 0d 40 79 b6 7c 3f
       -1.6261894 2.1334443 2.2045658 0.9871593
0000e0 b0 a7 c5 bf 0f 1d b5 bf 34 5c c9 bf af 18 da bf
       -1.5441799 -1.4149493 -1.5731263 -1.7038783
0000f0 f6 37 a3 bf 27 7f 8c bf 51 bd 95 3f b0 52 05 40
       -1.2751453 -1.0976304 1.16984 2.0831718
