dir_save/we0_critic_-500.pth (torch, 35023 bytes, 4 tensors)

0.weight f4 [64, 64]
000000 e7 ff 08 bf 2f c8 e7 3e 2b ff 22 3f e8 b0 2f be
       -0.53515476 0.45269915 0.63670605 -0.17157328
000010 ce 57 bc 3f 15 05 5c be 5d f3 04 bf 42 bc cc 3e
       1.4714296 -0.21486314 -0.5193384 0.3998738
000020 5b a5 81 bf 7c 8b 3e be bd d3 42 be 86 e0 45 bd
       -1.0128587 -0.18607897 -0.19026084 -0.048309825
000030 75 93 a0 be ba 4d cd 3e 2e b7 d4 3f 75 ba 1d bd
       -0.313625 0.40098363 1.6618402 -0.038507897
000040 ba 99 08 be bf f4 33 3e b1 9c bc be c1 69 4f bf
       -0.13339892 0.17573832 -0.36838296 -0.8102074
000050 a4 09 15 bf 52 9c 2c 3d a0 02 06 3d 33 78 30 bf
       -0.58217835 0.042141266 0.032717347 -0.6893341
000060 c3 c9 01 3f 5a 74 99 bf 04 76 f9 be 92 b0 9f be
       0.5069849 -1.1988633 -0.4872285 -0.311894
000070 89 50 a3 3e a3 78 c8 bd fa 15 33 b9 fb 84 45 3f
       0.3189738 -0.09788635 -0.00017078957 0.7715604
000080 43 51 8f 3e 64 38 ac be e4 4a 8f be 41 a7 6c be
       0.27991685 -0.33636773 -0.27986825 -0.23110677
000090 94 95 82 3f 98 29 99 3e 60 3f df 3e 16 66 ad 3e
       1.0201898 0.29914546 0.4360304 0.33866948
0000a0 63 de e3 be a0 9b 88 3e 1a 72 86 3e 0b fb 89 3f
       -0.44505605 0.26681232 0.26258928 1.0779737
0000b0 a0 4f db 3e 97 bb 1d 3e f7 d8 10 be 5a b4 76 3e
       0.42834187 0.15403591 -0.14145266 0.24092236
0000c0 16 40 6c 3f e1 f8 c7 3e 4b bd 83 bf de 98 2f be
       0.9228529 0.39057067 -1.0292143 -0.17148158
0000d0 89 c1 42 3b 2c b8 a2 bf fb 6e 4b 3d fc ce ed 3e
       0.0029717407 -1.2712455 0.049666386 0.4644698
0000e0 bf 5e 48 be 75 2f 35 bf 0d e1 fd be 53 f9 d5 be
       -0.19567393 -0.7077554 -0.49585763 -0.41791782
0000f0 88 fe 2d bf 8c 4f 00 bf cf 1d 73 be f0 bd 1d bf
       -0.6796651 -0.5012138 -0.2374184 -0.61617947
000100 f9 ac 16 bf 30 14 2b be 2f 75 b7 3e 74 2d f3 3e
       -0.58857685 -0.1670692 0.3583159 0.47495615
000110 62 fe 0e 3e 6a 76 46 bd 7b 29 a2 3e 5d e7 df bd
       0.13964227 -0.048452772 0.31672272 -0.10932801
000120 6c 88 cf be 8b 8a 8a bf cd 1f 22 3f 45 df 1b be
       -0.4053377 -1.082353 0.63329774 -0.1522189
000130 64 d3 05 bf 28 b9 9c 3e b5 48 31 bf a9 7d 41 bd
       -0.5227568 0.30610013 -0.6925157 -0.04723898
000140 5f ef 88 3e 2c 7e a1 3e f4 90 6b bf d2 05 92 3e
       0.26745126 0.31541574 -0.92018056 0.28520066
000150 42 89 6f 3e 96 99 48 be cd ff 29 3f 5c 54 0a bf
       0.23392203 -0.19589838 0.66405946 -0.5403497
000160 d1 d9 81 3c 58 17 9d 3d 86 c4 12 3d 21 67 47 3e
       0.015850933 0.07670468 0.03583195 0.19472934
000170 72 ff 9e 3d 4b 6b d8 be 72 8b e0 be 48 51 ac be
       0.07763566 -0.42269358 -0.43856388 -0.33655763
000180 ba 74 0e 3e d8 14 b2 3e 63 2b ce 3e 35 c5 c5 3d
       0.13911715 0.34781528 0.40267476 0.09656755
000190 83 27 1c be d5 9d 02 bf 91 8d 05 3f d9 53 cc be
       -0.15249448 -0.5102208 0.5216914 -0.3990772
0001a0 49 9e 36 bd 85 e1 72 3e f2 6b 68 3e fb b7 40 bd
       -0.044584546 0.23718841 0.22697428 -0.047050457
0001b0 3f 95 09 3f 41 f0 a4 3e 2c 58 4d 3f 6d a4 e8 be
       0.53743356 0.3221455 0.80212665 -0.45437947
0001c0 3c cc a3 3e a1 94 94 3f cf 27 08 bf 12 1f 36 3f
       0.31991756 1.1607858 -0.53185743 0.7114116
0001d0 a5 2e c8 be 11 b6 b2 3d 60 23 4f 3f f7 e0 bd 3f
       -0.39098087 0.08726133 0.8091335 1.4834279
0001e0 85 44 b3 be 95 b6 73 3f fb 6f 80 bc ac a5 55 3e
       -0.35013214 0.95200473 -0.015678396 0.2086398
0001f0 3d 19 2c bf c5 dd b6 3e 54 e3 d6 be bf ef 52 bd
       -0.6722601 0.35716072 -0.41970313 -0.05149817
000200 f3 d2 35 be af 3d 55 3f 86 cd 76 bf d6 39 84 3e
       -0.17756252 0.83297247 -0.96407354 0.25825375
000210 33 b4 0e bf 2a 5e 82 3e fd cf 4b 3f 72 c7 16 bf
       -0.5574371 0.25462466 0.7961424 -0.5889808
000220 ae 73 52 bf ac 6e 50 3d 68 fc 23 3d ee 1b fb 3e
       -0.82207763 0.050886795 0.040035635 0.49044746
000230 b2 06 45 3f 77 2f ca bd f5 86 b6 bd fd 1f ac be
       0.7696334 -0.098723345 -0.0891246 -0.33618155
000240 19 5c 33 be 00 e9 6c 3d 43 eb 41 bf 62 21 37 3f
       -0.17515601 0.057839394 -0.75749606 0.71535313
000250 10 a8 59 3f 40 e2 b4 3e 7e 1b 72 3f 41 2b d4 be
       0.8502207 0.35328865 0.945732 -0.4143925
000260 05 a7 a2 bd 1e 10 ed be 4d 50 45 3f f9 87 8d 3d
       -0.07942013 -0.4630136 0.77075654 0.069107
000270 45 b3 4d 3e 27 80 4f be d0 ab 12 3f f0 3b 83 3e
       0.20087917 -0.2026373 0.57293415 0.25631666
000280 94 43 7b bf 2e b9 e4 3e b9 35 d1 3e 97 ef 1b 3f
       -0.9814999 0.4467253 0.408613 0.6091246
000290 85 82 c8 bc 3e 57 94 bf 7a 3a 5a 3e 0e ea 38 3e
       -0.024476299 -1.1589124 0.2131137 0.18058035
0002a0 19 53 ed 3d 42 ad 90 3e 2d af 12 be 34 0b 85 3e
       0.11588115 0.28257185 -0.14324637 0.2598511
0002b0 1a 90 0d bf d4 c1 23 bf 18 9b 21 bd 22 91 8b be
       -0.55298007 -0.63967633 -0.03945455 -0.27259165
0002c0 c3 a1 bf 3d 23 fa 25 bf ec 3d d6 be 64 6e 02 3e
       0.093570255 -0.64834803 -0.41844118 0.12737423
0002d0 a0 47 7c 3e e8 5a e1 be 57 06 23 3e cf e8 96 3d
       0.24636698 -0.44014668 0.15920387 0.073686235
0002e0 8c 98 67 be 32 79 34 bf 6a 97 47 bd 7b e4 01 3f
       -0.22616786 -0.7049743 -0.048728384 0.5073926
0002f0 22 f5 19 3f 3f ca 57 be 8f 61 39 3e bf 96 a2 3e
       0.6013967 -0.21073245 0.18103622 0.31755635
000300 db 80 44 bd 84 8d 55 3f 88 39 3a bd 75 a7 3e bf
       -0.04797445 0.8341906 -0.045465022 -0.7447427
000310 9d 50 35 be 10 09 7f 3e 62 c3 81 be 23 be 99 3d
       -0.17706533 0.24905801 -0.25344378 0.07506969
000320 e7 b6 e3 3e a9 3f 33 bf 53 50 b3 be 79 d0 31 bf
       0.4447548 -0.7001901 -0.3502222 -0.6945873
000330 77 f6 a1 3e 82 3d 0b 3e 4d 95 8b 3f 1b 49 4e 3f
       0.3163335 0.13597682 1.0904938 0.805803
000340 b9 06 68 bf 3e 35 35 3e 76 5f ed 3e 5c 50 95 be
       -0.9063526 0.17696092 0.46361893 -0.29162872
000350 6b 45 cf 3d 9b 1d 98 3f 25 62 92 be b9 c7 5a bf
       0.10120662 1.1884035 -0.28590503 -0.85461
000360 4d d9 45 3e b1 1d 79 bf 22 60 86 be a5 5e 24 3d
       0.19321175 -0.9731093 -0.2624522 0.040129323
000370 36 b8 ba 3d 41 b0 96 bd 40 4f 18 bf aa e3 61 3f
       0.09117167 -0.073578365 -0.59495926 0.8823801
000380 e8 3a b9 3e b3 0a 46 be 4d cb 28 bd 5a 0c ea be
       0.36177754 -0.19340019 -0.041209508 -0.45712548
000390 fc b8 d7 3e 76 67 68 3e 33 f9 96 bd 6e 6d ab be
       0.4213332 0.22695717 -0.0737175 -0.33481926
0003a0 83 2e 04 bf 2c 28 38 be 47 91 7d 3e a9 10 32 3f
       -0.5163347 -0.17984074 0.2476245 0.6955667
0003b0 f6 89 66 3f d7 2e 91 3e ea cd bf be b6 7f 20 bd
       0.9005426 0.28356048 -0.37461787 -0.039184295
0003c0 0d a3 f6 3e 1d dc 0f 3e cb 7a 85 be 6c 9e 35 be
       0.48171273 0.1404881 -0.26070246 -0.17736214
0003d0 9e d6 48 3d 39 23 3d bf d6 55 05 bf df 7c 68 3e
       0.0490328 -0.7388187 -0.520841 0.22703885
0003e0 4b 27 27 3c a7 43 15 bf 81 6c 92 be b1 17 2e 3d
       0.010202239 -0.58306354 -0.28598407 0.042503063
0003f0 37 ff de 3d d5 dc 65 bf 0b e3 6e be 7b 3a 42 3f
       0.10888522 -0.8979009 -0.23328798 0.75870484

0.bias f4 [64]
000000 31 e2 87 be f9 72 48 3e ef 38 e0 3d a9 ca 83 3e
       -0.26539758 0.19575109 0.10948359 0.25740555
000010 21 47 27 3e a8 54 30 3e 05 60 08 be d3 ea a3 3e
       0.16335727 0.17219794 -0.13317879 0.32015094
000020 ec da 8b 3e f8 17 ca be d7 3e 9a bd 3e f1 23 be
       0.27315462 -0.39471412 -0.07531517 -0.16009995
000030 72 9f b8 3d 5b 24 85 3e 6e 80 d9 bd 86 85 92 be
       0.09014787 0.260043 -0.10620199 -0.28617495
000040 c1 1d ed 3e 1d f8 d8 be f7 7f 18 bd d4 3a 5f 3c
       0.46311763 -0.42376795 -0.03723141 0.013624866
000050 43 71 8a 3d 15 ed 67 3e 68 77 0d 3e b1 61 a2 be
       0.06759884 0.22649033 0.13815081 -0.31715158
000060 6b e6 24 3f 19 87 0f be be 9a 3f bf dc f3 a1 3d
       0.6441409 -0.1401638 -0.7484549 0.079078406
000070 87 d7 d3 3e 08 1c be 3e 52 92 78 be e1 cb c4 3d
       0.41375372 0.3713076 -0.24274567 0.09609199
000080 6a 09 34 be 82 55 c6 bd 4e 40 d1 be f1 4e fe 3e
       -0.17581716 -0.09684278 -0.40869373 0.49669603
000090 e6 09 19 3e 0a e4 8d 3e a5 c6 85 be 61 ac 5a bd
       0.14945182 0.27713042 -0.26128116 -0.05338705
0000a0 d0 ed 91 be 2f ce cd 3d fb f5 28 be a8 2c ec bd
       -0.2850175 0.10049092 -0.16500084 -0.11531955
0000b0 1f 83 71 be 86 af 25 bd fb 27 99 3e 89 56 3d 3e
       -0.23585175 -0.040450595 0.29913315 0.18490042
0000c0 c9 28 8d be 03 23 69 3b 06 c9 2a be 58 97 7c be
       -0.2757018 0.0035573847 -0.16678247 -0.24667108
0000d0 49 7e 99 3d 58 ee 32 be 80 44 ef 3d eb 91 83 be
       0.0749479 -0.17473733 0.11682987 -0.25697264
0000e0 49 96 f7 3d 5c 92 29 bf 63 59 43 3e 8c 73 0c bf
       0.120892115 -0.6623895 0.19077067 -0.5486381
0000f0 0c de 98 bd 03 0e 60 be 15 47 f2 bd 79 3f 27 3e
       -0.07464227 -0.21880345 -0.11829964 0.16332807

2.weight f4 [64, 64]
000000 45 d1 95 3d 3a c3 c8 bc 80 6b 84 3e 5f b2 93 3c
       0.073153056 -0.024507154 0.25863266 0.01802939
000010 d7 fc 07 3e 7f 42 99 be 84 d4 7a 3e 18 b9 6b 3e
       0.13280044 -0.29933545 0.24495131 0.23019826
000020 ff 18 8e be 46 c9 4c 3e fc 3a 2b 3c b8 b9 1c be
       -0.27753446 0.19998655 0.010451075 -0.15305221
000030 4c cf 19 3f 1d 73 6b bd 2d ce 42 bf 1c b5 94 be
       0.60081935 -0.057482827 -0.7609585 -0.29044425
000040 3b a7 3e 3d f0 6d 3f 3f 08 ac 55 3e a6 58 63 3f
       0.046546202 0.74777126 0.20866406 0.8880714
000050 bd 93 be be 4b 1d ac 3e 49 db c4 3d 9f 98 00 be
       -0.3722209 0.336161 0.09612138 -0.1255822
000060 f3 3f 4a be f2 1a 18 bf 21 3e 05 3f 51 a6 3d 3f
       -0.19750957 -0.59416115 0.52047926 0.74081904
000070 85 a3 2c 3f 40 fa c7 3e 07 dd 24 bf 1d b5 b3 3e
       0.6743701 0.39058113 -0.6439976 0.35099116
000080 be 8e d3 3d d1 9b 52 bc d6 5b 10 bd e1 66 da 3e
       0.1032996 -0.012854532 -0.03524383 0.42656615
000090 a0 9e 46 bd 41 13 12 be e5 e7 d2 3e d9 8a 25 3f
       -0.04849112 -0.14265157 0.41192546 0.6466499
0000a0 fa 8a 93 be 4e 08 30 3f 5f 72 25 bf 93 37 ab 3e
       -0.28816968 0.6876267 -0.6462764 0.33440837
0000b0 44 e3 44 3f 71 4b 34 bf b2 2f 17 be 7f ac a0 3c
       0.7690928 -0.70427614 -0.14764288 0.019613503
0000c0 77 3d 22 be 71 db 17 bb 21 b3 f4 3b 75 78 bb be
       -0.1584376 -0.0023171569 0.007467643 -0.3661534
0000d0 f8 7d 5c 3e 25 e9 8f be 0e 25 d7 be e2 12 de be
       0.21532428 -0.28107563 -0.42020458 -0.4337378
0000e0 7f 87 37 3e 0d d1 3c bf 85 3c a2 3b e3 5f 13 3f
       0.17922781 -0.73756486 0.004951062 0.57568187
0000f0 9c 38 c6 bd 3e 7f 90 be 66 8b 6a bf 10 e0 37 be
       -0.09678766 -0.28222078 -0.91618955 -0.17956567
000100 83 7c 13 bf 9c 31 ac bf eb 1f 69 3e 54 6a 1d 3e
       -0.57611865 -1.345264 0.22766082 0.15372592
000110 13 de 88 3f 5c ae 59 3e ea fa 10 3f a2 40 36 be
       1.0692772 0.21257919 0.56632864 -0.17798093
000120 26 9c a0 bf cb 02 f9 3e f6 3b 3a bf 1d 0e 1a 3f
       -1.2547653 0.48634943 -0.72747743 0.60177785
000130 72 61 ab 3e db 71 f4 3e c3 52 7d 3d 36 d7 f5 3e
       0.33472782 0.47743115 0.061846506 0.48015755
000140 81 5f 40 be 22 09 e7 be 9f 17 da 3e 7c 11 56 bf
       -0.18786432 -0.45124155 0.42596146 -0.8362043
000150 f8 74 40 bf 99 01 82 3e 96 51 e1 bd 30 9a dd 3e
       -0.7517848 0.25391844 -0.110018894 0.43281698
000160 3f 92 74 bf f2 1b 23 3e 92 e6 a4 3f 26 81 97 3f
       -0.95535654 0.15928629 1.2882864 1.1836288
000170 3c 84 ca be 70 20 4f 3f 6a 12 21 bf ba ac 51 3f
       -0.39554012 0.8090887 -0.6291872 0.81904185
000180 fe f8 b8 3f 05 87 43 3d 60 8e 3a 3f 36 e3 8f bf
       1.4450986 0.047736187 0.72873497 -1.1241214
000190 c1 ea 80 3f 1d 0a 81 bf 43 f3 50 be 4f 2a 3d 3f
       1.0071641 -1.0081211 -0.20405297 0.7389268
0001a0 e3 d6 92 bf d0 2f 64 3d c8 a9 a2 3f a6 dc 80 3f
       -1.1471828 0.05570966 1.2708063 1.0067337
0001b0 d4 e4 31 3f cd 3f 48 bf 99 af e4 bd a2 52 08 be
       0.6948979 -0.7822235 -0.11166305 -0.13312772
0001c0 2b 33 b8 3e 6f d4 88 be 26 e3 29 3e ef 4b a0 3f
       0.35976538 -0.26724574 0.16590557 1.2523173
0001d0 fa fc f6 be a3 58 95 3d 91 83 c3 be c2 6a 15 3f
       -0.4823988 0.07292297 -0.38186315 0.58366024
0001e0 d7 f9 62 3f b3 46 e4 3d 98 83 17 3f 68 b5 9c 3f
       0.88662475 0.11146297 0.5918517 1.2242861
0001f0 01 6a 17 3f c8 67 14 be 3d a6 90 bf dc 3a 65 bf
       0.59146124 -0.14492714 -1.1300732 -0.8954294
000200 f7 97 10 3d aa 07 92 be 30 ad 19 bf fa 0f 9c bd
       0.035301175 -0.28521472 -0.6002989 -0.07620235
000210 fb 03 e8 bd af 48 4a bf 4f 55 bc 3e 42 e4 6f be
       -0.11328884 -0.79017156 0.36783835 -0.23426917
000220 e3 f6 0c 3f e4 4a 92 3e 54 05 23 3f 73 dd bb bd
       0.5506422 0.28572762 0.63680005 -0.091730975
000230 98 d8 7f bf 54 8c 5d bf 1a b2 de 3e b4 8c 00 3f
       -0.9993987 -0.8654225 0.43495256 0.50214696
000240 a8 23 1c bd d7 ab b0 be 68 e8 b3 be fe 3d 27 bf
       -0.038119942 -0.34506103 -0.3513825 -0.6532897
000250 62 4f 56 bd e4 9b 65 bf 1e d5 6f be 99 08 10 3f
       -0.0523218 -0.89690995 -0.23421142 0.5626312
000260 32 a3 c2 be 1c 2a d9 3e f5 8d a3 3e 46 33 0f bf
       -0.38015133 0.4241494 0.31944242 -0.5593761
000270 25 00 6c bf 96 e3 74 bd 7f 22 2d be ec e5 9a be
       -0.9218772 -0.059787355 -0.1690769 -0.3025354
000280 24 e2 da 3c 2c 01 03 3e c3 66 c0 bd f8 df cc be
       0.02671916 0.12793416 -0.093946 -0.40014625
000290 53 77 19 be 0c 7e 32 bf 68 96 c8 3e be 8d 94 bf
       -0.14986925 -0.6972358 0.3917725 -1.1605756
0002a0 c7 89 d9 3e 41 72 f0 bf 5f a5 89 3f 5d fd c0 3c
       0.42487928 -1.8784868 1.0753592 0.023558313
0002b0 99 b4 43 bf 0e 06 c5 3e 79 31 97 3f 2e de e1 3d
       -0.76447445 0.38481182 1.1811973 0.110287055
0002c0 26 33 94 3e b7 75 58 bf fa d5 b6 bd b8 16 d1 3e
       0.28945273 -0.8455462 -0.089275315 0.40837646
0002d0 b2 fe f6 3e 77 6f dd 3e e5 d5 c1 3e 89 18 11 3f
       0.48241192 0.43249103 0.378585 0.5667806
0002e0 77 d1 9a be d1 3d b5 3e ca 43 1e 3f 7d 2c 75 bf
       -0.30237934 0.35398725 0.6182219 -0.9577101
0002f0 c6 ef 2a 3e 04 0f 17 bf 47 34 10 3f 6e bf 2e be
       0.16693029 -0.5900729 0.5632977 -0.17065212
000300 32 f4 d6 be 21 ab a0 bf 34 c7 03 3f 01 14 8c 3e
       -0.4198318 -1.2552224 0.51475835 0.27359012
000310 e4 5c 8d 3f a9 f7 b9 3b bc e0 3f 3f 81 ab 03 bd
       1.1043973 0.0056752753 0.7495229 -0.03214598
000320 b5 58 b0 bf 56 ac 0a 3f ac cd 87 bf 8a 25 0e 3f
       -1.3777071 0.54169214 -1.0609641 0.5552603
000330 96 fc c8 3e 9a 76 b9 3e e0 d2 cf bc 29 65 10 3e
       0.39255208 0.36223298 -0.025369108 0.1410109
000340 80 e7 6d be dd c3 93 be 5e f4 0d 3f dc 60 34 bf
       -0.23232841 -0.2886037 0.55451 -0.70460296
000350 64 20 94 bf 93 38 18 3f 15 55 07 bf b8 a8 38 3f
       -1.1572385 0.59461325 -0.528642 0.72132444
000360 51 b1 49 bf 22 9b a2 bc b8 eb bf 3f 27 e8 80 3f
       -0.7878619 -0.019849364 1.4993811 1.0070847
000370 0b 56 aa be 6e b8 32 3f 8f be 1e bf 93 5d 74 3f
       -0.3326877 0.6981267 -0.6200952 0.9545528
000380 3d 62 df 3f af 1e 24 3e ff 4f 21 3f 61 31 70 bf
       1.7451855 0.1602733 0.6301269 -0.93825346
000390 a7 ed 6f 3f 07 e2 4c bf 13 1d ff 3e 30 0d 2e 3f
       0.93722004 -0.8003239 0.4982687 0.6798887
0003a0 80 9a 0b bf 37 f1 8a 3e 48 ac 53 3f 24 c2 8c 3f
       -0.54532623 0.27137157 0.82684755 1.0996747
0003b0 b4 6d 7f 3f b7 df ad bf ae df 22 bf 51 96 4c be
       0.9977677 -1.3583897 -0.6362256 -0.19979216
0003c0 37 5f de 3e 94 b9 2c 3e d9 7f c1 3e b6 0f 9a 3f
       0.43432018 0.16867667 0.37792853 1.2036045
0003d0 c0 51 34 bf 34 8f b2 3e 74 6e ae be 6c cc 9c 3e
       -0.7043724 0.3487488 -0.34068644 0.30624712
0003e0 15 e8 22 3f 17 ba 82 be 6e 4b e7 3e 5f f4 a2 3f
       0.6363538 -0.255326 0.45174736 1.2730826
0003f0 eb 21 89 3e fd bb 3b be 44 e7 bc bf 05 28 fb be
       0.2678369 -0.1833343 -1.4758077 -0.4905397

2.bias f4 [64]
000000 ec ca 92 bf 75 c4 f7 bf 8b 8b 6e 3e f9 46 03 c0
       -1.1468177 -1.9356829 0.23295419 -2.0512068
000010 6c da bb 3f d9 4f 8c 3f 5f 12 ce bf e3 f8 da 3e
       1.4676032 1.0961868 -1.6099356 0.4276801
000020 12 9a a5 bf 61 25 b3 bf 83 25 94 3f 42 ae ca bf
       -1.2937644 -1.3995782 1.1573948 -1.5834429
000030 6e a3 9c 3f c9 ee 01 40 81 4d 57 be 3d 64 aa bf
       1.2237375 2.0301993 -0.21025659 -1.331184
000040 b7 4e df 3f 1a 3d 7d bf 71 35 fc bf 6e 3f 83 3f
       1.7445897 -0.9892136 -1.9703809 1.0253732
000050 92 75 ee be 65 7a c5 bf 66 05 1c 3f a9 19 84 3f
       -0.46574074 -1.5427977 0.6094574 1.0320331
000060 84 63 9f 3f 36 9f 2c bf d3 b8 cc 3f e6 61 70 3e
       1.2452245 -0.67430437 1.5993904 0.23474845
000070 3f d1 a0 3f dc 02 a0 3f f4 3b 8d bf a2 87 61 3f
       1.2563857 1.2500873 -1.1033921 0.88097584
000080 14 b7 ac bf 13 b1 ae 3f 86 ef 31 bf c3 79 69 bf
       -1.3493371 1.3647789 -0.6950611 -0.9120142
000090 15 af ab bf 51 d8 d0 bf 26 f2 a4 3f 7e 2a c4 3f
       -1.3412806 -1.6316015 1.2886398 1.5325468
0000a0 ed 52 cb 3f 75 05 bc 3f 91 78 c5 3f 96 6e 69 bf
       1.5884682 1.4689165 1.5427419 -0.91184366
0000b0 0d 05 ff bf 46 9b ab bf 6d 6c bf 3f 68 cc 82 3f
       -1.9923416 -1.3406761 1.4954964 1.021863
0000c0 53 17 a2 bf 3f be 38 3f 8e 32 ab 3f fc 14 b2 bf
       -1.2663368 0.7216529 1.3374803 -1.3912654
0000d0 14 a4 c4 bf 83 90 e4 3f 89 00 ec 3f 08 4e 62 3f
       -1.5362573 1.7856601 1.8437663 0.88400316
0000e0 7a 45 d2 bf f6 1b b9 bf 23 c2 a7 bf 01 e3 c6 bf
       -1.6427453 -1.4461658 -1.3106121 -1.5538026
0000f0 bf 07 96 bf b3 ee 59 bf 6a 26 56 3f 55 6a f5 3f
       -1.1721114 -0.8512985 0.83652365 1.9173075
