dir_save/reference_training_result/we0_actor_700.pth (torch, 133827 bytes, 4 tensors)

0.weight f4 [128, 128]
0	0xbcb093f1	-0.021554919
1	0xbc0aa412	-0.008461969
2	0x3cf35f46	0.029708516
3	0xbbb1cb3b	-0.0054258383
4	0x3c9863e0	0.018602312
5	0x3bcd7532	0.0062700743
6	0xbd9f87c4	-0.07789567
7	0x3dc823d2	0.09772457
8	0x3de1a269	0.110173054
9	0xbd3cc5ce	-0.04608708
10	0x3e20cd5c	0.15703338
11	0x3d9c04fd	0.07618139
12	0x3dcf11eb	0.101108395
13	0x3dba77f2	0.09104909
14	0x3c0b803a	0.008514458
15	0x3e2ef1c7	0.17084418
16	0xbdabeda3	-0.08394935
17	0x3cb3db75	0.021955231
18	0xbdd6bef7	-0.104856424
19	0xbba43262	-0.005010889
20	0x3df19d33	0.117975615
21	0x3dbb7172	0.09152497
22	0x3d09b30d	0.03361802
23	0xbdbc77b4	-0.09202519
24	0x3e4fc24e	0.20288965
25	0x3d6dba9a	0.058039285
26	0x3c38ff8d	0.011291397
27	0x3d1ee9e8	0.03879729
28	0x3cc91091	0.024544032
29	0xbd795df4	-0.060880616
30	0xbd33f070	-0.04393047
31	0x3d93b37c	0.07211968
32	0x3e25d62c	0.16194981
33	0xbe20868a	-0.15676323
34	0x3d07101e	0.032974355
35	0x3d0fd454	0.0351146
36	0xbd738fb6	-0.059463225
37	0xbe12a8f8	-0.14322269
38	0x3e3b6bf9	0.18302907
39	0x3db99728	0.09062034
40	0xbd1ef4fb	-0.03880785
41	0x3e0ce70d	0.13760014
42	0xbdd72982	-0.10505964
43	0x3d51f54d	0.051259328
44	0xbd940561	-0.072275884
45	0xbd866de4	-0.06563929
46	0x3c618408	0.013764389
47	0x3c8d1ade	0.017224725
48	0x3cc9b119	0.02462058
49	0x3d55eb10	0.052226126
50	0x3e5c31bd	0.21503349
51	0x3d5b4f86	0.053542636
52	0x3d8ae10f	0.06781208
53	0x3e2ca091	0.16858126
54	0x3d333d75	0.043759782
55	0x3d8002c0	0.062505245
56	0x3cc1f5b4	0.02367673
57	0x3db4afda	0.088226035
58	0x3e5cd23c	0.21564573
59	0xbc9ea973	-0.019367909
60	0xbe39b2b3	-0.18134575
61	0xbdb1064d	-0.0864378
62	0x3dd16574	0.10224429
63	0xbd61a1b2	-0.055085845
64	0x3c67c891	0.01414694
65	0xbd22fd3c	-0.039792284
66	0xbd841d48	-0.064508975
67	0x3cc8327b	0.024438133
68	0x3d59503d	0.053055037
69	0x3d8d2f7c	0.068938226
70	0x3de6a5b2	0.112620726
71	0x3d369be4	0.044582263
72	0xbd01c833	-0.031685065
73	0xbc917ecf	-0.017760662
74	0x3e32f1f8	0.17475116
75	0xbd10df35	-0.035369117
76	0x3cd9da5b	0.026593378
77	0x3dca98fd	0.098924614
78	0xbbd5222b	-0.0065043173
79	0x3c9d697a	0.019215334
80	0xbdb93339	-0.09042973
81	0x3de6d452	0.11270966
82	0xbe17f53c	-0.14839643
83	0xbc425f5b	-0.011863555
84	0x3df8fdbb	0.1215777
85	0xbd826dd1	-0.06368602
86	0xbbac4c99	-0.0052581546
87	0x3b892ea7	0.0041864696
88	0x3cd89a35	0.02644072
89	0x3d67f278	0.05662772
90	0xbd869fb3	-0.06573429
91	0x3e2e2d82	0.17009547
92	0xbcc8f7b1	-0.024532171
93	0x3d0465eb	0.03232376
94	0xbdde32df	-0.10849547
95	0x3d3ce38d	0.046115447
96	0xbd2703b0	-0.040775
97	0x3d5b91ac	0.05360572
98	0xbd316672	-0.04331059
99	0xbdeabdb6	-0.11461966
100	0x3cf542c6	0.029939067
101	0xbda366c0	-0.079785824
102	0x3e206510	0.15663552
103	0x3d076c3f	0.033062216
104	0x3d8b6fd1	0.06808437
105	0xbc2066fc	-0.009790178
106	0x3e29dcdc	0.16588157
107	0x3e5c29fa	0.21500388
108	0x3b171079	0.002305059
109	0xbd2fb42e	-0.042896442
110	0xbbe844ce	-0.0070882803
111	0xbe65a814	-0.22427398
112	0xbd582847	-0.052772786
113	0x3c5a11b2	0.013309883
114	0xbb9d6fe1	-0.004804597
115	0xbd32f2aa	-0.043688454
116	0xbd87d613	-0.06632628
117	0xbe129151	-0.14313246
118	0xbd99437d	-0.074835755
119	0x3e0d8860	0.13821554
120	0x3d51f70b	0.05126099
121	0xbc81be44	-0.015837796
122	0x3c59c755	0.013292153
123	0xbd9058b8	-0.07048172
124	0xbe27595f	-0.16342686
125	0xbe409b44	-0.18809229
126	0x3bd22078	0.006412562
127	0xbd196b7f	-0.037456032
128	0x3d93c7b9	0.072158284
129	0x3de0dd0e	0.10979663
130	0x3d986667	0.07441407
131	0x3de3beb8	0.11120361
132	0xbdd05a71	-0.101735
133	0xbc17e949	-0.009271928
134	0x3d82c9be	0.063861355
135	0xbe0057e5	-0.12533529
136	0x3daecc60	0.08535075
137	0xbce046fb	-0.027377596
138	0xbd230b76	-0.039805852
139	0x3dd9c08c	0.106324285
140	0xbd961b45	-0.0732942
141	0xbdd08137	-0.10180896
142	0x3c6f1bd2	0.014594035
143	0x3e91fca6	0.28513068
144	0xbdb8b8ac	-0.09019598
145	0x3dc9eb47	0.09859329
146	0xbcd40db8	-0.025885448
147	0xbe0f9467	-0.14021455
148	0xbd30a967	-0.043130305
149	0x3d19e95a	0.037576057
150	0x3e24adf0	0.16081977
151	0xbd3cef75	-0.0461268
152	0x3c8a0875	0.016849736
153	0xbcedbcbe	-0.029020663
154	0xbbf928fc	-0.0076037627
155	0x3da9930f	0.08280002
156	0x3d8a8ff1	0.06765736
157	0xbdb5cdf2	-0.088771716
158	0x3d410b9c	0.047130212
159	0xbc49318a	-0.012279877
160	0x3d945e9c	0.07244608
161	0xbda34a2a	-0.0797313
162	0xbd610ce8	-0.05494395
163	0x3cc83183	0.024437672
164	0x3ce8ba40	0.028409123
165	0xbde9d55e	-0.1141765
166	0xbd99006d	-0.07470784
167	0x3e2cbebd	0.16869636
168	0x3d87f3c8	0.066382945
169	0xbaef29fc	-0.0018246765
170	0x3c81c073	0.015838837
171	0x3defbc00	0.1170578
172	0xbcb820a8	-0.02247651
173	0xbdffc6f0	-0.12489116
174	0xbd0a7771	-0.033805314
175	0x3e29dcd5	0.16588147
176	0x3c83a406	0.016069423
177	0x3d5e613b	0.054291945
178	0x3de19ff5	0.110168375
179	0xbe10bea1	-0.14135219
180	0xbcc62a75	-0.024190167
181	0x3dbb84d7	0.091561966
182	0xbd811ac1	-0.06303931
183	0x3e23f028	0.16009581
184	0xbc2b2cec	-0.010447722
185	0x3da65fe8	0.081237614
186	0x3ca6898a	0.020329256
187	0x3d288d3d	0.04115032
188	0x3d433c19	0.047664735
189	0xbd6a847a	-0.057255246
190	0xbce07cb5	-0.027403215
191	0x3e46b9a1	0.1940675
192	0xbe25b976	-0.16184029
193	0xbcfda8fb	-0.030964365
194	0x3dca921d	0.0989115
195	0xbda85acd	-0.08220444
196	0x3dd0ecd5	0.10201422
197	0xbd61c7c9	-0.05512217
198	0xbd4ba0b6	-0.049713813
199	0xbe125b2c	-0.14292592
200	0x3e0c7f11	0.13720347
201	0x3e4fb9ac	0.20285672
202	0x3bc76919	0.0060855267
203	0x3db24f03	0.087064765
204	0xbd7d9339	-0.06190798
205	0x3d311190	0.04322964
206	0xbd26a48d	-0.04068427
207	0xbce9f60f	-0.028559713
208	0x3d3a98f5	0.045556027
209	0xbd33e3df	-0.043918487
210	0x3c304c8e	0.01076044
211	0xbcee08b0	-0.029056877
212	0x3d87c8f8	0.066301286
213	0x3de2041c	0.1103594
214	0x3d59f91f	0.053216096
215	0xbcb324c6	-0.02186812
216	0x3d216d03	0.039410602
217	0x3dbf16ae	0.09330498
218	0xbc515cc6	-0.012778467
219	0xbe2f4254	-0.17115146
220	0xbe21791a	-0.15768853
221	0x3e51d871	0.20492722
222	0x3d38bea0	0.04510367
223	0xbe082a70	-0.13297439
224	0x3dc48a06	0.095966384
225	0x3db52a1d	0.08845923
226	0x3d24a0ef	0.04019254
227	0x3db5b82b	0.08873018
228	0xbd7e0af5	-0.06202217
229	0x3ca3e890	0.020008355
230	0x3d3163c9	0.043308053
231	0xbe0776cb	-0.1322891
232	0xbdfaf3f8	-0.122535646
233	0x3cd2c4da	0.025728632
234	0xbb503380	-0.0031768978
235	0xbd060cb8	-0.032726973
236	0xbc613cfa	-0.013747448
237	0x3d99d6f0	0.07511699
238	0xbdae813f	-0.085207455
239	0xbde2711e	-0.11056732
240	0xbd0d071e	-0.034430616
241	0xbe63f80d	-0.22262593
242	0xbd3c9f59	-0.046050403
243	0x3d89157a	0.066935495
244	0xbd34add8	-0.044111103
245	0x3d85053d	0.0649514
246	0xbcb821da	-0.02247708
247	0x3e092857	0.13394295
248	0xbd439465	-0.047748942
249	0xbc6f081f	-0.014589339
250	0x3db915b2	0.09037341
251	0x3d827198	0.063693225
252	0x3e4ddc77	0.20103632
253	0xbd39ae59	-0.045332287
254	0x3b08c188	0.0020867307
255	0x3d8bde48	0.06829506

0.bias f4 [128]
0	0x3d2b479f	0.04181635
1	0xbd1182c3	-0.035525095
2	0x3cb75733	0.022380447
3	0x3c6cc1eb	0.0144505305
4	0xbd3851e4	-0.044999972
5	0xbc134976	-0.008989682
6	0x3b4fa67a	0.003168492
7	0x3b880a8f	0.0041516493
8	0xbbb1bc6d	-0.0054240734
9	0xbc1ce5f9	-0.009576314
10	0xbc9246f0	-0.017856091
11	0xbcbcc19c	-0.023041539
12	0xbc1d1601	-0.009587766
13	0x3daf6828	0.08564788
14	0x3ae984b4	0.0017816038
15	0x39d3fffb	0.00040435776
16	0x3b254b65	0.002522194
17	0xbbd769c3	-0.006573887
18	0xba872ddd	-0.0010313351
19	0x3d237313	0.039904665
20	0x3b0ce28e	0.0021497342
21	0xbc867f35	-0.016418079
22	0x3cc78650	0.024356037
23	0xbc27d6aa	-0.010244051
24	0xbb853977	-0.0040656882
25	0x3c897d17	0.01678328
26	0x3c4a88e9	0.0123617435
27	0x3cbce23c	0.023057096
28	0xbca9f6f5	-0.020747641
29	0x3a1b5f67	0.0005926997
30	0xbcb413f3	-0.021982169
31	0x3c1439b5	0.009046962
32	0x3bb279f7	0.0054466682
33	0x3d155bc5	0.03646447
34	0x3c2e1e0d	0.010627282
35	0xbd192842	-0.03739191
36	0xbc2bcebf	-0.010486304
37	0x3c97e0ec	0.018539868
38	0xbc1e7c07	-0.009673125
39	0x3ce31b97	0.027723117
40	0x3c43426e	0.011917694
41	0x3d34759d	0.044057477
42	0xbd7438ec	-0.059624597
43	0xbd0c537d	-0.034259308
44	0xbb83f785	-0.0040273094
45	0x3bb2f6b1	0.005461537
46	0xbcb6e993	-0.022328174
47	0x3c863afb	0.016385546
48	0x3c747418	0.014920257
49	0xbd145fcc	-0.03622417
50	0x3c08738d	0.008328331
51	0xb6aee270	-5.211965e-06
52	0xbc68cecd	-0.014209461
53	0x3c28e9df	0.010309665
54	0x3bb3755c	0.005476637
55	0xba817555	-0.0009876887
56	0x3b88f2af	0.0041793208
57	0xbd291620	-0.041280866
58	0xbce3e3ef	-0.027818648
59	0xbb78b740	-0.0037951022
60	0x3ac9e4fc	0.0015403326
61	0xbc3b898b	-0.011446367
62	0x3cc926a1	0.024554553
63	0xbd02bae0	-0.0319165
64	0x3ce216dd	0.027598793
65	0x3a78d391	0.0009491975
66	0xbd4fd3fd	-0.050739277
67	0x3c26005c	0.010131922
68	0xbca905da	-0.020632673
69	0xbc83d68d	-0.016093517
70	0x3c81b754	0.015834488
71	0x3cb521a2	0.022110764
72	0xbd514f45	-0.051100988
73	0x3d09d85f	0.033653613
74	0xb9d1a4f5	-0.0003998649
75	0xbc15ff81	-0.009155155
76	0xbc8a799f	-0.016903697
77	0xbc3654c5	-0.011128609
78	0x3b839dcf	0.004016615
79	0xbc8901bf	-0.016724465
80	0x3c88cc25	0.016698906
81	0xbd24d95a	-0.040246345
82	0xbb8e571f	-0.0043438817
83	0xbca7fd78	-0.020506606
84	0xbc3818de	-0.011236398
85	0x3cb5fc78	0.022215113
86	0x3c820943	0.015873557
87	0xbd0c6241	-0.03427339
88	0xbce4ba43	-0.027920848
89	0xbb8521dd	-0.0040628747
90	0x3cf18fca	0.02948751
91	0xbbfe741d	-0.0077653066
92	0xbc7e1075	-0.015506853
93	0xbc4cfccd	-0.012511444
94	0x3c6fb247	0.014629907
95	0xbb7db044	-0.0038709799
96	0xbc1d5902	-0.009603741
97	0x3b8792a5	0.0041373544
98	0xbc1ee6c9	-0.009698578
99	0xbccf308c	-0.025291704
100	0x3a82d465	0.0009981511
101	0xbcd22723	-0.025653427
102	0xbbcdc0e1	-0.0062790965
103	0x3c5a0a3b	0.013308103
104	0x3c8d1254	0.017220654
105	0x3b831dd2	0.0040013576
106	0xbce50868	-0.02795811
107	0xbc7774d4	-0.015103538
108	0xbcca4ffe	-0.024696346
109	0xbc6be7ff	-0.014398574
110	0x3afd14c4	0.0019308557
111	0x3bcbe9d3	0.0062229424
112	0xbc7360d0	-0.014854625
113	0xbc0795a6	-0.008275425
114	0x3c5ab99e	0.013349919
115	0x3c53f231	0.012936161
116	0x3ca140a7	0.019684149
117	0x3d390c15	0.045177538
118	0xb9baaaeb	-0.00035604028
119	0xbca8da35	-0.020611862
120	0xbc1702fe	-0.009217022
121	0x3c8587ac	0.016300045
122	0x3bed15bb	0.0072352565
123	0xbb7f8aa2	-0.0038992544
124	0xbd747d43	-0.05968977
125	0x3bf3688b	0.007428234
126	0x3cdba98d	0.026814247
127	0x3c32ab34	0.010905076

2.weight f4 [128, 128]
0	0xbd8a3f72	-0.067503825
1	0x3d195854	0.037437752
2	0xbe96dd22	-0.29465586
3	0xbcb02782	-0.021503214
4	0xbd5ca1bf	-0.05386519
5	0xbd475827	-0.048668053
6	0xbdb738f9	-0.089464135
7	0xbd81585b	-0.063156806
8	0x3e326604	0.17421728
9	0xbcb802da	-0.022462297
10	0xbdd81734	-0.10551301
11	0x3dd2a5e0	0.102855444
12	0x3cca0b5f	0.024663625
13	0xbdde2283	-0.10846426
14	0xbcda3d1b	-0.026640465
15	0xbde0b637	-0.10972255
16	0xbcffe413	-0.031236684
17	0x3e2026c8	0.15639794
18	0xbd7c7e2f	-0.061643776
19	0x3c653f86	0.013992196
20	0xbdc86892	-0.0978557
21	0xbd23d718	-0.04000005
22	0xbe14c59e	-0.1452851
23	0xbea77918	-0.32709575
24	0x3b57cf55	0.0032929976
25	0x3d85acb1	0.06527079
26	0xbdb6c40b	-0.08924111
27	0x3dbac327	0.091192536
28	0xbcf991f3	-0.030465102
29	0x3db250ff	0.08706855
30	0x3c454596	0.012040516
31	0xbd0a5927	-0.03377643
32	0xbdf7035c	-0.120611876
33	0xbc5e4e11	-0.013568417
34	0x3d24b50d	0.040211726
35	0x3d95e18d	0.07318411
36	0xbc04fd59	-0.008117043
37	0x3cfcd78d	0.030864501
38	0xbda055cb	-0.07828864
39	0x3c8a7e35	0.016905883
40	0xbda62fac	-0.081145614
41	0xbcb807bc	-0.022464626
42	0x3b95281c	0.0045519006
43	0xbe1b0e09	-0.15142073
44	0x3e032025	0.12805231
45	0xbdfadc81	-0.12249089
46	0xbdce3ffe	-0.10070799
47	0x3d87fadd	0.06639645
48	0x3d7b81a2	0.061402924
49	0xbcf923ec	-0.030412637
50	0xbd89bdf4	-0.06725684
51	0x3cf7c11e	0.030243453
52	0x3d5e082a	0.054207005
53	0x3d981067	0.074250035
54	0xb8ff164b	-0.000121635
55	0xbdad6e8d	-0.084683515
56	0x3e268b98	0.16264188
57	0x3ca695c3	0.020335084
58	0x3d7b1e73	0.061308336
59	0xbc83e9cb	-0.016102692
60	0xbc9bbe81	-0.019011738
61	0x3d49d661	0.049276713
62	0x3d2b13bc	0.041766867
63	0x3be48c7c	0.006974755
64	0xbb33c48f	-0.002743039
65	0xbdd44ebb	-0.10366579
66	0xbc838031	-0.016052337
67	0x3d044d42	0.03230024
68	0x3e186aba	0.14884463
69	0xbce6c01d	-0.028167779
70	0xbb901273	-0.0043967306
71	0x3bb21e5d	0.0054357485
72	0xbc3963dd	-0.011315313
73	0x3e36ffa7	0.17870961
74	0x3d2e4bdc	0.042552814
75	0xbdcd2a2c	-0.10017809
76	0xbb8eeb15	-0.00436152
77	0xbd45c338	-0.04828188
78	0x3dde96a7	0.108685784
79	0x3dc3b43e	0.09555863
80	0xbd8b986c	-0.068161815
81	0xbbf0c681	-0.0073478823
82	0xbdc418fd	-0.09575079
83	0x3d2195d9	0.039449546
84	0x3ba1cccc	0.004937744
85	0x3c9c1134	0.019051172
86	0x3d8f19aa	0.06987317
87	0xbd2012a0	-0.039080262
88	0xbc5d4187	-0.0135043925
89	0x3d87ae0f	0.06624996
90	0xbe13e98b	-0.14444558
91	0x3d3b4004	0.045715347
92	0x3e52e9a8	0.20596945
93	0x3cb285c1	0.021792294
94	0xbd81a59e	-0.06330417
95	0x3dc4f3f1	0.09616841
96	0x3c814160	0.015778244
97	0xbe1b6ed2	-0.15178993
98	0xbcc10109	-0.023560064
99	0x3db29008	0.08718878
100	0x3d895dc7	0.0670734
101	0xbd54bd6b	-0.051938456
102	0x3e05df4d	0.13073464
103	0xbdcf57f7	-0.101242
104	0xbe2b875b	-0.16750853
105	0xbc8ed8b2	-0.017437313
106	0x3d94265b	0.07233878
107	0x3d289839	0.041160796
108	0xbd9ea238	-0.077457845
109	0xbd22ea6f	-0.039774355
110	0xbc7df9a7	-0.015501416
111	0xbdf3ac1d	-0.118980624
112	0x3e07a41e	0.132462
113	0x3e28b36c	0.16474694
114	0xbdf9f061	-0.12204052
115	0xbd97da2f	-0.07414662
116	0xbc9949f9	-0.01871203
117	0x3d932ffb	0.07186886
118	0x3d3e6e1e	0.046491735
119	0x3de841a8	0.11340648
120	0x3d484065	0.048889536
121	0xbd57bb06	-0.052668594
122	0x3da67710	0.08128178
123	0xbd95ab5a	-0.07308073
124	0xbdb2244a	-0.08698328
125	0xbde69f81	-0.11260892
126	0x3d9afe05	0.07567982
127	0x3d54c1c1	0.05194259
128	0x3cf4a74f	0.029864935
129	0x3db77f67	0.08959847
130	0x3c8c6046	0.01713575
131	0xbdc1d683	-0.09464743
132	0xbdd5ffcc	-0.1044918
133	0x3d2ae569	0.04172269
134	0x3ce76146	0.028244626
135	0x3b86b916	0.0041114194
136	0xbc6828e8	-0.014169909
137	0xbdb1010d	-0.086427785
138	0xbdf2a66f	-0.11848151
139	0xbdbd9142	-0.09256221
140	0x3d1940fe	0.037415497
141	0xbdad5d37	-0.08465045
142	0x3c131ce6	0.008979058
143	0x3d2ad0cf	0.04170304
144	0xbcfd1413	-0.030893361
145	0x3d509aca	0.05092887
146	0x3e5be7f5	0.21475203
147	0xbd84d013	-0.064849995
148	0xbd7c654f	-0.061620053
149	0x3c161758	0.009160839
150	0x3d27b773	0.040946435
151	0xbc8fbd5a	-0.017546345
152	0xbd938088	-0.0720225
153	0x3e589cd5	0.21153577
154	0xbc521408	-0.012822159
155	0xbc17672f	-0.0092409095
156	0xbe31da6f	-0.17368482
157	0xbcaa3686	-0.020777952
158	0xbb83ae11	-0.004018553
159	0xbe32a0d6	-0.17444167
160	0xbc8d5079	-0.017250286
161	0x3c386048	0.011253424
162	0xbdaa51be	-0.08316372
163	0xbe0665b9	-0.13124742
164	0x3d9d7f08	0.07690245
165	0xbc210b53	-0.00982936
166	0xbc85b0e2	-0.016319696
167	0x3da901f2	0.08252324
168	0xbe149ef9	-0.14513768
169	0x3df9209d	0.121644236
170	0x3d052206	0.03250315
171	0x3cdb06d6	0.026736658
172	0xbd98146b	-0.074257694
173	0x3daf8d19	0.08571834
174	0xbdb00e4a	-0.085964754
175	0x3d1ad016	0.037796102
176	0x3d88e58b	0.06684407
177	0xbc113c10	-0.008864418
178	0xbd854bb0	-0.06508577
179	0x3cd39095	0.025825778
180	0xbe8250a3	-0.25452146
181	0x3d971e48	0.073788226
182	0x3d537df4	0.05163379
183	0xbd7cb8c6	-0.06169965
184	0xbd1618b6	-0.03664466
185	0xbe33dc0b	-0.17564408
186	0xbd8b2803	-0.06794741
187	0x3db57a53	0.08861222
188	0x3da2278f	0.079177015
189	0xbd77aac4	-0.06046559
190	0xbda3b572	-0.07993592
191	0xbe4c6816	-0.1996158
192	0xbdd0d81d	-0.1019747
193	0xbe1ced75	-0.15324958
194	0xbde4c7e6	-0.1117094
195	0xbdf5c53d	-0.12000511
196	0xbb88f145	-0.004179152
197	0x3da3186e	0.07963644
198	0x3b0c6224	0.00214208
199	0x3cc04594	0.023470677
200	0xbd333cf0	-0.043759286
201	0x3d8639d4	0.065539986
202	0x3e3bbaf0	0.1833303
203	0xbe43d4cd	-0.19124146
204	0x3d6f19c9	0.0583742
205	0x3c7ae61a	0.01531365
206	0x3d8787d4	0.06617704
207	0x3d4a9986	0.049462818
208	0xbdbe7639	-0.09299893
209	0x3d6f3834	0.05840321
210	0x3d5cde0f	0.05392271
211	0xbce97414	-0.028497733
212	0xbb93dda7	-0.004512507
213	0x3de674fe	0.11252783
214	0xbce94888	-0.028476968
215	0xbb948304	-0.00453222
216	0x3d799ae5	0.060938735
217	0xbdffd793	-0.124922894
218	0xbd190c9b	-0.037365537
219	0x3e3536de	0.17696711
220	0x3da74e8e	0.0816928
221	0x3a6fc411	0.00091463426
222	0x3d2e1f16	0.042510115
223	0x3d5f8024	0.054565564
224	0x3b8aa31e	0.004230871
225	0x3d9aae35	0.075527586
226	0x3d98ded1	0.07464374
227	0x3d1e4a3c	0.038645014
228	0x3e6452dd	0.22297235
229	0xbcc28980	-0.023747206
230	0xbd8e48ac	-0.06947455
231	0xbc4d27a0	-0.012521654
232	0xbd5d1d05	-0.053982753
233	0x3d6865f9	0.056737874
234	0x3de9d24f	0.11417066
235	0xbc2ba5c3	-0.010476532
236	0xbd0c36b2	-0.03423185
237	0x3d310fc1	0.043227915
238	0xbd861efb	-0.06548878
239	0x3a55ad3c	0.0008151119
240	0xbca53adc	-0.020169668
241	0x3e25c26b	0.16187446
242	0xbe0d59fb	-0.13803856
243	0x3da3d9dc	0.08000538
244	0x3df390eb	0.11892875
245	0x3e207a4b	0.15671651
246	0xbb59b46f	-0.003321912
247	0xbcd5a7de	-0.026081022
248	0xbd9f0aaa	-0.07765706
249	0xbadb639e	-0.0016738062
250	0xbb33f418	-0.0027458724
251	0x3e32cae1	0.17460205
252	0x3d9fb209	0.077976294
253	0x3e0bc830	0.13650584
254	0x3cca1fcc	0.024673365
255	0xbd9b63a5	-0.07587365

2.bias f4 [128]
0	0xbc09de9a	-0.008414889
1	0x3d2378ad	0.039910007
2	0x3b6dd058	0.0036287513
3	0xbbd6197e	-0.0065338006
4	0x3d7a4a6d	0.061106134
5	0x3d46854f	0.048466977
6	0xbd81a0aa	-0.06329472
7	0xbca8bb98	-0.020597264
8	0xbc853cbf	-0.016264318
9	0x3c934df1	0.017981501
10	0x3c932471	0.017961713
11	0xbc0a7d75	-0.008452763
12	0xbd125976	-0.035729848
13	0x3d53a2d6	0.051668964
14	0x3c7a8bbc	0.015292104
15	0xbc8bd51f	-0.017069397
16	0x3c864b09	0.016393201
17	0xbb0e9ff1	-0.0021762813
18	0xbc048b9f	-0.008089929
19	0x3b9f4526	0.004860538
20	0xbc3f6d3a	-0.0116837565
21	0x3d21c9a9	0.03949896
22	0x3ba31798	0.004977178
23	0xbb85e62e	-0.0040862774
24	0xbc4af3fd	-0.012387273
25	0x3bfef17b	0.0077802516
26	0x3c58493f	0.013201057
27	0x3cc4650e	0.023973968
28	0xbca011fb	-0.019539824
29	0xbbc19605	-0.0059077763
30	0xbc0cfcfb	-0.008605237
31	0xbc0faa44	-0.008768622
32	0x3d1157b3	0.035484027
33	0x3c87564f	0.016520647
34	0x3d1d1299	0.038347814
35	0xbd232c48	-0.03983715
36	0x3cddf2c8	0.027093306
37	0xbc27f1de	-0.010250537
38	0xbccbc96f	-0.024876324
39	0x3bfb9d92	0.007678696
40	0x3b2b4e3b	0.0026139158
41	0xbc993e35	-0.01870642
42	0x3caed1c9	0.021340268
43	0x3bd74856	0.0065699024
44	0x3d18c3a3	0.03729595
45	0x3c5cfb1e	0.013487605
46	0x39d5571f	0.00040691436
47	0xbb96842e	-0.0045933938
48	0xbc4a45c9	-0.01234574
49	0x3be21afc	0.0069001894
50	0x3bc11b26	0.005893129
51	0x3c077326	0.0082672
52	0x3ca5905c	0.020210437
53	0xbc9771af	-0.018486826
54	0xbc1f0465	-0.009705638
55	0x3c0bf9c6	0.008543437
56	0x3c1b0884	0.0094624795
57	0x3cf0ae0b	0.029379865
58	0xbc1d208b	-0.009590278
59	0xbc346ba7	-0.011011994
60	0x3c4b58de	0.012411324
61	0xbc078ab4	-0.0082728155
62	0xbc679ff3	-0.014137256
63	0x3c12aacc	0.008951854
64	0xbbbcc4cb	-0.0057607642
65	0xbd5ddac9	-0.054163728
66	0xbc380c4a	-0.011233399
67	0xbca52a1b	-0.020161679
68	0x3c80cbb8	0.01572214
69	0x3c34a2b3	0.011025119
70	0x3be4c906	0.0069819717
71	0xbcd6900f	-0.02619174
72	0xbbb6d6dd	-0.005579813
73	0xbb8da80e	-0.004323012
74	0xbd757933	-0.059930038
75	0xbc891cf0	-0.016737431
76	0xbc71137f	-0.014714121
77	0x3d1dd9cc	0.038537785
78	0xbc2be552	-0.010491686
79	0xbba60687	-0.005066696
80	0x3d0f1778	0.03493449
81	0x3d432128	0.047639042
82	0xbb872406	-0.0041241674
83	0x3caf3a63	0.021390146
84	0xbacee12f	-0.0015783663
85	0x3b0b601a	0.0021266998
86	0xbce6e7a5	-0.028186629
87	0xbd097fd3	-0.03356917
88	0x3ce3f5d1	0.027827175
89	0xbc99fba3	-0.018796748
90	0x3c20ba0a	0.00980998
91	0x3ae21fdd	0.0017251928
92	0x3c66201d	0.014045742
93	0x3c75e67d	0.015008566
94	0x3c21f0f1	0.009884105
95	0x3b228df6	0.0024803854
96	0xbd3ecfee	-0.046585016
97	0x39ac1dab	0.000328285
98	0xbcc57407	-0.024103178
99	0xbc43aeb5	-0.011943509
100	0x3ca9d7e5	0.02073283
101	0x3b4cee78	0.0031270068
102	0x3d0b3076	0.033981763
103	0x3c379503	0.011204961
104	0x3b49ddc1	0.0030802342
105	0xbce25810	-0.027629882
106	0xbb773e47	-0.003772633
107	0xbd3ca165	-0.046052355
108	0xba1e8060	-0.0006046351
109	0xbca5eb7f	-0.020253895
110	0xbd3ae6fe	-0.045630448
111	0xbb85673d	-0.004071145
112	0x3c453bf3	0.012038219
113	0xbd17eccd	-0.037091065
114	0x3ccd56db	0.02506583
115	0x3c2c55e9	0.010518529
116	0x3c046aaf	0.008082076
117	0x37cbbfd9	2.4288822e-05
118	0x3a1207ad	0.0005570602
119	0x3bc11b0c	0.005893117
120	0xbc566dfe	-0.013087748
121	0x3d008490	0.03137642
122	0xbaeb7359	-0.0017963453
123	0xbc160e1f	-0.00915864
124	0x3b542666	0.003237152
125	0x3a8767e9	0.001033065
126	0xbaf56d27	-0.0018724547
127	0xbc9f81eb	-0.01947113
