dir_save/reference_training_result/we0_critic_700.pth (torch, 133833 bytes, 4 tensors)

0.weight f4 [128, 128]
0	0x3e56ea46	0.20987806
1	0x3ce3203e	0.027725335
2	0xbdf674d4	-0.12034002
3	0x3f164de2	0.5871259
4	0x3f015b01	0.50529486
5	0xbd2708bb	-0.04077981
6	0xbe29ad24	-0.16569954
7	0xbcbc248d	-0.022966648
8	0x3e554557	0.20827232
9	0x3f1f0d0f	0.621293
10	0x3f27a205	0.654816
11	0xbd2ff809	-0.042961154
12	0x3e9c5ef7	0.30541202
13	0xbd434ac8	-0.04767874
14	0xbecaee51	-0.39634946
15	0xbee7bec2	-0.45262724
16	0x3d213456	0.039356552
17	0xbd720850	-0.05908996
18	0x3cea2320	0.028581202
19	0xbd095d1c	-0.03353606
20	0x3eab2861	0.33429244
21	0xbdd8f730	-0.10594022
22	0xbe835c46	-0.25656337
23	0x3f3dd4e0	0.74152946
24	0x3e2d2418	0.169083
25	0x3e23ff29	0.16015305
26	0xbf8905df	-1.0704917
27	0xbe92bd9c	-0.28660285
28	0xbf82c892	-1.0217459
29	0xbdaef156	-0.08542125
30	0x3e10de45	0.14147289
31	0xbe48a0bf	-0.1959257
32	0x3e14b855	0.14523442
33	0x3ee39f96	0.44457692
34	0xbdad3e64	-0.08459166
35	0x3c397bf3	0.011321056
36	0xbec65f0c	-0.3874439
37	0xbee119f9	-0.43965128
38	0x3e890825	0.26764026
39	0xbdb68aae	-0.0891317
40	0xbdc2a41e	-0.09503959
41	0x3ec2f139	0.38074663
42	0xbe08106b	-0.13287513
43	0xbe6f0236	-0.23340687
44	0xbde107c1	-0.10987807
45	0xbed86806	-0.42266864
46	0x3f3a8131	0.7285338
47	0xbd930a62	-0.07179715
48	0xbd30be60	-0.043150306
49	0x3dd8f085	0.105927505
50	0xbdd028ae	-0.10164009
51	0xbd6e7c63	-0.058224093
52	0xbea11f73	-0.31469306
53	0x3edf5237	0.43617412
54	0x3e14bcfd	0.14525218
55	0xbe815ff8	-0.2526853
56	0x3f514a6b	0.8175418
57	0x3e6f40f2	0.23364618
58	0x3d8e1d8a	0.06939228
59	0xbd85463d	-0.065075375
60	0xbe8acdfe	-0.27110285
61	0x3f5b742d	0.85724145
62	0x3f73d973	0.95253676
63	0xbea9727c	-0.33095157
64	0x3e431eee	0.19054767
65	0xbea5100e	-0.3223881
66	0xbea63f14	-0.3247
67	0xbe1d1a1d	-0.15341993
68	0x3ebd1088	0.36926675
69	0xbeee2c11	-0.46517995
70	0xbf984b01	-1.1897889
71	0x3f968ab0	1.1761074
72	0xbde86011	-0.11346448
73	0xbec9561a	-0.39323503
74	0x3e3954a2	0.18098691
75	0x3dad8ecf	0.08474504
76	0x3ebe7006	0.37194842
77	0xbfa26a92	-1.2688773
78	0xbefbe015	-0.491944
79	0xbf50161d	-0.8128374
80	0x3b95d65e	0.0045726737
81	0x3d5393d5	0.051654655
82	0xbeba9e5e	-0.3644895
83	0xbe8d46b0	-0.27592993
84	0x3e2dd86e	0.16977093
85	0xbe87a460	-0.26492596
86	0xbe774f7e	-0.24151418
87	0x3d65f310	0.056140006
88	0x3e7e7dcf	0.2485268
89	0x3ead8a73	0.3389469
90	0xbf3c03d6	-0.73443353
91	0x3d876c87	0.06612497
92	0x3b798302	0.0038072472
93	0xbdb932ed	-0.090429164
94	0xbf7fad7a	-0.9987408
95	0xbf129ee7	-0.57273716
96	0xbf3abcf6	-0.7294458
97	0x3ea453ab	0.32095084
98	0x3d23adc3	0.039960634
99	0x3ebb6c1f	0.36605927
100	0x3dee2b3d	0.11629341
101	0x3f177db4	0.5917618
102	0xbeb4ff03	-0.35350809
103	0xbdb779ef	-0.08958804
104	0xbe7beae3	-0.24601321
105	0x3ebd2fa0	0.36950397
106	0x3ed0eee5	0.40807262
107	0xbebe90e6	-0.37219924
108	0xbec93f8e	-0.393063
109	0xbdf31054	-0.11868349
110	0x3e860145	0.26172844
111	0xbcc81af3	-0.024426913
112	0x3f145e3f	0.5795631
113	0xbc6aa329	-0.014321127
114	0xbd45f369	-0.048327837
115	0x3e8789be	0.26472276
116	0x3e845b23	0.25850782
117	0x3dc48958	0.09596509
118	0xbe93e194	-0.2888304
119	0x3ecb8381	0.39748767
120	0xbe081e84	-0.13292891
121	0xbe3ad971	-0.1824701
122	0x3f540cbe	0.82831943
123	0xbef0c39d	-0.4702424
124	0xbf1cb245	-0.6120952
125	0xbb06420e	-0.002048615
126	0xbf6fce23	-0.93673915
127	0xbd4bbd43	-0.04974104
128	0xbf1471a7	-0.5798592
129	0xbd81dee5	-0.06341342
130	0xbf535cfb	-0.8256375
131	0x3eebe8cf	0.46076056
132	0x3efcf1b0	0.49403143
133	0x3dedbaa7	0.11607867
134	0xbe61e468	-0.22059786
135	0xbd5e7a54	-0.05431588
136	0x3e7626f9	0.24038304
137	0xbda8d182	-0.082430854
138	0x3e5146ea	0.20437208
139	0xbe08f7d4	-0.13375789
140	0x3e9033a9	0.28164414
141	0xbe4ede7f	-0.20202063
142	0xbd5fa81e	-0.05460369
143	0x3ed6c203	0.41944894
144	0x3e94b85f	0.29046914
145	0xbd952659	-0.07282705
146	0x3f402d75	0.7506936
147	0x3fca9fb6	1.582999
148	0xbdd93a3b	-0.1060681
149	0x3f223eea	0.6337725
150	0xbe6db97f	-0.23215292
151	0xbe232616	-0.15932497
152	0x3ed728a4	0.42023194
153	0xbefa63fc	-0.48904407
154	0x3f0b3b85	0.54387695
155	0xbdc0a442	-0.0940633
156	0xbeaba83d	-0.33526793
157	0xbeabcad0	-0.3355317
158	0xbe47d9df	-0.19516705
159	0xbe3f796f	-0.18698667
160	0x3f347c5b	0.7050225
161	0x3bd04b17	0.0063566077
162	0xbeceb95c	-0.40375793
163	0x3e2e03f4	0.16993695
164	0x3e4ab9ad	0.19797392
165	0x3e0e1748	0.13876069
166	0x3e8e1eca	0.27757865
167	0x3e134aef	0.14384054
168	0x3ed26c71	0.4109836
169	0xbddca804	-0.10774234
170	0x3d8b9107	0.06814771
171	0x3dc7be6e	0.097531185
172	0xbe3c643c	-0.18397611
173	0xbea28dbc	-0.3174876
174	0x3e6f48be	0.23367593
175	0x3e8cb779	0.2748373
176	0x3e88ef05	0.26744857
177	0xbef0ef42	-0.4705754
178	0xbd19e513	-0.037571978
179	0x3bbf5634	0.0058391336
180	0xbf0f9d91	-0.560998
181	0x3ebef120	0.3729334
182	0x3c88c0c7	0.016693486
183	0xbd949590	-0.07255089
184	0x3dc59b59	0.09648771
185	0xbf29d91a	-0.66346896
186	0xbf023489	-0.5086141
187	0xbe93d6d2	-0.28874832
188	0x3e306636	0.1722649
189	0xbd44c15e	-0.04803597
190	0xbe53000a	-0.20605484
191	0x3f68f97b	0.91005677
192	0xbed781c8	-0.42091203
193	0xbdb905aa	-0.090342835
194	0x3eb9c4cc	0.36282957
195	0xbb8a0fda	-0.0042133154
196	0x3f501578	0.8128276
197	0x3ec7899b	0.38972172
198	0xbe08c05d	-0.13354631
199	0x3eebab43	0.460291
200	0x3f4d72f2	0.8025352
201	0x3e39e2b0	0.1815288
202	0x3f346314	0.7046368
203	0x3e1ab1de	0.15106913
204	0xbf951180	-1.1645966
205	0x3eafc5ec	0.3433069
206	0xbe50458d	-0.20339032
207	0xbe9acc82	-0.30234152
208	0x3dbdc3c2	0.092658535
209	0xbeaf98a7	-0.34296152
210	0xbe8a9caf	-0.27072665
211	0x3e256cb2	0.16154745
212	0xbd0f7f30	-0.035033405
213	0x3e640cee	0.22270557
214	0x3f1137b3	0.56725615
215	0xbe68d411	-0.22737147
216	0x3de8981b	0.11357137
217	0x3ea062a6	0.31325263
218	0xbd65a585	-0.056066055
219	0xbeb50897	-0.35358116
220	0x3f1a45b2	0.60262597
221	0xbf0747d8	-0.52844
222	0x3e4f41ce	0.20239946
223	0xbe991a08	-0.29902673
224	0xbece1cc7	-0.4025633
225	0xbd999f0a	-0.075010374
226	0x3e03d575	0.12874396
227	0xbf272328	-0.6528802
228	0x3f107999	0.56435543
229	0xbf2e3089	-0.6804281
230	0x3e7f2b8c	0.24918956
231	0x3de38666	0.11109619
232	0x3f235a1f	0.6380939
233	0x3e0a08be	0.13479897
234	0x3eb79383	0.3585473
235	0xbeafb88d	-0.3432049
236	0xbe9fe188	-0.31226754
237	0x3eedc848	0.46441865
238	0xbdd463c6	-0.10370593
239	0x3ce535ac	0.027979694
240	0x3dd73468	0.105080426
241	0x3d6b97e9	0.05751792
242	0xbe988d30	-0.29795218
243	0xbd96362a	-0.0733455
244	0xbdb6b905	-0.089220084
245	0x3fabaa85	1.3411413
246	0x3ddaaec7	0.106778674
247	0x3cad359b	0.021143725
248	0x3cb5fc85	0.022215137
249	0xbe8f83d6	-0.2803027
250	0xbe766232	-0.24060896
251	0xbd7dadac	-0.061933205
252	0x3e3c6d34	0.18401033
253	0x3cc8c57a	0.024508227
254	0x3d52676f	0.051368173
255	0xbf3aead3	-0.73014563

0.bias f4 [128]
0	0x3d9454c9	0.07242734
1	0xbe02ae7e	-0.12761876
2	0x3dc0f0c4	0.094209224
3	0x3db1e4bc	0.08686206
4	0xbe3a146b	-0.18171851
5	0x3d99c2f8	0.075078905
6	0x3e881e49	0.26585606
7	0x3dee2fbb	0.116301976
8	0x3e5d4444	0.21608073
9	0x3ec53806	0.38519305
10	0xbd963735	-0.07334749
11	0x3e1d17b1	0.15341069
12	0x3e37dc8c	0.17955226
13	0xbc674a22	-0.014116796
14	0xbdb3c1c8	-0.08777195
15	0xbdad2d3b	-0.08455893
16	0x3e30d514	0.17268783
17	0xbe65eeb2	-0.22454336
18	0x3e6e8760	0.23293829
19	0xbb1f94f1	-0.002435025
20	0xbe3e0d01	-0.18559648
21	0xbdb15879	-0.08659453
22	0xbe4d9ca7	-0.2007929
23	0xbe4c612f	-0.19958948
24	0xbdf61d55	-0.120173134
25	0x3e232511	0.15932108
26	0x3e34511a	0.17609063
27	0xbea1e68f	-0.31621215
28	0x3eba0f3d	0.3633975
29	0xbd94571b	-0.072431765
30	0xbb8187dc	-0.0039529633
31	0x3d48f10a	0.049057998
32	0xbcc40348	-0.023927346
33	0xbe383579	-0.17989148
34	0xbb8a254e	-0.004215873
35	0xbda853d9	-0.08219118
36	0x3e6e8ff5	0.23297103
37	0xbd139a34	-0.03603573
38	0xbaf6acf1	-0.0018819851
39	0xbc81617e	-0.015793558
40	0x3e15be89	0.14623465
41	0xbe21337d	-0.15742297
42	0xbe1060dd	-0.1409945
43	0xbd921503	-0.07132914
44	0x3eb6400e	0.35595745
45	0xbe17255d	-0.14760347
46	0xbd3a0cff	-0.04542255
47	0xba45242d	-0.0007520344
48	0x3cd05666	0.025431823
49	0xbe4af7ad	-0.19821043
50	0xbd5e1689	-0.05422071
51	0xbbfd678c	-0.007733291
52	0x3d4924d2	0.04910738
53	0x3dff2bfe	0.12459563
54	0xbe0410a4	-0.12896973
55	0xbeabba97	-0.33540794
56	0x3de1def1	0.11028851
57	0xbe50949e	-0.20369193
58	0xbe2b2f7a	-0.1671733
59	0x3e3cb302	0.18427661
60	0xbe73af21	-0.23797275
61	0xbe96e2e3	-0.29469976
62	0x3e1a7f3f	0.15087603
63	0x3e1322a8	0.14368689
64	0x3dc47baf	0.09593903
65	0x3dd55640	0.104168415
66	0x3cd6bdaa	0.026213486
67	0x3cf3d703	0.029765612
68	0x3d543e8c	0.05181746
69	0x3da7ced1	0.08193744
70	0xbcd31ac2	-0.025769595
71	0xbd938069	-0.07202227
72	0xbd166b32	-0.036723323
73	0x3d994fab	0.074858986
74	0x3dd3467d	0.10316179
75	0x3d19a50d	0.03751092
76	0x3c76fb75	0.0150746
77	0x3e6b83a4	0.22999436
78	0xbd24af80	-0.040206432
79	0xbcf1193e	-0.029430982
80	0x3e04fd2e	0.12987205
81	0xbe064e13	-0.1311572
82	0xbb5bedc6	-0.0033558472
83	0x3dd8f5ef	0.10593783
84	0xbe1e5a29	-0.15464081
85	0xbe2625a1	-0.16225292
86	0x3e594bd7	0.21220337
87	0xbdd1d46a	-0.10245593
88	0xbe3628cc	-0.17789
89	0xbe5f8701	-0.21828844
90	0x3e503998	0.2033447
91	0x3e908bf2	0.2823177
92	0xbeae5183	-0.34046564
93	0xbe4541b0	-0.19263339
94	0x3ddb4d92	0.10708155
95	0xbdf27e0a	-0.11840446
96	0xbe488312	-0.1958125
97	0x3d80c163	0.062868856
98	0xbe062fda	-0.13104191
99	0x3e7afbea	0.2451016
100	0xbda0f2d2	-0.07858814
101	0xbe1ea826	-0.15493831
102	0x3e7fec6c	0.24992532
103	0x3dd639a6	0.10460214
104	0xbce47524	-0.027887888
105	0xbddd31b9	-0.108004995
106	0x3e939e69	0.28831795
107	0xbd7fa5d9	-0.062414024
108	0xbd15f714	-0.036612585
109	0xbd8e129f	-0.069371454
110	0x3df7c632	0.1209835
111	0x3dfb36d0	0.12266314
112	0xbdf8107c	-0.12112519
113	0x3eb5b9b1	0.35493234
114	0xbe02e7a1	-0.12783672
115	0x3cb2d0c1	0.021828057
116	0xbd147802	-0.03624726
117	0xbdce4cc1	-0.100732334
118	0x3c23f52c	0.010007184
119	0x3e48d8ee	0.19614002
120	0x3d85c5d8	0.06531876
121	0xbd3d7553	-0.046254467
122	0x3d41510d	0.047196437
123	0xbad18ce8	-0.0015987428
124	0xbe016b7b	-0.12638657
125	0xbdb1e905	-0.08687023
126	0x3c698cf7	0.0142548
127	0x3e4796d8	0.19491136

2.weight f4 [128, 128]
0	0xbcfa8833	-0.030582523
1	0xbdc20f6d	-0.094755985
2	0x3d8421c3	0.06451752
3	0xbf4abb4a	-0.7919203
4	0x3f3c9497	0.7366423
5	0x3e947d14	0.29001677
6	0xbd0eecae	-0.034893684
7	0x3c6fe4c1	0.0146419415
8	0x3f569ed5	0.8383611
9	0xbd7ebb75	-0.06219049
10	0xbf165258	-0.58719397
11	0xbce1fbae	-0.02758583
12	0x3e81c7f7	0.25347874
13	0xbecbdcb4	-0.3981682
14	0xbeecf236	-0.46278542
15	0xbd9a8ae9	-0.07546026
16	0xbebec008	-0.37255883
17	0x3ea97629	0.33097962
18	0x3ed8f795	0.4237639
19	0x3fc6ac27	1.5521287
20	0xbcfbfb9e	-0.030759629
21	0x3f3baf0d	0.7331398
22	0x3dc8d111	0.09805501
23	0xbe0913ca	-0.13386455
24	0xbdd47c17	-0.10375231
25	0x3e90ec13	0.2830511
26	0xbee271c5	-0.44227424
27	0x3ecc35d7	0.39884827
28	0xbe84d117	-0.25940773
29	0xbf37459d	-0.71590596
30	0xbe8bb345	-0.2728521
31	0xbf1268a2	-0.57190907
32	0xbf592509	-0.84822136
33	0x3e830cda	0.25595742
34	0xbeb08990	-0.34479952
35	0xbe451030	-0.19244456
36	0xbd8173a3	-0.06320884
37	0xbf3ec7ca	-0.74523604
38	0x3e362c10	0.17790246
39	0x3ed1c3b5	0.40969625
40	0xbf2382f6	-0.63871706
41	0xbf0a5ae2	-0.54044926
42	0x3ef20682	0.4727059
43	0xbf091c4f	-0.5355882
44	0xbe936f77	-0.28795978
45	0x3ee9bb31	0.45650628
46	0xbf3d6e60	-0.73996544
47	0xbed22aa9	-0.41048172
48	0xbee8505f	-0.45373818
49	0x3f062e21	0.5241414
50	0xbec2b9c7	-0.38032362
51	0xbeb2221f	-0.34791657
52	0x3da098bc	0.07841632
53	0xbdc02269	-0.09381563
54	0x3e5094a2	0.20369199
55	0x3f094341	0.53618246
56	0xbe0608ed	-0.13089342
57	0xbf22bffc	-0.63574195
58	0x3e5cd435	0.21565326
59	0x3e257ca8	0.16160834
60	0xbed7e5ed	-0.42167607
61	0x3ed65006	0.41857928
62	0x3e930a6a	0.28718883
63	0x3f58a764	0.8463042
64	0xbe4e24f6	-0.20131287
65	0xbe726a1a	-0.23673287
66	0xbd1425e4	-0.036168948
67	0x3f6477d8	0.8924537
68	0x3eb385b7	0.35062954
69	0xbf5ace74	-0.8547127
70	0xbe401869	-0.18759312
71	0x3d93cf5e	0.072172865
72	0xbfacd9c4	-1.3503957
73	0x3e2f2f04	0.17107779
74	0xbf0fc04f	-0.56152815
75	0xbeff97d4	-0.49920523
76	0xbfa7f194	-1.3120599
77	0xbeac2110	-0.33618975
78	0x3e0e8692	0.13918522
79	0xbf04976d	-0.5179356
80	0xbe62f76b	-0.22164695
81	0x3d889e6a	0.0667084
82	0xbe567275	-0.209421
83	0x3e83355e	0.25626653
84	0x3e65d820	0.22445726
85	0xbe29d552	-0.16585281
86	0xbe34ca77	-0.17655359
87	0xbf27c8b9	-0.65540653
88	0x3f00c195	0.5029538
89	0x3e846455	0.25857797
90	0xbe866f38	-0.26256728
91	0xbe5de9dd	-0.21671243
92	0x3e317d7f	0.17333029
93	0x3e9fc853	0.31207523
94	0x3ecf8912	0.40534264
95	0x3e26046d	0.16212626
96	0xbedb0eb4	-0.42784655
97	0x3f7940ad	0.9736431
98	0x3e9df6ec	0.3085245
99	0xbd192c26	-0.03739562
100	0xbf436006	-0.76318395
101	0x3f275f14	0.6537945
102	0xbe3add0a	-0.18248382
103	0x3c921c92	0.017835889
104	0xbe728c62	-0.23686364
105	0x3d7ae825	0.061256547
106	0xbe1a51d6	-0.1507028
107	0xbef3832f	-0.47561023
108	0xbf781040	-0.96899796
109	0xbce5d2af	-0.028054563
110	0x3ed97fbd	0.4248027
111	0xbe2fff01	-0.1718712
112	0xbfabbd1d	-1.3417088
113	0xbeb75633	-0.35807952
114	0xbef0c26d	-0.47023335
115	0x3f8b9399	1.0904418
116	0x3ec36dc4	0.38169682
117	0xbe25c326	-0.16187724
118	0x3ee844de	0.45365041
119	0x3f0eab88	0.55730486
120	0xbe087308	-0.13325131
121	0xbf38def1	-0.7221518
122	0x3e23e745	0.16006191
123	0xbf248392	-0.6426326
124	0x3e831acc	0.25606382
125	0xbd4ae9f5	-0.049539525
126	0xbf0cf80a	-0.5506598
127	0x3e14b59e	0.14522406
128	0x3efdcc45	0.49569908
129	0x3e29b8a4	0.16574341
130	0xbea228f3	-0.31671867
131	0x3fc6bf7d	1.5527188
132	0xbe79de86	-0.24401292
133	0xbf4f07c9	-0.80871254
134	0x3f479d20	0.7797413
135	0x3f1516a4	0.5823767
136	0x3e90379f	0.28167436
137	0x3e3fa41b	0.18714945
138	0x3eedf609	0.46476772
139	0xbd7e0786	-0.062018894
140	0xbf734e4a	-0.95041335
141	0x3eead043	0.45862016
142	0x3f81c0a7	1.0136918
143	0x3e21c1f6	0.15796646
144	0x3f467d6b	0.7753512
145	0xbf2fcfb0	-0.6867628
146	0xbe8c053a	-0.27347738
147	0xbf77c942	-0.9679147
148	0x3e9c461a	0.30522233
149	0xbf6e8c45	-0.93182784
150	0xbdb93950	-0.090441346
151	0xbefc1992	-0.4923826
152	0x3f273964	0.65321946
153	0xbe80c4bc	-0.25150096
154	0x3e4601d1	0.1933663
155	0x3f249025	0.6428245
156	0xbeb2b083	-0.34900293
157	0x3e3ca6b1	0.18422963
158	0x3e342135	0.17590792
159	0xbf13eed1	-0.5778628
160	0x3ed07908	0.4071734
161	0x3e343ee5	0.17602117
162	0x3ea36e65	0.31920162
163	0x3ee92be1	0.4554129
164	0xbdfd5647	-0.12369972
165	0xbe43736c	-0.19086999
166	0xbe33cdd4	-0.17558986
167	0x3f3cbb53	0.73723334
168	0x3f3138c6	0.69227254
169	0x3ef5e0cd	0.48023072
170	0xbdfa13e9	-0.12210829
171	0x3f4d6ca7	0.80243915
172	0xbf0e5796	-0.55602396
173	0x3e2a55cd	0.16634293
174	0xba91b11c	-0.0011115405
175	0x3f1a6bd3	0.60320777
176	0x3e409258	0.18805826
177	0xbeae81b6	-0.34083337
178	0x3edac787	0.42730352
179	0x3d3f4570	0.04669708
180	0x3dfe014e	0.124025926
181	0xbf1789cd	-0.5919464
182	0x3f059496	0.5217985
183	0x3e83c708	0.25737786
184	0xbf187af8	-0.59562635
185	0x3eab8d4a	0.33506233
186	0xbe54e0ef	-0.2078893
187	0x3ea9dd47	0.33176634
188	0x3e19fba5	0.15037401
189	0x3eb65797	0.356137
190	0xbea228a5	-0.31671634
191	0xbeab713e	-0.33484834
192	0x3f1e4805	0.61828643
193	0x3f084a82	0.5323869
194	0xbef80dc8	-0.48448014
195	0x3f009ffd	0.5024412
196	0xbf2cade4	-0.67452836
197	0x3f49bce5	0.78803855
198	0x3e83a446	0.25711268
199	0x3f852b6b	1.0403875
200	0xbf08ef6a	-0.53490317
201	0xbe032f54	-0.12811023
202	0x3f2490c2	0.6428338
203	0x3bd5d00d	0.0065250457
204	0x3ef1b6d3	0.47209796
205	0x3e6807ed	0.22659273
206	0xbf6b8394	-0.9199765
207	0x3ea77b9c	0.32711494
208	0x3eb36a19	0.35041884
209	0xbc0c0049	-0.00854499
210	0x3eb6a22c	0.35670602
211	0xbf41d9f6	-0.75723207
212	0xbe49454a	-0.19655338
213	0xbf0d33f9	-0.5515743
214	0xbef7f6fb	-0.4843062
215	0x3f793b7e	0.973564
216	0x3bef1c49	0.007297073
217	0xbeb47fa5	-0.35253635
218	0xbf2ebe6f	-0.6825933
219	0xbba9fe51	-0.0051877876
220	0x3e1c560e	0.15267202
221	0xbde9d6e7	-0.114179425
222	0x3f3a2e2e	0.72726715
223	0xbe83d038	-0.25744796
224	0x3f08cc50	0.53436756
225	0x3d87462d	0.06605182
226	0xbedbcd7e	-0.42930216
227	0x3ea9b958	0.3314922
228	0x3f09175c	0.5355127
229	0x3c2d553f	0.010579406
230	0x3e71f29e	0.23627707
231	0x3c88b6b3	0.01668868
232	0xbe9b5651	-0.30339292
233	0xbe8d5c4a	-0.27609473
234	0xbedb0273	-0.42775306
235	0x3ed63ea3	0.41844663
236	0xbf447539	-0.7674137
237	0x3f191521	0.59797865
238	0xbf83d56b	-1.0299505
239	0xbeda9044	-0.4268819
240	0x3f101346	0.5627941
241	0xbe6ce628	-0.23134673
242	0x3e93d12f	0.28870532
243	0xbeeecc25	-0.46640125
244	0xbe4d0346	-0.2002078
245	0xbe6ecd8e	-0.233206
246	0xbefa192a	-0.48847324
247	0xbe01f761	-0.12692024
248	0x3f106905	0.5641025
249	0x3eb81163	0.35950765
250	0xbf3fbeb1	-0.74900347
251	0x3f3924f5	0.72322017
252	0x3e203b7d	0.15647693
253	0x3f41a031	0.7563506
254	0x3ef4067b	0.47661194
255	0xbe284f25	-0.16436441

2.bias f4 [128]
0	0xbe05a7f6	-0.13052353
1	0xbe27e611	-0.16396357
2	0xbed0e774	-0.40801585
3	0xbde8af23	-0.1136153
4	0xbdbfdebe	-0.093686566
5	0x3e90c9d9	0.28278998
6	0x3d68d3c1	0.05684257
7	0x3e1e407a	0.15454283
8	0xbe3ab861	-0.18234397
9	0x3dbf1d9a	0.09331818
10	0xbe426340	-0.18983173
11	0xbe8f0d39	-0.27939776
12	0xbd94338e	-0.07236396
13	0x3dac582a	0.084152535
14	0x3e411c00	0.18858337
15	0xbdc2a49a	-0.095040515
16	0xbdc6faf1	-0.09715832
17	0xbe8b2b38	-0.2718141
18	0x3d684d8d	0.056714583
19	0xbe1c39be	-0.15256402
20	0x3e70773b	0.23482983
21	0xbc94e76f	-0.018176762
22	0xbd02ba6d	-0.03191607
23	0xbd7fb1c9	-0.06242541
24	0x3d8035d3	0.06260266
25	0x3e8eaea0	0.27867603
26	0xbeaf7ce9	-0.34274986
27	0xbea03b2e	-0.3129515
28	0xbc5bc9d9	-0.013414823
29	0xbe4f01de	-0.20215556
30	0x3d58a907	0.052895572
31	0x3e77e534	0.24208528
32	0x3de53db6	0.11193411
33	0xbd45b4ab	-0.048268
34	0xbd97ebb6	-0.07418005
35	0x3e841c8c	0.2580303
36	0xbec3c484	-0.38235867
37	0xbcc3c162	-0.023895923
38	0x3e96d60a	0.29460174
39	0x3d1f9228	0.038957745
40	0x3e682553	0.22670488
41	0xbdfe1200	-0.12405777
42	0x3e251b75	0.16123755
43	0x3ecea947	0.40363523
44	0xbd0acf7d	-0.033889282
45	0xbdd24a83	-0.10268118
46	0xbc2e3eed	-0.01063512
47	0xbe839fba	-0.257078
48	0xbeabe0c2	-0.33569914
49	0xbe133fa8	-0.14379752
50	0xbe28ba62	-0.1647735
51	0xbbb0ab45	-0.0053915107
52	0xbd29ff3e	-0.041503184
53	0xbc55718e	-0.013027562
54	0x3debfa0d	0.11522303
55	0xbca465d0	-0.02006808
56	0xbe85763a	-0.26066762
57	0xbe290e94	-0.16509467
58	0x3e1cc595	0.15309747
59	0x3dd02ccd	0.10164795
60	0xbe724ece	-0.23662874
61	0x3de87c4c	0.11351833
62	0x3e4a7d8c	0.19774455
63	0x3c4656c1	0.012105645
64	0xbdcd2bf7	-0.10018151
65	0x3e87534a	0.26430732
66	0xbd4c82d9	-0.049929474
67	0xbe25f6b9	-0.16207398
68	0xbd84a9b8	-0.06477684
69	0xbeb1d4cb	-0.3473266
70	0x3e0bb192	0.13641956
71	0xbe1f6498	-0.15565717
72	0x3e87651e	0.26444334
73	0x3dc0a811	0.09407056
74	0x3d5f9b67	0.054591563
75	0x3e5fbeae	0.21850082
76	0xbe0ff25e	-0.140573
77	0xbe053444	-0.13008219
78	0x3c6d7b03	0.01449466
79	0xbde2f5a6	-0.1108201
80	0xbe11432d	-0.14185782
81	0x3e3312e5	0.17487676
82	0x3e37a0a0	0.17932367
83	0xbdd4a949	-0.10383851
84	0x3db691dc	0.08914539
85	0x3e43cf4c	0.19122046
86	0x3d1003f9	0.03516004
87	0xbe95ac15	-0.2923285
88	0xbe36f3ea	-0.17866483
89	0xbe397e97	-0.18114696
90	0x3e051487	0.12996112
91	0xbd942c5c	-0.072350234
92	0x3e9e0726	0.3086483
93	0xbe312e83	-0.17302899
94	0x3e2d06a2	0.16897061
95	0x3da5b7a7	0.080916695
96	0xbd8e09a0	-0.069354296
97	0xbe90c090	-0.28271914
98	0xbc3daa2e	-0.0115762185
99	0xbeab4882	-0.33453757
100	0xbdfa9f15	-0.12237374
101	0xbe9fe73a	-0.312311
102	0xbdd6cbce	-0.104880914
103	0x3dfc1b34	0.12309876
104	0x3e4f58d5	0.2024873
105	0xbd3bed70	-0.045880735
106	0x3e062150	0.13098645
107	0x3dd6308b	0.104584776
108	0x3d9040ad	0.07043586
109	0xbe897409	-0.2684634
110	0x3e2c623a	0.16834345
111	0x3e2a8db8	0.16655624
112	0x3d42c88d	0.04755454
113	0x3e353541	0.17696096
114	0x3eb368ba	0.35040838
115	0xbd1ea2a0	-0.03872931
116	0x3cb3296c	0.021870337
117	0x3ba31ae5	0.0049775713
118	0x3ea484d1	0.3213258
119	0x3dc2cb3a	0.09511419
120	0x3de7674c	0.11298999
121	0xbe4a40e3	-0.19751315
122	0xbb456392	-0.0030119163
123	0x3cbc5542	0.022989873
124	0x3e9582ef	0.29201457
125	0x3e39aa1c	0.18131298
126	0x3e57ee97	0.21087109
127	0xbd8015fa	-0.06254192
