dir_save/reference_training_result/we0_critic_final.pth (torch, 133845 bytes, 4 tensors)

0.weight f4 [128, 128]
00000000: b480 8e3e 2139 0bbc a5a4 753e e427 193f
00000010: 1a4a 2c3e df1d 2b3f bbf4 debd 5886 e0ba
00000020: e807 6f3e 8c1d 4f3f 7880 333f 1cbb f3bc
00000030: 37f8 283f e43a 1c3e 08e4 61bf 97af a4bf
00000040: 70cc af3c ea9b d13e f25b 59be 27d7 ffbe
00000050: ddae 47be b8e3 26be 4f4a 0b3f 79d9 323f
00000060: ddcc ee3c 4662 7b3e 120f 76bf 0a33 babf
00000070: 9201 6bbf d673 16be 1542 843e c101 9abe
00000080: fdde 293e 4e4c 2d3e dee4 0ebe 6fe9 16be
00000090: 1891 52be 2219 c1be 9f8f 4dbd b15c 843d
000000a0: a6b8 b9bd e80e f13e 4fce 40be 2573 313e
000000b0: 8a3c 23be b34d 55be f646 9c3f f837 eebd
000000c0: 2210 b2bc 5210 4a3e b1ea 233e 81e2 e8bd
000000d0: e042 20be 1e65 3f3f da10 46be 9829 61bf
000000e0: b73c 2c3f 313c e83e 4849 e23d e040 803d
000000f0: 275c b0be f3aa 5c3f bbbf 8f3f 4882 14bf
00000100: e4e4 b3bc 8644 7b3d 5d7f 17bf b3dc 0abe
00000110: b050 373f 723f 25be ff42 9fbf 50b7 e03f
00000120: 35c3 60be d058 88bc c5de ba3e a7d5 15bf
00000130: ab0b 053f 9242 5cbf 43cb 65be 69ac 48bf
00000140: e83c a43d 6b83 1d3f efa0 d9be 587f a2bd
00000150: 18a1 223f f54b 08bf 7a3b c0be 91b7 263e
00000160: 465b 3c3e b700 82bc 76a3 72bf 9e20 343d
00000170: a8b2 15be f21b 513e 4d3c adbf 89cf 16bf
00000180: daea a7be 5123 a43d 1524 0fbf 8e07 e23e
00000190: d004 7a3d ff99 5c3f 86cb 94be c3ef adbe
000001a0: df35 9abe 2f8d 263f 201c f83e b17d 52bf
000001b0: 7263 fcbe b8bb 00bd ddeb 683d a199 203d
000001c0: 2e7c 283f f256 673b bfb4 513e c138 833e
000001d0: fa5e 273f 5f67 69bc 3ca9 3dbf a109 a03e
000001e0: b852 7abe 4a81 f6be adef 053f 6a94 3ebf
000001f0: 22ec 00bf 8baa 26bc d618 86bf cee1 a9be
00000200: ff63 fdbe e1b6 91be 8e61 76bf 346f c03e
00000210: 726e 913f e73a db3e ba8f 11be 57ab 52be
00000220: 0d32 8b3d 52fc 74be bb22 673e d38e bfbf
00000230: 9d39 353f 2df7 e0bc 26aa 39bf 32a9 af3f
00000240: ef3c 6ebe 520e d1bd 0b46 543f 43cc b93f
00000250: fdbc e33d 1f4e 173f f35e 273d 2812 02bf
00000260: 76eb 043f c51d d4be f41b 5c3f f2a5 f3be
00000270: 04e0 02bf ff25 fcbe c649 b73e e441 b0be
00000280: 96d1 813d 7b4f acbe dee9 c2be 6ffc c43e
00000290: ef35 693e d758 7d3e a5fd f7be e962 a43d
000002a0: f19d fa3d cffa 3abe b331 993e 4f90 c13d
000002b0: fece 3e3e c150 2dbf 2bb6 b33e 59d6 fa3e
000002c0: 256a 1d3f 7e08 5bbf 278e 5abd f5b3 afbd
000002d0: 73e6 33bf e24b b63e 1831 3ebe 5684 4abe
000002e0: 5993 e0be 8ab2 17bf 4b36 37bf 1c71 83be
000002f0: f3ea 023f 5231 29be ef32 03bf b303 803f
00000300: 4ac1 963e 1f1b 4d3e b5e8 8bbe 38e2 423e
00000310: a150 0b40 9584 b3be 4a9e b6bd d66e 013e
00000320: f881 5d3f 10a7 b33e 4af0 553f 6461 44be
00000330: 5375 8fbf f6b5 ec3e e2af f33d 7b5f 7abe
00000340: 02b4 703e d3e4 773d 985a e0be f6a2 783e
00000350: f252 533f fd90 97be bae4 ca3e 697f a1bd
00000360: 6186 853e ba26 8f3e 5310 56bf 2655 81be
00000370: 1a06 af3e 1691 d5be 81a1 cdbe 8b97 7cbd
00000380: a9ef f6be d3ed 7dbe 1c30 b03a 09a3 76bf
00000390: 2331 cc3e 4166 30bf dce8 bf3e f29a 613c
000003a0: c1a5 113f 1d44 fe3e f4a9 22bf 257a d13e
000003b0: b8d7 8dbe f6af 023f 1b20 8bb9 73f7 243e
000003c0: a40d bc3c aa5c 0e3f fcf4 8bbc b560 a4be
000003d0: 69f7 0f3d 295b 8b3f 2afa e93e 975b 3abe
000003e0: b63a 60be fbcf 9abe f557 9ebe d885 88be
000003f0: 0109 dc3e 6d41 b8bd b972 143f 9c8a 81bf
0.27832568 -0.008497507 0.23988588 0.59826493 0.16825143 0.66842455 -0.108865224 -0.0017129881
0.2334286 0.8090446 0.701179 -0.029752307 0.66003746 0.1525684 -0.88238573 -1.2866086
0.021459788 0.40939265 -0.2122648 -0.49968836 -0.19500299 -0.16297805 0.5441026 0.69863087
0.02915042 0.24549207 -0.96116745 -1.4546826 -0.9179927 -0.14692625 0.25831667 -0.30079463
0.1658897 0.16923639 -0.13954493 -0.14737485 -0.20563161 -0.37714487 -0.050185796 0.06462992
-0.09068422 0.47081685 -0.188287 0.1732908 -0.15941063 -0.20830421 1.2209156 -0.11631769
-0.021736208 0.19732788 0.16007496 -0.11371327 -0.15650511 0.7476367 -0.19342366 -0.8795409
0.67280143 0.45358422 0.110491335 0.06262374 -0.34445307 0.8619835 1.1230386 -0.58011293
-0.02195973 0.061344646 -0.59178716 -0.13560753 0.71607494 -0.16137484 -1.244232 1.7555943
-0.21949466 -0.016643912 0.36498085 -0.5852913 0.5197093 -0.8603908 -0.2244082 -0.7838808
0.080194294 0.6152865 -0.42505595 -0.07934445 0.6352706 -0.532409 -0.37545377 0.16280963
0.18394193 -0.015869481 -0.9478067 0.04397642 -0.14618933 0.20420817 -1.3534027 -0.58910424
-0.32796365 0.080145486 -0.5591443 0.4414639 0.061039746 0.8617248 -0.29061526 -0.33971986
-0.30119225 0.6505918 0.48458958 -0.8222304 -0.4929462 -0.031429023 0.05686556 0.039209012
0.65814483 0.0035299626 0.20479105 0.25629237 0.653793 -0.014245837 -0.74086356 0.31257346
-0.24445617 -0.48145515 0.5231884 -0.7444521 -0.5036031 -0.010172497 -1.0476329 -0.33180088
-0.49490353 -0.28459838 -0.96242607 0.3758484 1.136183 0.42818376 -0.14214984 -0.20573173
0.06796656 -0.23924378 0.22571842 -1.4965461 0.70791036 -0.027461613 -0.7252525 1.3723509
-0.23265432 -0.102078095 0.8291938 1.4515461 0.11120031 0.5910358 0.040862035 -0.50808954
0.51921785 -0.41428962 0.85980153 -0.47587544 -0.5112307 -0.4924774 0.35798472 -0.3442527
0.063388035 -0.3365439 -0.38069052 0.38473842 0.2277448 0.24740921 -0.48435703 0.08026678
0.12237156 -0.18259738 0.2992073 0.09451353 0.18633649 -0.67701346 0.3509992 0.4899166
0.6149009 -0.85559833 -0.053358223 -0.08579246 -0.7027351 0.3560477 -0.18573415 -0.19777045
-0.43862417 -0.59256804 -0.7156722 -0.25672233 0.51139754 -0.1652272 -0.51249593 1.0001129
0.29444343 0.20029877 -0.2732598 0.19031608 2.1767962 -0.3506209 -0.0891691 0.12639937
0.8652644 0.35088396 0.83569777 -0.19177777 -1.120768 0.46232575 0.11898781 -0.24450485
0.23506168 0.06052096 -0.43819118 0.24280915 0.8254844 -0.29602805 0.3962763 -0.0788563
0.26079085 0.27959234 -0.8361866 -0.25260276 0.34184343 -0.41712254 -0.4016228 -0.06166796
-0.4822972 -0.24797754 0.0013442072 -0.9634252 0.39881238 -0.6890603 0.37482345 0.013769852
0.56893545 0.4966134 -0.6354058 0.409135 -0.27703643 0.51049745 -0.00026536066 0.1611002
0.022955723 0.55610144 -0.017084591 -0.32105032 0.035148058 1.0887195 0.45698673 -0.18199001
-0.21897396 -0.30236802 -0.3092648 -0.26664615 0.4297562 -0.08996854 0.5798755 -1.0120425

0.bias f4 [128]
00000000: 23eb 323e 62be 2fbd 36dc 263e 98d2 863e
00000010: 2880 95bd 207f 18be 4549 f53e ce39 5e3e
00000020: dfe6 e13b c752 943e ff81 c0bd 52ea a63e
00000030: 2cfa 3b3e 7dcf 75bd cff1 323e 91c7 44be
00000040: ea43 8b3e d0e5 85be c11e a73e 38ea eebc
00000050: b0cc dabe 220c 233d d240 e03d d964 b1be
00000060: 5060 35be eb94 133e 1381 17be a503 81be
00000070: aab4 9d3e c569 c1be 5e39 073e 4898 86bb
00000080: bba0 a33c 8764 ccbd fa1d a2bd c172 e73d
00000090: 1607 183e d6d3 703d 9fca 85be f03c 333d
000000a0: 51d9 213e cb22 f3bb f0c3 7abe c1d3 99bd
000000b0: 8739 ba3e 5b5e fbbd f4eb 11be 78b4 f7bd
000000c0: 4320 683e f9ce 0fbe 9bc6 08be 6ea4 313e
000000d0: 4837 2a3e 8925 2abe 4cb3 5fbe b78e f4be
000000e0: 0fc5 b33e 0e6a 30be 54f9 38be 00a6 08be
000000f0: 69fe 47be fa77 b1be 6721 6bbe f375 753e
00000100: 326c 1b3e f5c6 893e 7f05 603d 63a2 9b3e
00000110: 050f fd3d adc3 383d a1e4 263e 901c 3bbd
00000120: 252f 75be 8a6e 3bbe a0dd aebb 0da1 103e
00000130: eca5 023e dfe8 1d3e d136 36bc f063 633d
00000140: 956f 603e 1699 20bd 14a0 6dbe 24b4 0b3e
00000150: ec7a 87be 421a 30be fafe 0c3e 6581 003e
00000160: 4a8e 2cbe 0385 abbe 8a22 243e b5b6 813e
00000170: beb4 dbbe 0e87 16be e989 6f3e 8115 f1bd
00000180: 902d e6be 8cb9 4a3d 87e4 6bbe 634f 543e
00000190: 506d cdbd 4e0a f83d 9e0b 673e 4878 473e
000001a0: cffd bbbd 53e4 21be 9153 633e c2d4 143e
000001b0: 8cda d8bd 197b b63c e358 473e 2db9 a7bd
000001c0: d080 73bd 5a36 a23e 686a adbd a367 e0bc
000001d0: d06c 16be 9c8f 8ebe e727 c23d 3755 ee3d
000001e0: 0209 7d3d a418 acbd 7071 413e eedc ac3c
000001f0: 883e 9d3d 3f83 0bbe 7799 973e 7352 833e
0.1747251 -0.042906173 0.16294941 0.26332545 -0.072998345 -0.14892244 0.47907463 0.21701738
0.006893977 0.28969404 -0.09399795 0.32600647 0.18357152 -0.06001233 0.17475055 -0.19216754
0.27200252 -0.26151896 0.3264065 -0.029164419 -0.4273429 0.039806493 0.109498635 -0.34647253
-0.17712522 0.14412276 -0.14795332 -0.25198093 0.30801898 -0.37776008 0.13205478 -0.004107509
0.019974103 -0.099801116 -0.07915874 0.113011844 0.14846453 0.058795772 -0.2613115 0.043759286
0.15805556 -0.007419919 -0.24488807 -0.07511092 0.36372015 -0.12273856 -0.14250165 -0.120949686
0.22668557 -0.14043798 -0.13357012 0.17347881 0.1662265 -0.16615881 -0.2184574 -0.47765133
0.3511128 -0.17227957 -0.18063861 -0.13344574 -0.19530644 -0.34661847 -0.2296196 0.23970775
0.15177992 0.26909605 0.05469274 0.3039733 0.123563804 0.045108486 0.16298153 -0.045681536
-0.23943765 -0.18303886 -0.0053364784 0.14123936 0.12758607 0.15420865 -0.011121468 0.05551523
0.21917565 -0.039208494 -0.23205596 0.13642937 -0.2646097 -0.17197517 0.13769141 0.1254936
-0.16851154 -0.33499917 0.160288 0.25334707 -0.42911333 -0.14699957 0.23392452 -0.1177168
-0.44956636 0.049493358 -0.23036395 0.20733409 -0.10030615 0.121113405 0.22563025 0.19479477
-0.091792695 -0.15809755 0.22199847 0.14534286 -0.105885595 0.022275494 0.19467501 -0.08189616
-0.059449017 0.31682092 -0.08467561 -0.027393168 -0.14689946 -0.2784394 0.09480267 0.11637347
0.06177617 -0.08403137 0.18890929 0.021101441 0.076779425 -0.13624285 0.29609272 0.2564884

2.weight f4 [128, 128]
00000000: c167 19bf c5f4 ad3d 8149 09be 3756 eabe
00000010: 23e6 413f 4a5f 033e c601 9abe 2282 6a3c
00000020: 593e 223f 3130 70be 5b36 cdbe 80e8 5abe
00000030: b881 a23e 2081 66bf 664a 32bf a933 3e3d
00000040: 4d28 e2be ed6e 0e3f 314b 363e 838d 643f
00000050: 4489 4d3e 2bd5 913f 57a8 a73e a0fc b03d
00000060: 0ffb 21bf dc1e 583e 37a8 82bf 5377 0d3f
00000070: f62b 06bf c917 19bf eb55 d3be 43d7 52bf
00000080: 551c 96bf 10ed dc3e 7a31 e7be 69dc fd3c
00000090: eec8 94be 95db 5ebf 7704 a83e 71d3 29bd
000000a0: 9459 4cbf e8d1 16bf 373b 323f 509a c2be
000000b0: 1f8a f2be 6183 2a3f 49e3 22bf 84eb 11be
000000c0: a7fe dabe 5d0c 543f bcc0 4fbe 306e bebe
000000d0: 0447 27be 45f5 61be 5d31 d73e 7efc 7e3f
000000e0: 156b 6c3d dcca ccbe 999d d33e 6563 25bd
000000f0: 3128 5abe f75c 0e3f a7ec b13d 4f00 483f
00000100: 408e 3dbe abc7 b2be 7c55 3dbe b949 093f
00000110: c6bf 7b3e 2ac5 6dbf c97f e5bd 6fbd 693e
00000120: bc92 99bf 73e3 243f eb1f 30bf c844 41bf
00000130: d8f5 96bf a103 1fbf da92 a23e 95c1 59bf
00000140: d44e e7be 9992 2c3d 8217 bcbe ad96 ea3c
00000150: 3415 9d3e 0557 df3e 8072 34be 5a67 31bf
00000160: 26f6 1e3f 3db0 cc3e e1a5 46be 8e54 ccbe
00000170: e0ce cc3e 2d2b 1b3f 260d 813e 3b03 c73e
00000180: 28bd 60be 7e74 8c3f 32d7 083f aeb5 a8be
00000190: 0916 04bf dd8c 463f f4f5 08bf 5dcc 56be
000001a0: b2ad fabc 75d5 e5bd c4a8 e7bd a52e 32bf
000001b0: 9b08 a7be 288c b13e d314 d13e b5ab 1bbb
000001c0: 0eb5 9cbf 1e63 e9be 30cf 1ebd 27af 833f
000001d0: 0be2 c43e 108e b9bd bed3 8f3d 25bd b13e
000001e0: 9001 b0be 035a 03bf fe7c 213f a35d 30bf
000001f0: eced 683e 287d cf3c 4689 45be febf a8bd
00000200: 6e4c 6c3f 461e 913d d2a6 3ebe b217 903f
00000210: 7cbc a0be fa84 00bf 2530 3e3f 739a 583f
00000220: 6da5 0c3e 900f ed3e 70f7 3d3f 3560 b2be
00000230: 35bf 86bf aecf 6c3f 210f 903f 03ab bdbc
00000240: 64de 973f ffd5 f1be f6a1 11bf a026 04bf
00000250: c1cb ee3e 73c8 c6bf 2f3b d9be 2fdc b9be
00000260: 31f3 623f 6459 86be 1062 473f 810c 0a3f
00000270: 82ba 64bd 3bf8 8f3e a319 813d 21e5 cfbf
00000280: 1ae4 123f 8e22 b03d 925e 143f 39ba 513f
00000290: 03a1 c8be 8196 0c3f 764f 1fbd 32c0 723f
000002a0: 52d8 413e 4a85 bb3e d756 233e 3fd5 b93e
000002b0: 4ba6 6abf 9079 3f3f a227 ed3e e67e da3e
000002c0: 5bb7 f23d d178 0bbf a484 2a3f 1514 9abd
000002d0: e5e8 4dbc 7f28 36bf c2e9 113f 88d0 f2be
000002e0: cd68 aebe d85c 113f 8fd5 a1bd a779 1d3f
000002f0: 10aa 803e c296 143f 4737 18bd e50c dcbe
00000300: 0acf 0a3f 4e02 003f 8cf1 b1be 9bd3 153f
00000310: 4e42 62bf 9853 493f 3323 823e bef9 113f
00000320: 2118 0dbf ccf8 bdbe ed8a c43e c725 5e3e
00000330: 59be 243f 8afe 053f 7f9a 3dbf 3357 1a3f
00000340: b66b b63e e135 20be 5dbf 6d3f 54fd 6cbf
00000350: abea 67be 472e c9be 082b 14bf 0ccf 3c3f
00000360: f3f9 86be d686 2cbf 7549 f0be 88a9 44be
00000370: b181 a63e 29c9 a13e 538d 563f aec6 9cbe
00000380: 17dc 3c3f ec43 0fbf 9de5 a1be 71d9 d43d
00000390: 7b55 7f3f 8784 5abe 381e 293e 2998 1fbe
000003a0: f4fa 56be 17ab aabc 8e53 3bbf fd51 893e
000003b0: 711e d8be 9661 ac3e 03fd f3be 57de 35bf
000003c0: 6d96 273f f6cf 56bf 91d8 c63e bf10 17bf
000003d0: 3d50 3bbf c54e 21bf 235b 33bf ce6c 98be
000003e0: 5657 e43e 735a f5be 63a5 6dbf a6b6 623f
000003f0: 2b99 743f 8c0a 6e3f e6bf c13e 8917 bdbe
-0.5992394 0.08493952 -0.13406946 -0.45768902 0.75741786 0.12829319 -0.30079478 0.014313253
0.63376385 -0.23455884 -0.40080532 -0.21377754 0.31739593 -0.9004078 -0.69644773 0.046435986
-0.44171372 0.5563801 0.17802121 0.8927843 0.20071894 1.1393179 0.3274562 0.086419344
-0.6327371 0.21105522 -1.0207585 0.552602 -0.5241083 -0.5980192 -0.41276488 -0.82359713
-1.1727396 0.43149614 -0.45154935 0.030988889 -0.29059547 -0.87053806 0.32815906 -0.041461412
-0.79824185 -0.5891404 0.69621605 -0.38008356 -0.47371003 0.6660672 -0.6362806 -0.14249998
-0.4277241 0.82831365 -0.20288366 -0.3719344 -0.16335684 -0.22066219 0.4202985 0.9960402
0.05771931 -0.3999852 0.41331175 -0.040377993 -0.21304394 0.55610603 0.08687716 0.7812547
-0.18511295 -0.3491796 -0.18489641 0.53628117 0.24584875 -0.92878973 -0.11206014 0.2282617
-1.1997905 0.6440956 -0.687987 -0.75495577 -1.1793776 -0.6211491 0.31752664 -0.8506101
-0.4517733 0.042131994 -0.36736685 0.028636301 0.3068024 0.43621078 -0.17621803 -0.69298327
0.6209434 0.3997821 -0.19399215 -0.3990826 0.40001583 0.60612756 0.25205344 0.38869652
-0.21947157 1.097305 0.5345336 -0.3295111 -0.5159612 0.7755869 -0.53500295 -0.20976396
-0.030600403 -0.11222354 -0.11311486 -0.69602424 -0.32623753 0.34677243 0.408362 -0.0023753468
-1.2242754 -0.45583433 -0.03877181 1.0287827 0.38453707 -0.090602994 0.070228085 0.34714618
-0.34376192 -0.5130922 0.6308135 -0.6889288 0.2274701 0.025328234 -0.19290647 -0.082397446
0.9230412 0.07085852 -0.18618324 1.1257231 -0.31393802 -0.50202906 0.7429221 0.8461067
0.1373498 0.46300936 0.74205685 -0.34839025 -1.0527102 0.92504394 1.1254617 -0.023152834
1.1864743 -0.4723358 -0.5688776 -0.5162144 0.46639827 -1.5529922 -0.42427966 -0.363008
0.8865233 -0.26240075 0.77884007 0.5392533 -0.05584193 0.28119072 0.06303718 -1.62418
0.57379305 0.08600341 0.579568 0.8192478 -0.39185342 0.5491715 -0.03889414 0.94824517
0.18930176 0.3662513 0.15951096 0.36295506 -0.9165999 0.74794865 0.463193 0.4267494
0.118513785 -0.54481226 0.66608644 -0.075233616 -0.012567733 -0.7115554 0.5699731 -0.47424722
-0.34064332 0.56782293 -0.07902061 0.6151375 0.25129747 0.5804254 -0.03716209 -0.42978588
0.54222167 0.50003517 -0.34754598 0.5852601 -0.8838242 0.7864318 0.2541748 0.570217
-0.5511494 -0.3710388 0.38387242 0.21694098 0.6435295 0.5234152 -0.7406387 0.60289305
0.35629052 -0.15645553 0.9287012 -0.9257405 -0.22648112 -0.3929312 -0.5787816 0.7375343
-0.2636257 -0.67393243 -0.46931043 -0.19205296 0.32520822 0.31598786 0.83809394 -0.3062033
0.7377333 -0.55963016 -0.31620494 0.10393036 0.9973981 -0.21339618 0.16515434 -0.15585388
-0.20994169 -0.020833535 -0.7317437 0.26820365 -0.42210725 0.33668202 -0.4765397 -0.7104239
0.65463907 -0.83911073 0.38837102 -0.5900993 -0.7316931 -0.6301082 -0.7006094 -0.2977051
0.44597882 -0.4792057 -0.92830485 0.8855995 0.95546216 0.92984843 0.3784172 -0.36932018

2.bias f4 [128]
00000000: 3c60 b7be 41ff a9be 5a5a 12bf 62c4 06bf
00000010: 3b97 36be 7e4e 453e ade4 693e c72b 273e
00000020: 8743 5dbe ae06 da3c 572e f0be 8b87 15bf
00000030: 1eef 99bd b5f2 833d 3c21 803e 16d2 ebbe
00000040: 9b8b 1cbe 00c7 5dbe 4dc9 ee3d daa2 54bd
00000050: b070 143f 0234 043a 748b adbe cb34 d73d
00000060: a4cf 8e3e f387 4c3e e4b6 32be 49e3 d8be
00000070: ed21 c0be 6c82 27be 4400 903e 8903 093f
00000080: ab75 aa3d 62d6 55be a83e 6cbd 6502 263f
00000090: 9f8d cbbe 2401 21be be9e cf3e d8e5 f13e
000000a0: 44af f93e c773 c2be 7ba7 883e 755f 383f
000000b0: 9819 22bd 937b 94be 9423 93bd 8b1c ccbe
000000c0: 9c05 b9be 4370 57bc c24d 02be 8ee8 733b
000000d0: 544c f93c 3fbd 87be ff2c 8d3e 071e 8f3d
000000e0: bcfb b3be b823 81be 62b0 e6bd 655a 553e
000000f0: c568 ecbe d564 5f3e 82b2 923e 91e2 713d
00000100: 64f7 8ebd 775a cb3e 93b8 7fbe 1d38 dbbb
00000110: f279 43be fd25 07bf 6bc7 ed3c f47c 0abf
00000120: 9bfa 113e 21b6 c13d c5df 803e a6dc 703e
00000130: d0f2 67be 5ee7 e5be 3285 ddbd 1eb6 c8be
00000140: 0b28 9bbe 333f e13e 64ed c43e 5c7d 36be
00000150: 697e 583e 9bd0 a33e 7813 0dbd f745 a7be
00000160: af07 8dbe 078c 0a3e d6c8 283e d260 f2be
00000170: f84d fd3e 0693 e23d 44ef b73e a8d0 97bd
00000180: 1e0a b53e 3445 b0be 3394 ae3e 956f 11bf
00000190: 890d febe 16bd dfbe 5d51 71bd d2c4 813e
000001a0: d416 a33e c4eb 94bd 48fd 393e 525a 0e3e
000001b0: d22f cb3d 7356 d5be 0e2d 6a3e f8a3 7f3e
000001c0: 9e64 d6bc 5c54 3c3e 2615 1f3f 4a5c 243b
000001d0: 120e 6fbc 0fc5 eb3c 75f6 413f f393 b93d
000001e0: 2508 6f3d b25b 43be 25d4 77bd 446f b1be
000001f0: 0e11 403f 1cf8 9e3e d417 943e e691 aebe
-0.35815609 -0.33202556 -0.57169116 -0.52643406 -0.17831127 0.19268224 0.22841139 0.16325293
-0.21607791 0.026614513 -0.46910354 -0.5840995 -0.07516311 0.06442777 0.25025356 -0.4605872
-0.1528763 -0.21657944 0.11659489 -0.05191312 0.5798445 0.000504315 -0.33895457 0.10508116
0.27892792 0.19973736 -0.1745258 -0.42360905 -0.37525883 -0.16358346 0.28125203 0.5352102
0.08323225 -0.20882562 -0.05767694 0.64847404 -0.39756486 -0.15723091 0.40550798 0.4724567
0.4876653 -0.37978956 0.26690277 0.72020656 -0.03957519 -0.2900053 -0.0718452 -0.39865527
-0.36137092 -0.013149324 -0.12724975 0.003721747 0.030431904 -0.2651157 0.27573392 0.06988149
-0.35152996 -0.25222564 -0.11264111 0.20835264 -0.46173683 0.21815808 0.28651816 0.05905396
-0.0698078 0.39717457 -0.24972753 -0.006690039 -0.19089487 -0.5279234 0.029025754 -0.54096913
0.14255755 0.094585665 0.25170723 0.2352167 -0.2265122 -0.44903082 -0.108164206 -0.39201444
-0.30303988 0.4399353 0.38462365 -0.17821258 0.21141972 0.3199509 -0.034442395 -0.32670566
-0.27544925 0.13529979 0.16482863 -0.47339493 0.49473548 0.11063199 0.35924733 -0.07412845
0.3535928 -0.34427798 0.34097442 -0.56810886 -0.49619702 -0.4369895 -0.058915485 0.25345474
0.31853354 -0.07271531 0.18163025 0.13901642 0.099212304 -0.41667518 0.2286875 0.24964893
-0.026171025 0.18391556 0.62141645 0.0025079423 -0.014590757 0.028780488 0.7576669 0.09061422
0.058357377 -0.19077948 -0.06050505 -0.346552 0.75026023 0.31048667 0.2892443 -0.34095687
