dir_save/reference_training_result/we0_critic_1010.pth (torch, 133839 bytes, 4 tensors)

0.weight f4 [128, 128]
000000 38 3e 74 3e 48 45 0c 3d 04 39 2c 3e 68 87 23 3f
       0.2385186 0.03424576 0.16818625 0.6387849
000010 47 48 35 3e fb 10 0d 3f 12 55 16 be 5d 3a df 3d
       0.17703353 0.55104035 -0.14680889 0.10899804
000020 08 0b 07 3e 97 c3 5a 3f b3 42 3d 3f 9d c3 69 bd
       0.13187802 0.85454696 0.739299 -0.057071317
000030 2e 8e f9 3e 1a 8f a2 3d 9f 4a 3b bf 37 d7 96 bf
       0.48741287 0.07937451 -0.7316074 -1.1784428
000040 e7 33 6b 3d fc 6f eb 3e a1 07 80 be 77 1a ea be
       0.057422545 0.45983875 -0.2500582 -0.45723316
000050 61 e4 82 bd 94 08 a3 be 0b 33 00 3f e3 f9 3c 3f
       -0.06391216 -0.31842482 0.50077885 0.73818797
000060 b6 af 9e 3d 9b 39 51 3e 7f e5 55 bf fc 92 b5 bf
       0.07748358 0.20432131 -0.8355331 -1.4185481
000070 50 6f 76 bf e2 f2 da bd 9b f0 a0 3e e9 6a 85 be
       -0.962636 -0.106908575 0.31433567 -0.26058128
000080 2c b0 80 3e 07 85 4a 3e 34 a9 3a bd be 20 f1 bd
       0.25134408 0.19777308 -0.04557152 -0.11773823
000090 dd c0 04 be be 3e a7 be 31 73 48 be 5e a7 5c 3e
       -0.12964197 -0.32665056 -0.19575192 0.2154822
0000a0 f7 91 38 bd 9d 36 dc 3e ba c1 17 be e4 4a 09 3e
       -0.045061078 0.43010417 -0.14819995 0.13407475
0000b0 2d 62 ab bd c9 6c 3c be 71 f6 a0 3f 7b 62 7c bd
       -0.08368335 -0.18400873 1.2575208 -0.061617356
0000c0 a1 77 cf bd 30 1b 20 3e 56 13 f1 3d 17 8f 9a bd
       -0.10130239 0.15635371 0.11771266 -0.075468235
0000d0 98 51 c1 bc 4a 60 2c 3f 7d 2e 3b be ed e7 56 bf
       -0.023598477 0.67334425 -0.18279453 -0.8394764
0000e0 8b 03 36 3f 68 09 d2 3e 69 c6 6f 3d 2a 77 0f 3d
       0.71099156 0.410228 0.058538828 0.035025753
0000f0 46 66 ec be 75 1b 5a 3f 75 aa 96 3f 54 99 10 bf
       -0.46171778 0.85198146 1.1770769 -0.5648396
000100 52 1c b4 3c 26 cf d6 3d 58 d7 28 bf ac 40 c7 bd
       0.02198616 0.10488729 -0.6595359 -0.09729132
000110 ab 01 48 3f e8 23 8f be df 9c a4 bf 56 d4 cf 3f
       0.78127545 -0.27957082 -1.2860373 1.6236675
000120 fd 85 87 be 20 4f ab be bc 1d b8 3e bc 97 92 be
       -0.26469412 -0.33458805 0.35960186 -0.2863139
000130 97 9e f6 3e 93 31 66 bf 9d 8b 8f be fb b1 48 bf
       0.4816787 -0.89919394 -0.28036204 -0.78396577
000140 8c ba 3d 3d e3 f0 11 3f 82 ff 05 bf 11 9a 05 be
       0.046320483 0.5700819 -0.52343 -0.13047053
000150 2e ef e8 3e 01 58 f4 be 1a 9a c8 be 33 9c 08 3e
       0.4549498 -0.47723392 -0.3918007 0.13340835
000160 4e ff 36 3e e1 a9 2c 3d e5 3f 76 bf 41 6b 74 3c
       0.17870829 0.042154197 -0.96191245 0.014918149
000170 3d 8b ec 3d 57 3d 01 3e 31 77 a2 bf 67 1c c1 be
       0.11549995 0.12621056 -1.2692624 -0.37716982
000180 dd 06 8c be 48 36 f9 3d ed 3b 02 bf dc f4 c2 3e
       -0.27348986 0.121685565 -0.5087269 0.38077438
000190 03 f6 cd 3d 14 c0 73 3f c6 31 61 be 83 ca 8d be
       0.10056689 0.9521496 -0.21991643 -0.27693567
0001a0 4c 23 63 be d9 68 15 3f e1 ad ad 3e e8 8d 22 bf
       -0.22181433 0.5836311 0.33921722 -0.6349778
0001b0 4d ed 05 bf 23 f9 6f bd 41 c8 1e 3e 6c 06 04 be
       -0.5231522 -0.058587205 0.15506078 -0.12893075
0001c0 98 0e 04 3f 22 87 24 bd 3b 4a 9d 3e 41 34 98 3e
       0.5158477 -0.040167935 0.30720696 0.29727367
0001d0 9f d6 32 3f 60 fb e4 3c 00 a0 15 bf 33 d9 b3 3e
       0.69858736 0.027951896 -0.58447266 0.35126647
0001e0 68 3a 1b be 9d 6a e2 be 98 21 56 3f 09 c8 33 bf
       -0.15158999 -0.44221964 0.8364501 -0.70227104
0001f0 6c 54 08 bf cb bc d4 3c 2b ba 80 bf af ec 96 be
       -0.5325382 0.02596893 -1.0056814 -0.2947745
000200 70 9e e9 be 36 bb a4 be 5d 82 82 bf 3d aa ac 3e
       -0.4562869 -0.3217408 -1.0196034 0.33723632
000210 fa 35 91 3f ee c3 3b 3f 64 ee d3 bd 00 c7 71 be
       1.1344597 0.7334584 -0.10348204 -0.23611069
000220 41 da eb bd 34 25 16 be 89 85 3f 3e 4b 7e 8c bf
       -0.11516238 -0.1466263 0.18703283 -1.0976042
000230 57 3b 06 3f e1 54 a9 be f7 b6 1b bf 37 1c 9a 3f
       0.52434295 -0.3307257 -0.6082606 1.203986
000240 8f 1b 0e 3d 30 c7 02 be 99 28 5e 3f 2f db b4 3f
       0.03469425 -0.12771297 0.867807 1.412939
000250 b5 cd c3 be 52 f0 f2 3e 7b a3 5e 3d ae f5 0b bf
       -0.3824288 0.47448975 0.054355126 -0.5467175
000260 bd 17 0f 3f 69 d0 be be 4b 97 36 3f 68 c4 12 bf
       0.55895597 -0.3726838 0.71324605 -0.5733094
000270 a9 89 e1 be 2a 98 14 bf ac 7a 18 3e 8a 20 c4 be
       -0.4405034 -0.58044684 0.14890546 -0.38306075
000280 eb 0d 0d 3e cc c3 e7 be 3c e9 78 bd da e7 b1 3e
       0.1377484 -0.4526657 -0.060769305 0.347472
000290 5b c4 72 3e 18 84 e5 3e 91 7b 7e 3e a3 d2 e8 3b
       0.23707716 0.44827342 0.24851824 0.007105188
0002a0 d1 3f dc 3d 90 6f 13 be 37 81 85 3e 7c 23 ac 3e
       0.107543595 -0.14398026 0.26075146 0.33620822
0002b0 8d 99 85 3e f5 bb 04 bf 40 77 3d 3f a3 eb fe 3c
       0.26093712 -0.518493 0.74010086 0.03111822
0002c0 08 51 1a 3f 99 fb 20 bf 9a b1 22 3d 20 ce fe bd
       0.60279894 -0.6288391 0.039720155 -0.12441659
0002d0 60 af 76 bf 9f 93 15 3f 03 e4 ad be 8e c4 7e be
       -0.9636135 0.58428377 -0.33963022 -0.24879667
0002e0 11 f5 57 be 3a b7 28 bf b0 ee c1 be 40 08 9a be
       -0.21089579 -0.6590458 -0.37877417 -0.3008442
0002f0 e2 0d 0a 3f 21 fb de 3d ad 5b 18 be 22 4a 3e 3f
       0.53927433 0.10887743 -0.14878722 0.7433187
000300 3b c3 5c 3e 97 51 41 3e 93 20 14 bc e2 d3 10 3e
       0.2155885 0.1887878 -0.009040969 0.14143327
000310 ce fa a3 3f 32 76 84 3e 7a 8c 37 bd a5 a6 34 3f
       1.2810915 0.25871426 -0.044811703 0.7056678
000320 3c bd 1b 3f fa 15 d6 3e 2f 5a a4 3f 38 39 01 be
       0.60835624 0.41813642 1.2840022 -0.12619483
000330 a6 6e 8a bf fc 42 00 3f fb ab 37 bd 31 ee 2c be
       -1.0815017 0.5010221 -0.044841748 -0.16887738
000340 c4 05 8e 3e 1f 4c cd 3d 7f 9d 63 be 0a 3f a1 3e
       0.27738774 0.100242846 -0.22228049 0.31493407
000350 76 1e 59 3f 39 16 5c be f0 9d ee 3e e0 53 24 bd
       0.84812105 -0.21492852 0.46604872 -0.040119052
000360 93 a5 af 3e 9b 97 ba 3d 44 d9 dc be 5d ae 5b be
       0.3430601 0.09110948 -0.4313451 -0.21453233
000370 b3 92 40 3f 65 ed d6 be eb 20 f0 3d 96 4a ef be
       0.75223845 -0.41977993 0.117250286 -0.46736592
000380 6d b2 13 bf b3 3b 88 be 7a ab 01 bf e9 1f 13 bf
       -0.5769413 -0.26608047 -0.5065228 -0.57470566
000390 2e 61 b8 3e f9 68 a3 be cb e2 d0 3e ae d3 e1 bb
       0.36011642 -0.31916025 0.4079803 -0.0068916893
0003a0 dc 7b 18 3f 96 ac 34 3f c2 5c bf be 87 c7 b1 3c
       0.59563994 0.70575845 -0.37375456 0.021701587
0003b0 de 25 72 be 61 fb 0d 3f be 79 56 3e c3 86 50 3e
       -0.23647258 0.554617 0.20944878 0.20363908
0003c0 c9 64 7b 3e fd c1 09 3f c1 9b 06 be 2c 26 b8 be
       0.24550165 0.5381163 -0.13145353 -0.35966623
0003d0 66 65 e2 bd c8 63 86 3f 6b e1 cc 3e 33 2f 4e be
       -0.110544965 1.0499201 0.4001573 -0.20135193
0003e0 40 b4 d7 3e 9a 96 ae be 6f 22 ec bd 3b c4 92 be
       0.42129707 -0.34099275 -0.11530005 -0.28665337
0003f0 c4 e2 f0 3e a0 79 00 be 46 c0 0a 3f b3 4e 83 bf
       0.47048008 -0.12546396 0.54199636 -1.0258392

0.bias f4 [128]
000000 f7 2d 05 3e 87 d6 8c bb 43 56 4a 3e 9b 52 79 3e
       0.13005815 -0.0042980346 0.19759469 0.24347918
000010 ec 0f 61 be fd ff 15 be 5c 2f e3 3e c3 1e 6d 3e
       -0.2197873 -0.14648433 0.4437207 0.23156266
000020 3e 0d c5 bd 15 bb 56 3e c3 ce 80 bd 9d 65 b0 3e
       -0.09621666 0.20969804 -0.06289437 0.34452525
000030 33 8e 83 3e 23 b2 33 bd 09 96 16 3e 25 4d 17 be
       0.25694427 -0.043871056 0.14705671 -0.14775522
000040 fe b5 1a 3e fd 07 86 be 8c 56 b7 3e 56 b5 6c bc
       0.15108487 -0.2617797 0.35808218 -0.014447531
000050 21 6d d4 be ff 11 0f 3d 56 a6 f4 3d d1 7d aa be
       -0.4148951 0.03492927 0.119457886 -0.33299115
000060 27 85 34 be 67 ee a9 3e 31 a8 02 be e0 5a 93 be
       -0.17628919 0.331897 -0.12759472 -0.2878027
000070 ee 46 ad 3e 69 a5 dc be 8a 8c 14 3e 6e 44 e1 3d
       0.33843178 -0.43094948 0.14506736 0.1099938
000080 49 1d 98 3d 57 81 e6 bd 99 e4 e7 bd 79 f6 21 3d
       0.07427461 -0.11255138 -0.113228984 0.039541695
000090 4e 83 38 3e e5 3d 0b bd 2f ab 84 be 7a 59 8a 3d
       0.18018839 -0.033994574 -0.25911853 0.067553475
0000a0 f9 83 5c 3e 16 88 4d 3c 06 24 77 be bb 64 a1 bd
       0.21534719 0.012544652 -0.24134836 -0.07880541
0000b0 0a 22 d5 3e fa e5 f1 bd fb 6b 1e be 8f 0f 44 be
       0.41627532 -0.11811443 -0.15470879 -0.1914656
0000c0 a1 04 68 3e f2 78 0a be d7 fe 40 be 9b 46 2d 3e
       0.22658016 -0.135227 -0.18847214 0.16921465
0000d0 a4 e2 15 3d 03 f2 1d be cd f3 7b be 12 61 ae be
       0.036593094 -0.15424351 -0.24604721 -0.34058434
0000e0 69 c5 6b 3e 07 8a d4 bd 3c 3b 4d be b1 7c a1 bd
       0.23024525 -0.10377889 -0.20042127 -0.07885111
0000f0 2d 4c 53 be a3 2e 92 be 82 c9 23 be 35 d8 31 3e
       -0.20634528 -0.28551206 -0.15994838 0.17367633
000100 7a fe db 3d f0 be 68 3e 3e 07 a2 3d 98 59 8e 3e
       0.10741897 0.22729087 0.079115376 0.2780273
000110 f7 03 e3 3d 53 19 9c 3d ca 5e 27 3e 02 d0 12 bc
       0.110847406 0.07622018 0.16344753 -0.008960726
000120 c1 5f 3c be 28 70 22 be 58 e8 17 3c 8a 6b c2 3d
       -0.18395902 -0.15863097 0.009271704 0.09493168
000130 97 f1 a7 3d 4b 8b 42 3e b9 b5 e7 3c 63 4f cd 3c
       0.082003765 0.18998449 0.028284894 0.025062269
000140 ae b9 6a 3e 15 56 cd bc bf 03 08 be 1b 27 21 3e
       0.22922394 -0.025065461 -0.13282679 0.15737574
000150 b0 f1 95 be 92 ce 6a be af f8 17 3e 08 78 60 3d
       -0.29285955 -0.22930363 0.14840959 0.05480197
000160 92 92 0e be 32 52 5f be ed 9c 61 3e 74 9b 82 3e
       -0.139231 -0.21808699 0.22032519 0.25509226
000170 36 2e e0 be 63 3b 0b be df c0 3b 3e d3 19 21 3d
       -0.43785256 -0.13596873 0.18335293 0.03933127
000180 b9 82 e8 be 09 b4 b2 3b 65 b5 6b be 42 aa 88 3e
       -0.45412233 0.005453591 -0.23018415 0.26692396
000190 4f 2c 73 bd 76 df 98 3d 82 bf 88 3e 13 a9 3c 3e
       -0.059368428 0.07464497 0.2670861 0.18423872
0001a0 34 e5 7c bd e6 4a 85 be 7b 5c 8f 3e b2 eb 14 3e
       -0.061742023 -0.26033705 0.28000244 0.14543036
0001b0 7e db ee bd 54 3d 9e bb 34 a8 68 3e 97 61 72 bd
       -0.116629586 -0.004829088 0.22720414 -0.0591751
0001c0 97 0d a2 bd 19 9c b8 3e 97 b9 1f be a6 34 78 bd
       -0.07912748 0.36056593 -0.1559814 -0.060597084
0001d0 ad 2f 05 be 9c db 88 be 9c 8e 02 3e 21 f1 6a 3e
       -0.13006468 -0.2673005 0.12749714 0.22943546
0001e0 09 50 79 3e db 2f ec bd 0b 84 41 3e 7a 59 a3 3d
       0.24346937 -0.11532565 0.18898027 0.07976051
0001f0 3c 13 39 3d 63 8c 38 be 33 7c 88 3e 20 81 81 3e
       0.04518436 -0.18022303 0.26657256 0.25293827

2.weight f4 [128, 128]
000000 c0 bf 18 bf 19 d2 b0 3d 84 a7 06 be f3 04 e9 be
       -0.5966759 0.08633823 -0.1314984 -0.45511588
000010 8d de 41 3f e6 bc 00 3e 82 b0 98 be 47 51 8a 3c
       0.7573021 0.12572059 -0.29822165 0.01688446
000020 11 96 21 3f 63 62 72 be 9f 87 ce be 92 46 58 be
       0.6311961 -0.23670344 -0.40337846 -0.2112067
000030 3c 98 a3 3e 44 1c 67 bf eb a1 31 bf 66 aa 33 3d
       0.31952083 -0.90277505 -0.6938769 0.043863676
000040 0b 78 e3 be 70 c6 0d 3f 74 ed 38 3e 6f 0f 64 3f
       -0.44427523 0.55380917 0.18059331 0.8908605
000050 e0 e6 4a 3e a2 1b 92 3f fd c8 a6 3e f7 b7 ab 3d
       0.19814634 1.1414683 0.32575217 0.08384698
000060 10 9f 22 bf 14 bb 5a 3e 64 fc 82 bf 2a 1f 0e 3f
       -0.6352396 0.21360427 -1.0233274 0.555163
000070 44 1e 06 bf 46 c0 19 bf ab 04 d2 be be 32 53 bf
       -0.5238993 -0.6005901 -0.41019186 -0.824993
000080 4f c8 95 bf af 3d de 3e 4b 82 e8 be 58 d5 e8 3c
       -1.1701754 0.43406436 -0.45411906 0.028422043
000090 ac 77 93 be 9c cb 5e bf 33 b3 a6 3e af 25 26 bd
       -0.2880224 -0.87029433 0.32558593 -0.04056328
0000a0 67 b1 4b bf ec 09 16 bf ba 92 31 3f 78 c0 c3 be
       -0.7956757 -0.5860889 0.6936451 -0.3823278
0000b0 8a dc f2 be e3 1e 2b 3f c6 8b 23 bf 5d 81 14 be
       -0.47433883 0.66844004 -0.6388515 -0.14502473
0000c0 63 ad d9 be e0 63 53 3f 92 63 52 be ec 1c bd be
       -0.42515096 0.8257427 -0.20545796 -0.36936128
0000d0 bb a5 24 be a9 97 64 be 19 e0 d5 3e b1 9e 7f 3f
       -0.16078846 -0.22323479 0.41772535 0.9985152
0000e0 01 f0 76 3d a7 0d ce be 54 f1 d4 3e 3e e4 1a bd
       0.06028748 -0.4024479 0.4159037 -0.037815325
0000f0 96 ca 5c be 40 b6 0d 3f 04 a8 ac 3d b6 a8 48 3f
       -0.21561655 0.55356216 0.08430484 0.7838243
000100 8c d3 3a be 67 76 b1 be b0 f5 3f be 35 f2 09 3f
       -0.18244761 -0.34660646 -0.18746066 0.53885204
000110 0b 62 7e 3e 1a 1d 6d bf 33 3b e0 bd 24 e9 66 3e
       0.24842088 -0.9262253 -0.10948791 0.22549874
000120 e9 e6 99 bf 1a 3c 25 3f 39 d4 30 bf b9 9c 40 bf
       -1.2023593 0.6454483 -0.69073826 -0.7523914
000130 1e 22 97 bf 7d a5 1f bf ed 42 a1 3e 74 14 59 bf
       -1.1807287 -0.6236189 0.31496373 -0.84796834
000140 5e f9 e5 be 6f c0 2d 3d de 94 ba be 8d a9 ff 3c
       -0.44916815 0.042419847 -0.36441702 0.031208778
000150 91 e2 9b 3e 9c 55 df 3e 1d d0 31 be dd be 30 bf
       0.30446294 0.43620002 -0.17364545 -0.69041234
000160 47 9e 1f 3f 4e 60 cb 3e 12 06 44 be 4a 03 cb be
       0.6235089 0.39721912 -0.1914294 -0.39650947
000170 9c 7d cb 3e 1a 83 1a 3f 1b 5e 82 3e 59 b2 c5 3e
       0.3974427 0.60356295 0.25462422 0.3861263
000180 8c 5f 63 be 58 20 8c 3f b5 2e 08 3f 79 64 a7 be
       -0.22204417 1.094737 0.5319627 -0.32693842
000190 79 b1 04 bf 9a 32 46 3f 72 4d 08 bf fa 29 54 be
       -0.518333 0.7742096 -0.5324317 -0.20719138
0001a0 e2 1c e6 bc 80 17 eb bd 1f 64 e2 bd 2a 86 31 bf
       -0.028089944 -0.11479092 -0.11054253 -0.69345343
0001b0 46 57 a8 be ba 3b b0 3e c9 8a d2 3e 24 2e 4a bb
       -0.32879084 0.34420568 0.4112151 -0.0030850256
0001c0 33 09 9d bf d0 19 e8 be ce fd 28 bd 2c 03 84 3f
       -1.2268432 -0.45332193 -0.041257672 1.0313468
0001d0 cc 31 c6 3e b9 d2 be bd 66 18 95 3d d2 0d b3 3e
       0.38709867 -0.09317536 0.07280044 0.34971482
0001e0 d0 b1 ae be 84 24 04 bf 7b 25 22 3f 3c b5 2f bf
       -0.34120035 -0.5161822 0.6333844 -0.68635917
0001f0 4f 90 6b 3e ed 9a ca 3c 8f e7 42 be 57 7b a3 bd
       0.23004268 0.024732077 -0.19033645 -0.079825096
000200 3a a8 85 3f e8 a5 50 3e ee fa b9 bd 2e 4a 9c 3f
       1.0441964 0.20375788 -0.09081064 1.2210138
000210 46 7f 3c be 41 e9 18 bf 6e 94 56 3f 66 02 71 3f
       -0.18407926 -0.5973092 0.83820236 0.94144285
000220 cc 75 2a 3d 09 2d 83 3e 98 f1 24 3f 07 2f 9f be
       0.041616246 0.25620297 0.6443114 -0.31090567
000230 de 75 76 bf 8e b5 6d 3f 4d 4c 9c 3f 54 81 f2 bd
       -0.962736 0.92855155 1.2210785 -0.11841074
000240 d7 87 94 3f 14 4f 11 bf aa 73 f2 be bf e5 11 bf
       1.1603955 -0.5676129 -0.4735387 -0.5699119
000250 95 03 be 3e eb 35 c5 bf 51 38 0d bf 72 a4 ea be
       0.37112108 -1.540708 -0.55164057 -0.45828587
000260 2c 39 73 3f a3 48 29 be 96 fb 2e 3f f1 79 29 3f
       0.9500911 -0.16531615 0.6835264 0.6620169
000270 15 dc 7b 3b e2 5f 3e 3e 72 1e 22 3e 94 53 98 bf
       0.003843074 0.18591264 0.15831926 -1.1900506
000280 67 0f 12 3f 1f 0a 51 3e ae 38 e1 3e 1e 94 2b 3f
       0.5705475 0.20414017 0.43988556 0.67022884
000290 2b ce 97 be 9c 75 21 3f a1 63 09 be 48 40 31 3f
       -0.2964948 0.6307008 -0.13416912 0.6923871
0002a0 24 f8 91 3e 2a 8e f5 3e d2 8d 83 3d 16 87 13 3f
       0.2850963 0.47960025 0.064235345 0.57628
0002b0 47 06 40 bf 8d ba 30 3f 55 5f bc 3e 54 86 d7 3e
       -0.7500958 0.69034654 0.36791483 0.42094672
0002c0 83 ef 5a 3e 40 dd 23 bf a1 ba 04 3f a7 33 a4 3c
       0.21380429 -0.64009476 0.51847273 0.020044161
0002d0 5c 12 b8 3d 37 8d 4e bf 1d 0b f3 3e cd 29 df be
       0.08987877 -0.80684227 0.47469416 -0.4358658
0002e0 c6 2d 75 be 26 fa e6 3e 5f 54 ca bd 7d 91 25 3f
       -0.23943242 0.45112723 -0.09879374 0.6467512
0002f0 31 cd 1f 3e 22 5a f8 3e fa a1 07 be 16 5b 03 bf
       0.15605618 0.48506266 -0.13245383 -0.5131086
000300 ca bb 2c 3f 2a 68 18 3f 3e 60 01 bf ed bf 38 3f
       0.67474043 0.5953394 -0.5053748 0.72167856
000310 3b b8 42 bf b2 b5 74 3f e1 eb b2 3e 58 ee 17 3f
       -0.76062363 0.95589745 0.34945586 0.5934806
000320 5c 7c 25 bf 8e d4 a2 be 4c cf f0 3e 8d ee 9f 3e
       -0.6464288 -0.3180279 0.47033155 0.31236687
000330 82 35 09 3f 92 5b d6 3e dd f9 61 bf ac b8 32 3f
       0.5359727 0.41866738 -0.88271886 0.69813037
000340 12 7e fa 3e 84 fb 7a 3d 5f 5f 2a 3f 07 99 54 bf
       0.4892431 0.06127502 0.66551775 -0.83046
000350 83 4d a9 be 9f 3f f5 be ed cf f6 be 3d 47 56 3f
       -0.3306695 -0.47900102 -0.4820551 0.8370245
000360 f6 d0 75 be 34 bd 47 bf dc 89 e3 be 0d 33 c6 bd
       -0.24005494 -0.78023076 -0.44441116 -0.09677706
000370 91 73 6b 3e 2d 3a 34 3e 35 5f 61 3f fa ea cf be
       0.22993304 0.17600317 0.880359 -0.4060896
000380 d6 77 24 3f 9d 02 15 bf c2 ad d2 be 69 c2 52 3e
       0.64245355 -0.5820711 -0.41148192 0.20581974
000390 42 dd 5a 3f b2 da 84 3d 8c 57 85 3e 47 0c 78 bd
       0.8549386 0.06487025 0.26043355 -0.060558584
0003a0 94 ed d8 bd 65 85 a7 bd 52 ef 22 bf 35 1a ba 3e
       -0.105921894 -0.0817974 -0.63646424 0.3634812
0003b0 9a 46 04 bf 7d 22 27 3e ce d8 32 bf f3 b1 4a bf
       -0.5167023 0.1632175 -0.6986207 -0.7917778
0003c0 5d ac 1a 3f 54 e5 31 bf 44 5a d2 3e b1 21 e8 be
       0.60419255 -0.6949055 0.41084492 -0.45338205
0003d0 0b 6f 12 bf 25 b3 39 bf e6 f5 1a bf 68 62 08 be
       -0.5720069 -0.7253898 -0.6053146 -0.13318789
0003e0 de d3 0e 3f 40 6e 1e be 12 41 55 bf 1a 1f 7b 3f
       0.55792034 -0.15471745 -0.83302414 0.9809433
0003f0 e7 7e 86 3f b9 b0 68 3f c2 79 f2 3e 67 4f 8c be
       1.0507478 0.9089466 0.4735852 -0.2740433

2.bias f4 [128]
000000 f8 0e b6 be b1 6e 72 be 17 ab 06 bf df 10 db be
       -0.35558295 -0.23675038 -0.5260481 -0.4278631
000010 56 ee be bd 65 76 79 3e 11 db 6b 3e 01 db 25 3e
       -0.09322803 0.2436157 0.23032786 0.16196825
000020 e4 d0 8c be 9b 81 e8 3c bf e6 ea be 4a b4 21 bf
       -0.2750312 0.028382113 -0.4587917 -0.63165724
000030 b3 47 a6 bd ee f2 83 3d 5b 25 ac 3e f4 c5 e5 be
       -0.08119144 0.064428195 0.3362225 -0.4487759
000040 be 92 39 be 51 d1 5d be 15 3a c1 3d ed 47 62 bd
       -0.18122384 -0.21661879 0.094349064 -0.055244375
000050 60 0a 05 3f 02 34 04 3a 33 18 9a be d8 e0 70 3d
       0.51968956 0.000504315 -0.30096588 0.058808178
000060 fb a9 a1 3e 4f 4c 97 3e 7d 07 0e be f6 01 c0 be
       0.31574997 0.29550406 -0.13870044 -0.37501496
000070 7c 48 bf be 61 56 57 be e1 8f f0 3d 16 78 03 3f
       -0.3735999 -0.21029045 0.11746193 0.5135511
000080 5f 2e a9 3d 7c 33 87 be c3 25 6c bd 7e 5b 13 3f
       0.08260798 -0.26406467 -0.0576532 0.5756148
000090 dc 47 d1 be 63 dc 41 be 45 ff cb 3e c0 dd c7 3e
       -0.40875137 -0.18931727 0.39843193 0.3903637
0000a0 56 11 b7 3e e9 6a 9f be 09 a6 88 3e f5 ee 28 3f
       0.35755414 -0.31136253 0.26689175 0.6598962
0000b0 88 8a f6 3c 77 c3 98 be fd 3b 94 bd bf 69 c8 be
       0.030095354 -0.29836628 -0.07238004 -0.39143178
0000c0 18 de a5 be 94 f6 3c 3d db 5c eb bd 1f ec 73 3b
       -0.32396007 0.046133593 -0.1149232 0.0037219597
0000d0 2e b6 88 3d 68 34 53 be bb ab 7e 3e 26 19 9c 3d
       0.06675373 -0.2062546 0.24870197 0.07621984
0000e0 af 29 ba be d7 f1 80 be 56 b1 d9 bd 4c 0f 55 3e
       -0.36359927 -0.2518451 -0.10629527 0.20806617
0000f0 8f be ff be b8 92 97 3e af 1c 59 3e 9a 32 71 3d
       -0.49950072 0.29604125 0.21202348 0.058886148
000100 19 aa 87 bd e0 fa 6d 3e 22 5e 7b bd f5 1e db bb
       -0.066242404 0.23240232 -0.06136907 -0.00668704
000110 dd 7d 28 be 2d 81 f8 be 78 9a 21 3e 82 97 d7 be
       -0.16454263 -0.48536053 0.15781581 -0.4210778
000120 2a e1 11 3e 1c b3 c1 3d ae 09 67 3e 51 dd 70 3e
       0.1424605 0.094579905 0.22562286 0.23521926
000130 1c c3 8a bd 64 b6 a8 be b4 09 06 be 4b 1b 9c be
       -0.067754954 -0.32951653 -0.13089639 -0.30489573
000140 8a 1e a1 be f2 bf ae 3e 7e 73 01 3f b9 7a 36 be
       -0.31468612 0.34130818 0.5056685 -0.17820252
000150 12 a7 5a 3e cb 7a 76 3e 45 2b 2e bd 08 e8 a5 be
       0.21352795 0.2407028 -0.042521734 -0.32403588
000160 f4 08 8d be 7b ca 10 3e 41 d3 15 3e a3 7f d6 be
       -0.27545893 0.1413974 0.14631368 -0.41894254
000170 a9 9c fe 3e 09 93 e2 3d 4c 0a ac 3e d4 bf 0c be
       0.49728897 0.11063201 0.33601606 -0.13745052
000180 5d d7 4d 3e c9 c9 b1 be 4b df 8f 3e c4 9f 17 bf
       0.20101686 -0.34724262 0.28100047 -0.5922816
000190 02 70 e2 be 85 8d d3 be ed d2 1b be 9b ac 54 3e
       -0.4422608 -0.41318908 -0.1521718 0.20768969
0001a0 4b db 6d 3e 21 ad b6 bd 2b 5b 7f 3e 07 21 d9 3d
       0.23228185 -0.089197405 0.24937122 0.106020026
0001b0 be 3d 03 3e 80 bf bb be 5c 38 6a 3e 85 09 85 3e
       0.12816522 -0.3666954 0.22873062 0.25983825
0001c0 dd d3 e7 3c d3 77 2c 3e 25 61 0d 3f c8 12 2e bc
       0.028299266 0.16842584 0.55226356 -0.010624595
0001d0 46 43 c2 bc b7 fe 01 3d 20 5e 4e 3f 60 b7 ba 3d
       -0.02371372 0.031737056 0.80612373 0.09117007
0001e0 25 08 6f 3d c0 c9 3c be 35 b9 74 bd c6 3e 80 be
       0.058357377 -0.18436337 -0.05974694 -0.25047892
0001f0 6c 10 28 3f 42 05 9f 3e 04 2c 26 3e c6 54 83 be
       0.6565006 0.310587 0.16227728 -0.25650615
