dir_save/reference_training_result/we0_critic_linear_900.pth (torch, 1631 bytes, 1 tensors)

weight f4 [1, 128]
00000000: 4686 97c0 2b47 1341 33ec 9740 4e92 9040
00000010: 423c 9540 e154 b6c0 8674 e0c0 b862 3b40
00000020: 971c 6f40 d6d9 5340 8b00 d840 43ca 2b41
00000030: 7300 e440 72d1 6fc0 f597 86c0 c9c0 d13f
00000040: fbec d340 1b98 ad40 0a24 46c0 ef41 ab40
00000050: 0b96 b6c0 9642 4340 22a5 8b40 b3b3 9ec0
00000060: bc15 8bc0 91e1 86c0 9f65 9440 2b4b 8440
00000070: 2d7d 8a40 06cb 5240 d8ce c1c0 561e 9cc0
00000080: 5fed 86c0 1abc 9140 e2c6 13c0 1c40 bec0
00000090: 0ddc f940 939d 9040 f5ae 9bc0 1c8a 0ec1
000000a0: 48a4 a4c0 867a f940 73ac 9dc0 6857 b2c0
000000b0: 6797 a7c0 e5e1 8bc0 b571 4d40 5bd0 be40
000000c0: 1ea1 0641 0ae6 e640 8a5a d240 48cd c3c0
000000d0: f8bd 9bc0 cc89 5940 977d c9c0 1da1 8740
000000e0: 8ed4 9640 0404 7940 4af9 a440 4550 83c0
000000f0: 4df6 8940 e18a 8bc0 3c4d d2c0 836f 2940
00000100: 07b4 37c0 6fc1 54c0 9a29 5b40 3a75 8940
00000110: 4472 b940 d508 ad40 8798 87c0 5eb2 0f41
00000120: 7ab2 a0c0 1ee8 2140 25d7 a8c0 8ff9 85c0
00000130: 9c15 e940 1de0 b840 49cd b240 6ae5 4840
00000140: 5237 de40 b4b5 e8c0 b0b4 2dc1 fffb 35c0
00000150: 9358 83c0 4157 cbc0 640b 1840 1189 a440
00000160: 61b1 8040 893e 8540 09b9 c0c0 d98f 9140
00000170: bdce a4c0 2038 9c40 79e6 c7c0 b9ac b7c0
00000180: 4610 48c0 cf79 9840 16ca 9c40 3e56 c540
00000190: 421b 8540 6a00 9240 d54c ac40 cb14 9bc0
000001a0: 6a5f 8dc0 94a3 b6c0 fb17 f5c0 226e 2240
000001b0: 878f dcc0 817d 0741 5212 7cc0 a221 d6c0
000001c0: e3d0 a640 c87e 81c0 8daf bdc0 1944 4c40
000001d0: 996c a8c0 62cf 54c0 2d9e 32c1 736f 83c0
000001e0: 2859 5ec0 f966 bc40 8df6 2dc0 cbdd d740
000001f0: 9b1e 5dc1 63b1 dcc0 1ca7 dbc0 35ab ec40
-4.735141 9.204875 4.747583 4.5178595 4.6636057 -5.697861 -7.014224 2.9279003
3.73612 3.3101707 6.7500663 10.73688 7.125055 -3.7471585 -4.2060494 1.6386958
6.6226783 5.4248176 -3.0959496 5.3517985 -5.705816 3.050939 4.363908 -4.959436
-4.346403 -4.215035 4.637405 4.134176 4.3277802 3.2936416 -6.0564995 -4.878703
-4.216476 4.5542116 -2.3090138 -5.945326 7.8081117 4.519235 -4.865107 -8.908718
-5.145054 7.7962065 -4.927301 -5.5731697 -5.2372317 -4.371325 3.2100651 5.962934
8.414335 7.215581 6.573552 -6.1188087 -4.8669395 3.3990355 -6.296581 4.238417
4.7134466 3.89087 5.155431 -4.1035485 4.311316 -4.360703 -6.571928 2.6474311
-2.870363 -3.3243062 3.4244142 4.29556 5.7951984 5.407328 -4.237369 8.981047
-5.0217867 2.5297923 -5.2762628 -4.1867137 7.283888 5.7773576 5.587559 3.1390023
6.944253 -7.2721806 -10.856613 -2.8435056 -4.1045623 -6.354401 2.3756952 5.1417317
4.0216527 4.1638837 -6.0225873 4.5488095 -5.1502366 4.881851 -6.246884 -5.7398343
-3.1259933 4.764869 4.8996687 6.1667776 4.1595774 4.5625505 5.384379 -4.846288
-4.417897 -5.707468 -7.6591773 2.537972 -6.8925204 8.468141 -3.9386182 -6.6916056
5.212999 -4.046726 -5.9276795 3.1916564 -5.2632565 -3.3251576 -11.163617 -4.1073546
-3.4741917 5.88757 -2.7181733 6.7458243 -13.819972 -6.8966537 -6.864149 7.3958993
