dir_save/reference_training_result/we0_critic_500.pth (torch, 133833 bytes, 4 tensors)

0.weight f4 [128, 128]
00000000: 02f4 563e 2a99 00be 2357 97be 5471 cb3e
00000010: 5e3b 4e3e 4cd6 7d3d 5513 89bd 35c7 35be
00000020: 9131 be3e 6a2f e73e a001 283f 5655 46be
00000030: e41e 323f 8a8b 6abe aefc b9be f654 09bf
00000040: 4a0d 823d fa91 85bc 85b2 243e 649c a8ba
00000050: 1490 493e 863d e9bd f7ab adbe 8882 213f
00000060: 3ae7 413e 9f8b 023f fc3f 7abf 3f44 703d
00000070: 27a6 68bf 2dea 33be d938 603e 3aad 4dbe
00000080: 7867 4a3e 8f51 403e 692f 363b b899 37bb
00000090: c127 c9be 3b55 98be 0f37 903e 3567 e9bd
000000a0: 5f6a 5abd b97f 023f 6d77 48be f1bf 8abd
000000b0: d580 2bbe 9cd0 89be 5a76 323f e95f 1fbe
000000c0: 4e81 83be 8bef ec3d 40ce a53d 9b44 0bbe
000000d0: 9f4f aabe 6712 c23d 2c8f 4b3e a9b9 65bd
000000e0: dcb0 373f a6d9 a13e c93e 503d 1c8b 5cbe
000000f0: cace 82be 746d 313f 747d 2e3f 23c6 8dbd
00000100: 7b64 1d3e 12f0 9abe d2c2 20be ee99 dcbd
00000110: 3cd4 1e3f 817e 45be 85db 80bf 362d 073f
00000120: 911a 09be 6e99 47be 4c7a 9b3e 5a30 5e3e
00000130: 51a8 b13e 9cd8 acbe b46a d4be 73e3 46bf
00000140: 9e71 d7bc 1021 7d3e 3dd3 40be 03b0 c7bc
00000150: b36a 3c3e 82a6 e8bd 3f71 e23c 5830 a43d
00000160: 85af 753e d8a2 753e 8f19 b0be dcfe 533d
00000170: 7808 a93d 720b 87bd 537c c6be 27ea 0fbf
00000180: 2f11 3dbf e6bb 923e 9cdb eebc 0932 9e3e
00000190: 478c f43d e5be 8a3e 867b e5be 1f4e 86bd
000001a0: 9546 bfbe 664a 033f 471d cf3e b6f9 04bf
000001b0: 1b89 b0be 447b 9ebc 435e 8cbc 5614 91bd
000001c0: 64c4 273f e469 8f3c 3c21 10be 687a 513e
000001d0: 8e92 b53d 99bc 593d d140 84be 62bc 8b3e
000001e0: c4b9 93be 1e68 2bbe fe48 c53e e949 12bf
000001f0: 6bdf dbbe 1a5c 753c de54 22bf 909b 0bbe
00000200: 0e2b f0be 0cfc 1abd 521d 10bf 5c60 d53e
00000210: 9b78 f03e aff6 023e b2a6 06be 2637 9dbd
00000220: 71d7 f5bd 7f75 25bd 2887 623e 773f a23d
00000230: fca9 1d3e 1f04 86be ceee 94bd 958f 183f
00000240: 9c9e 053e ab63 e4bd 6555 023f ced6 ae3f
00000250: 56cd 1dbe b42a 193f b656 2ebe e775 b6bd
00000260: 4d86 2d3f cbdf e7be 8657 fd3e 1819 91bd
00000270: 332a 8cbe acaa 9fbe 4276 44be f1b4 52be
00000280: 5cee 373f 1008 b9bd b3b4 77be 3bdd e0bd
00000290: d976 163d 646d 133e 92b0 233e e0ff ca3d
000002a0: 75c6 c93e 278c a0be 32b1 223e 25aa 243e
000002b0: b827 0ebe 03a6 a5be cef8 623e ae22 823e
000002c0: 6a65 373d 4452 c3be d345 33be 237e 2f3b
000002d0: d3b6 1fbf ed92 06bd 075a 97be 36e0 47bd
000002e0: a529 e03d 3d15 0bbf 23f5 9ebe ed4f 81be
000002f0: 175b 3d3d 8ed6 06bb 3b65 9cbe 28d5 613f
00000300: 2fdc 91be 479b 53be 3809 b03e 03de b13c
00000310: c4f2 243f 5a73 2ebd a5a0 d1bd 7a0e d23e
00000320: 6c16 ab3e de3c c63a eb12 4f3f 44a5 de3d
00000330: 1d5a 82bf 4d3b d43c 5e4f 01be 7263 88be
00000340: df6c 15be 5dd7 9fbe 6541 9abc 3118 e93b
00000350: b00c 94be 6e47 223e 20e6 bc3e 21c7 55be
00000360: 4cf2 443e 9fa2 3e3e 0d84 41be ef19 aabe
00000370: 4f49 c13e 5d95 05bf 20a4 153e 48c4 86be
00000380: cf00 dabe 3295 69bd 21f1 de3d 8ba0 22bf
00000390: 4880 f53e 151f fabe 5b8e ae3e 7aaf bd3d
000003a0: 16d9 a63e 1cc3 113d a878 cd3e 675b d7be
000003b0: a5c9 b4be 1d8b a73e 3d4d dcbd e80f 9e3d
000003c0: 6e8b 133e 8022 cb3d 0baa 87be 3ad5 023e
000003d0: 6e48 38bd 7c5a 8d3f 519c e73d be66 55be
000003e0: da9a 83be ec60 cbbe fbb6 293c 5463 45bd
000003f0: e67c 503e edcc acbc c95c 8b3e 78ac 44bf
0.20991519 -0.12558427 -0.29558668 0.397349 0.20139834 0.061971948 -0.066931404 -0.17751773
0.3714719 0.45153362 0.6562748 -0.1936849 0.69578385 -0.22904792 -0.36325592 -0.53645265
0.06350191 -0.016304959 0.16083725 -0.0012863991 0.19683868 -0.11388688 -0.3392026 0.630898
0.18935862 0.50994295 -0.9775388 0.058658835 -0.9087853 -0.175698 0.21896686 -0.20085612
0.19766033 0.18781112 0.0027799255 -0.0028015207 -0.39288142 -0.29752526 0.28167006 -0.11396638
-0.0533241 0.5097614 -0.19576807 -0.06774891 -0.16748364 -0.2691697 0.6971184 -0.1556393
-0.2568459 0.11569127 0.0809598 -0.1360039 -0.3326387 0.09476166 0.19878834 -0.056085262
0.7175424 0.31611365 0.050841127 -0.21537441 -0.25548393 0.6930764 0.68160176 -0.06922557
0.15370362 -0.30261284 -0.15699318 -0.10771547 0.62042594 -0.19286539 -1.0066992 0.5280336
-0.1338904 -0.19492123 0.30366743 0.21698132 0.34698728 -0.3375901 -0.41487658 -0.7769081
-0.026299294 0.24719644 -0.18830581 -0.024375921 0.18400078 -0.11359884 0.02764189 0.08017033
0.23992737 0.23987901 -0.343945 0.051756725 0.082535684 -0.0659398 -0.38766727 -0.56216663
-0.73854345 0.2865898 -0.029157452 0.3089755 0.11940818 0.27098766 -0.44820803 -0.06557869
-0.37358537 0.512854 0.40452024 -0.5194353 -0.34479603 -0.019345887 -0.017134791 -0.07083957
0.65534043 0.017506547 -0.14075178 0.2045685 0.08865844 0.053158376 -0.258307 0.27292162
-0.28852665 -0.16738936 0.3853225 -0.5714403 -0.42943892 0.014975572 -0.6341075 -0.13633561
-0.46907848 -0.037838027 -0.5629474 0.4167508 0.46967015 0.12789415 -0.13149527 -0.07676534
-0.12003983 -0.040395256 0.2212187 0.07922261 0.15396875 -0.2617502 -0.07272111 0.5959409
0.13048786 -0.11151823 0.5091155 1.3659303 -0.1541036 0.59830785 -0.17025265 -0.08909207
0.6778305 -0.45287928 0.49480838 -0.070848644 -0.27375945 -0.311849 -0.19185737 -0.20576836
0.7184808 -0.09034741 -0.24190025 -0.10979696 0.036734436 0.14397198 0.15985325 0.099120855
0.39409223 -0.31356928 0.15887907 0.1608053 -0.13882339 -0.3235322 0.22165224 0.25417084
0.04477445 -0.381487 -0.17507105 0.0026778064 -0.6238834 -0.032854963 -0.29560873 -0.04879781
0.10945443 -0.5432928 -0.310464 -0.2525629 0.04622945 -0.0020574662 -0.30545983 0.88215876
-0.284883 -0.20664702 0.34382033 0.021712309 0.6443293 -0.042590477 -0.10235719 0.4102667
0.33415544 0.0015124341 0.8088824 0.10871366 -1.018375 0.025907183 -0.12627932 -0.2663837
-0.14592312 -0.31218997 -0.01883001 0.0071134795 -0.2891593 0.15847561 0.3689432 -0.20876743
0.19233054 0.18616723 -0.1889803 -0.3322291 0.37751243 -0.52181035 0.1461339 -0.26321626
-0.42578742 -0.05702705 0.108858354 -0.6352622 0.47949433 -0.4885184 0.34092984 0.09261985
0.32587498 0.03558646 0.40131116 -0.42061922 -0.35310093 0.32723323 -0.107569195 0.077178776
0.14408657 0.0991869 -0.2649692 0.12776652 -0.04499095 1.1043239 0.11309112 -0.20839974
-0.2570408 -0.39722383 0.010358567 -0.04819043 0.20360145 -0.02109381 0.27219227 -0.76825666

0.bias f4 [128]
00000000: 896f 793d 7e46 afbd d48a 19bd b7cb 7f3d
00000010: 16bf 1a3c 9985 963d af75 553e f1db 253e
00000020: 7962 413e dcca be3e 1fbd 91bd ccfd a73c
00000030: a477 f63d dc72 a83c d68d 6abd 5e3c 333d
00000040: 19fc 953d 4a89 b4bd 3cf5 c23d 91bc 09bd
00000050: 9181 20be aaf1 16bb c46a d8bd 1e0a b7bd
00000060: dd72 c6bd 301e 9abc 0b04 533e aeac 3cbe
00000070: 2aa3 1f3e 918e 47be 0dc8 bfbc 2a83 483c
00000080: d152 b63c 0d86 1fbe 0ba8 b03d 47b2 f8bd
00000090: acaa f33d 33d3 453e 175c 9e3d f112 523d
000000a0: ecbd 0f3d 105d f7bd f053 04be 4c8a bbba
000000b0: 937f 1b3e 9ef1 5cbe d2c1 e4bd 2f56 9ebc
000000c0: b3ae f73d c4f3 32be 1ef7 96bd 613a c13c
000000d0: 03c2 733d 6419 483e c183 04bd 6c60 55be
000000e0: 3876 2c3e 141a d2bd 64ef 93bd c526 253e
000000f0: ac34 25be 4af8 63be 9fe9 f23d bda6 c23d
00000100: 9183 123e 9410 babd 0e86 7c3d 0f58 253d
00000110: 9dac e53d d255 983d e413 9d3d 67e5 85bd
00000120: 416e 0a3d 8c8d c2bd e4a8 1c3e 8737 b43d
00000130: 969c 12bd 2bfa 3d3d 7d9c b1ba 32a0 603c
00000140: e9b3 853d 289c b0bc 4e41 11bc 1bc7 c83d
00000150: 72db 36be 0365 f6bd a6e3 433e 972b 95bd
00000160: 5c4e 23be db94 b1bd 754b e53d 8151 513e
00000170: ee55 9dbe 4795 0cbe 8060 873d caf3 2fbe
00000180: 1dad 56be 6646 0b3e 5f66 a7bd fec9 103e
00000190: 34b8 a3bd d825 c1bc c903 003e 3462 2f3c
000001a0: 9e9a bc3d af47 d9bd f06a a63e 0e58 cabd
000001b0: 88e5 dfbc a3b9 b03c b351 da3d 31a1 e33d
000001c0: eec7 5dba c4bf 453e afa7 23be a713 06bd
000001d0: a84d ed3c cd13 413e 3ac6 013e 09c1 023e
000001e0: 475c e33c 72fa 1bbd 0353 9d3d ba97 b93c
000001f0: 678b 8abe 5c3f 12be f748 173e 56da 1f3e
0.060897384 -0.08558367 -0.037485912 0.062450137 0.0094449725 0.073497005 0.20845674 0.16197182
0.1888522 0.37264144 -0.0711615 0.020506762 0.120345384 0.020562582 -0.05726417 0.043758743
0.073234744 -0.08815248 0.09519431 -0.033627097 -0.15674426 -0.0023032227 -0.10567239 -0.089374766
-0.09689877 -0.018813223 0.20607011 -0.18425247 0.15589586 -0.19487979 -0.023410821 0.012238303
0.022256287 -0.1557848 0.08625802 -0.12143379 0.118977875 0.19318847 0.077324085 0.051287595
0.035093233 -0.12078297 -0.12922645 -0.0014308183 0.15185384 -0.21576545 -0.11169781 -0.019328205
0.12093868 -0.17475802 -0.073713526 0.023587408 0.059511196 0.19540936 -0.032352213 -0.20837563
0.16841972 -0.1025888 -0.072233945 0.1612807 -0.16133374 -0.22262684 0.11860966 0.09504459
0.14308001 -0.09085193 0.061651282 0.040367182 0.11214564 0.07438244 0.076698095 -0.06537896
0.033796553 -0.09499654 0.15298802 0.087996535 -0.035793863 0.046381157 -0.0013550665 0.013710069
0.06528456 -0.021558836 -0.0088656675 0.09803601 -0.17857149 -0.12030985 0.1912981 -0.07283705
-0.1594786 -0.0867097 0.11196033 0.20441248 -0.30729622 -0.1372882 0.06610203 -0.17182842
-0.20964475 0.13601074 -0.081738226 0.14139554 -0.07994118 -0.023577616 0.12501444 0.010704566
0.092091784 -0.10609376 0.32503462 -0.09880076 -0.027331129 0.021572893 0.10660114 0.11114729
-0.0008460273 0.19311434 -0.15981935 -0.032733586 0.028967693 0.1885521 0.12673274 0.1276895
0.027753962 -0.03808064 0.07681849 0.022655357 -0.2705948 -0.14281982 0.14773928 0.15610632

2.weight f4 [128, 128]
00000000: 0d4f 7f3d 972f 5bbe 8589 0fbe 1bf7 38be
00000010: a383 f93e d710 62bd 5edf b0be fd93 d83e
00000020: e3cc 653f f31e 1e3d 3220 1fbf a7c0 92bd
00000030: 418e f33c f511 d8be 3a9a 5ebf 7fef 6ebe
00000040: 95ec 96be 0fa3 823e 4871 fa3e acb4 2b3f
00000050: 8b91 9dbd ba0b 2e3f 41f3 e93d 4205 8b3e
00000060: 12e3 09bd 0b1c ed3e 8ce2 4abd 82c0 a73e
00000070: 3f46 50be f069 e2be 8f0a e7be c38e 02bf
00000080: eec2 47bf 5977 443e 643f 2ebe 7e5c 7fbe
00000090: 8204 fabc f512 9cbe 1561 b83d d5d0 463d
000000a0: 5cbc 24bf 7528 19bf da4e ca3e 6393 1dbf
000000b0: f0cf 35be a4cf e93e 015f 05bf 75b1 b4be
000000c0: a73d f0bd 9f2c 393e 7f48 f8be a4fa 67be
000000d0: 616a 1b3e 0648 cebd d654 3d3e e793 233e
000000e0: c923 6b3d 4f48 30bf 05b3 833d d21a 7c3e
000000f0: 459c e9be 19c2 bf3e 06fb b13e 864c 633f
00000100: 3d59 18be 65a5 ac3d 92e4 09be e37f e73e
00000110: 79a5 ca3e c93f 26bf ac59 cebe 032e 863d
00000120: 69d0 87bf 83e3 b03d a5d3 edbe 7938 b1be
00000130: 987c 54bf ab5d 97be ccdd 093e 376f 6fbf
00000140: 664b 5ebe 1b04 47bb 5a39 f2bd 0103 a13e
00000150: 42b4 1e3e 8ad5 513d 6f7d a5bd 9453 5dbf
00000160: b57d a73e 5f35 5e3c a2a7 313e 30b7 1bbe
00000170: cf66 023e 5c69 803e fd0e b23e 552f 453c
00000180: bdfc bebe 17ee b93e 1825 693e 229e 77be
00000190: cc82 4dbf b62b ed3e 77bb a1be f0d6 743d
000001a0: 40c8 d0bd f0a8 8b3c 33fc 3f3e a766 03bf
000001b0: b016 35bf f533 133e e6e8 4b3f c82c 453d
000001c0: 5d86 9fbf cf0b a2be ebfa 1bbf f241 283f
000001d0: ae27 6b3e e10c 59bd 1af2 163f 4500 1c3f
000001e0: e9e3 3f3e 256c d6be 9654 083f 8bae bebe
000001f0: 7f0d 033e 029d 91be e628 56bf 9794 4f3e
00000200: c1a4 6f3e ee8c 4e3d fe4a 90be 4e7e 933f
00000210: c634 65be 0407 b1be ff6a 303f 59fc 323e
00000220: f121 a53e 8ad3 113e 7756 493e 0588 2bbe
00000230: cfc0 29bf a76f 5b3e 6c11 8c3f b14b 0e3e
00000240: cb9d 223f 11ae 43bf 3f9d 65be ac8f b9be
00000250: 0eaa 813e 73a7 86bf 8677 f3bd d221 9fbd
00000260: 03c3 063f e193 b9be 72a7 4e3c 859b df3e
00000270: 1cef 9cbe eb60 1f3e 2b59 133d c064 7dbe
00000280: ecf0 023f 37d2 cd3d 6664 e9bd 735d d33e
00000290: 37b3 1cbd 526c 753d 50f7 f6be 17eb 5b3f
000002a0: 3923 2e3f 0a44 623e d986 1dbe 308a 513f
000002b0: bf5d a8be aea1 3ebe 3890 1cbf 8755 073f
000002c0: dc3e 3c3e 2abe a7be ddb3 e53d e9db 9a3e
000002d0: 74bd 723e 7fdf 2bbf 3b1b ba3e f5ad 973e
000002e0: 9868 bdbe 0eed 8a3e 944d 25be 7952 b93e
000002f0: 9c71 253e 1c91 9a3e 4ae1 8dbe c777 24be
00000300: aeb9 093f acd7 163f 075c f8be 0a83 e23e
00000310: f8e8 34be 58c6 2a3f 0481 953e 7d96 8a3f
00000320: ac69 0ebf 8212 7ebd 66e3 0d3f 8d96 9dbe
00000330: 3f11 fb3e 5f6d 8c3e 7705 55bf 446b 07bc
00000340: e40d 14bb 7508 b3be e170 fa3e f045 37bf
00000350: 0889 e1bb 675d 33bf ae04 c8be f162 443f
00000360: e06e 31bc 4761 9abe 4729 8abe ffa3 c83c
00000370: 35f8 be3d 8366 21be 5888 223f f1a9 2cbe
00000380: bac4 e83e a8f9 e7bd 9157 62be d8c9 373e
00000390: 1656 b13e 6666 25be 8052 de3d e30c 8239
000003a0: 6556 dcbd 5ebf cfbe 66f1 84be 4231 aa3e
000003b0: 78ac 59be b345 b53d 4b19 b9be 0ef2 e8be
000003c0: efe4 a23e af50 98be f4dd d73d 47ae a5be
000003d0: 3cd2 dabe c7b4 48be a4b6 dbbe 8534 82bd
000003e0: 1881 6d3e 14d4 303f 4a7e 8bbe 6d3e 193f
000003f0: ef03 3a3d d30e 503e 99a0 2e3d 254b f9bd
0.062331248 -0.21404873 -0.14017303 -0.18063013 0.48733243 -0.05519184 -0.34545416 0.42300406
0.8976576 0.038603734 -0.621585 -0.07165652 0.029730918 -0.422012 -0.8695408 -0.23333548
-0.29477373 0.2551503 0.48914552 0.6707256 -0.07693776 0.67986643 0.1142335 0.2715245
-0.033663817 0.46310458 -0.04953246 0.3276406 -0.20339297 -0.4422145 -0.45125243 -0.5099909
-0.78031814 0.19186153 -0.17016369 -0.24937627 -0.030519728 -0.30483213 0.09002892 0.048539
-0.64349914 -0.5982736 0.39513284 -0.6155302 -0.17755103 0.4566623 -0.5209809 -0.3529164
-0.11730509 0.18083428 -0.4849281 -0.22654206 0.15177299 -0.10072331 0.18489394 0.15974389
0.057407174 -0.68860334 0.0643063 0.24619606 -0.45627037 0.37452772 0.34761828 0.8878864
-0.14877792 0.08429984 -0.13466099 0.45214757 0.3957937 -0.6494108 -0.4030279 0.06551745
-1.0610477 0.086371444 -0.46450534 -0.34613398 -0.83002615 -0.2956365 0.13463515 -0.93529075
-0.2170845 -0.0030367437 -0.11827345 0.31447604 0.1549845 0.051229037 -0.08080565 -0.86455655
0.32713094 0.013562529 0.17349103 -0.15206599 0.12734531 0.25080383 0.3477706 0.012035211
-0.373022 0.3631446 0.22768056 -0.24181417 -0.80277705 0.4632241 -0.31588337 0.059775293
-0.10194445 0.01704833 0.1874855 -0.5132851 -0.70737743 0.14375289 0.7965225 0.04813841
-1.246288 -0.31649634 -0.60929745 0.65725625 0.22964355 -0.052990798 0.5896317 0.6093791
0.18739285 -0.41879383 0.5325407 -0.3724254 0.12798117 -0.284401 -0.83656156 0.20271526
0.23402692 0.05042737 -0.28182214 1.152292 -0.22383413 -0.34575665 0.68913263 0.17479075
0.32252458 0.14240852 0.1966189 -0.16751106 -0.6630983 0.2142931 1.0942817 0.13896061
0.6352202 -0.7643748 -0.22423266 -0.36242425 0.25325054 -1.0519851 -0.11888032 -0.077701226
0.52641314 -0.36245635 0.012613164 0.4367334 -0.30651176 0.15564315 0.03597371 -0.24745464
0.5114887 0.10049861 -0.113961026 0.41282234 -0.03825685 0.059917755 -0.4823556 0.85905594
0.68022496 0.22096267 -0.15383472 0.8185148 -0.32884023 -0.18616363 -0.6115756 0.5286488
0.18383354 -0.3276227 0.11215947 0.30245903 0.23705083 -0.671379 0.363489 0.29624906
-0.3699386 0.27133983 -0.16142875 0.36195734 0.1615662 0.30188835 -0.27710944 -0.16061316
0.5379895 0.5892284 -0.4850771 0.442406 -0.17666996 0.667089 0.29199994 1.0827175
-0.5562999 -0.06202937 0.5542511 -0.30778924 0.49036595 0.27427194 -0.83211464 -0.00826532
-0.0022591287 -0.3496739 0.48914245 -0.7159109 -0.0068827905 -0.70064396 -0.3906607 0.7671347
-0.010829657 -0.30152342 -0.26984617 0.024492262 0.093246855 -0.15761761 0.63489294 -0.16861703
0.4546259 -0.11326915 -0.22103716 0.17948091 0.3463599 -0.16152343 0.108555794 0.00024805134
-0.10758666 -0.4057569 -0.25965422 0.33240706 -0.21257198 0.08851185 -0.3615211 -0.45497173
0.31815287 -0.29749057 0.10540381 -0.32359526 -0.4273852 -0.19600211 -0.4291278 -0.063576736
0.23193777 0.69073606 -0.27244788 0.5986088 0.045413908 0.20318155 0.042633627 -0.12172536

2.bias f4 [128]
00000000: a237 96bd 6f43 f8bd 498d 89be c8ac 34be
00000010: ad5d 8ebd b52f 8e3e b71a 593d 87cd 6e3d
00000020: 10a6 18be 0c56 e73c f895 11be c346 07be
00000030: 54a5 68bd 18f2 b53d 4c81 3d3e 7541 c6bd
00000040: 6a7d 92bd 5b7f 57be bc94 f13d c4ed dabd
00000050: 5c4e 493e 9a7f 83bd 1901 1fbd fabe c23b
00000060: 889e a03d e676 1f3e b969 cdbe a8a2 94be
00000070: 2f91 77bc abb2 30be 172f 743d c82f 7e3d
00000080: 8740 ee3d 3849 b5bd ca26 94bd 714d ac3d
00000090: 0759 92be 42aa 3cbc 7554 453e c13e 5abd
000000a0: 3d1f 1d3e cbb2 d4bd ad8b 723d d211 fa3d
000000b0: ceee e13c dee3 28be a421 9e3b 1a5d 6cbd
000000c0: 1dc4 5bbe 04e4 14be 1092 49be 5411 be3d
000000d0: 3e84 c6bd 8d77 013c 932e 5e3e 530b 313d
000000e0: e412 33be 1bf1 c9bd d37c 143e 9256 da3a
000000f0: 7ae1 53be 2847 c63d ac13 233e 3ca2 b13c
00000100: d6e8 96bd ed35 f33d 1bf5 73bd 0362 25be
00000110: 2f6b b5bd 7206 94be 7cea 943d dadb 013c
00000120: 5f5a 133e 749d 963d c2eb 583c 7869 9e3e
00000130: 71b9 e73c 919e 9abd 09a5 f2bd b7de 8abd
00000140: 133f 03bd f6e4 2b3e ff4e c43d d804 e6bd
00000150: adc3 0bbe 970f 343e e1d3 afbc 70bb 71bd
00000160: 2ed6 18be 540b 8cb9 567e 3a3e 0bc0 3abc
00000170: 020b 323e 29d3 fcbd d538 f73d 8620 b23c
00000180: b0e4 96bd d8c4 04be c5a7 283d bec0 7abe
00000190: 6e08 97bd fc54 15be a13a f6bd f200 62bd
000001a0: 3f2f a53d 12e1 36be 62c0 263e 9f43 1b3d
000001b0: f024 f63d c267 3fbe abd4 f93d 9690 b63d
000001c0: 49e9 653b 95eb d237 3073 d13e 4a06 98bd
000001d0: 2626 923b d4fc 07bd 04cc 7a3e 5e9d 0c3e
000001e0: a851 333e fcf4 41be 4841 50bd 16b5 1cbd
000001f0: 9e2f 333e 00bb 253e faa0 203e 3478 bfbd
-0.0733483 -0.12122237 -0.26865605 -0.17644036 -0.06951461 0.27770773 0.053003993 0.058301475
-0.14907098 0.028239273 -0.14217365 -0.13210587 -0.056798294 0.08884066 0.18506354 -0.09680454
-0.07152827 -0.21044676 0.11795947 -0.106898814 0.19658798 -0.064208224 -0.038819406 0.0059431763
0.078427374 0.155727 -0.40119722 -0.29030347 -0.015110298 -0.17255656 0.05961522 0.062057287
0.11633401 -0.08851856 -0.07233961 0.08413208 -0.28583547 -0.011515202 0.19270499 -0.053282503
0.15343948 -0.103856646 0.059215236 0.1221043 0.027579691 -0.16493174 0.0048257876 -0.057705976
-0.2146153 -0.14540106 -0.19684625 0.09280649 -0.09693192 0.007902038 0.21697454 0.04322369
-0.17487675 -0.0986044 0.14500742 0.001665788 -0.20691481 0.09681541 0.15925473 0.021683805
-0.07368629 0.1187552 -0.059559923 -0.1615067 -0.08858334 -0.28911167 0.07271287 0.007925952
0.14389943 0.073542506 0.013239803 0.3093984 0.028286668 -0.075497754 -0.11847884 -0.06780761
-0.032042574 0.1678656 0.0958538 -0.112313926 -0.13648863 0.17584072 -0.021463336 -0.059016645
-0.14925453 -0.0002671132 0.18212256 -0.011398326 0.17387012 -0.12344963 0.12071387 0.021744024
-0.073678374 -0.12965715 0.041175622 -0.24487588 -0.07374655 -0.145832 -0.12022901 -0.055176683
0.08065652 -0.17859295 0.16284326 0.037906285 0.12018764 -0.18691924 0.12198766 0.08914296
0.0035081676 2.5143652e-05 0.40908194 -0.074230745 0.004460114 -0.0332001 0.24491888 0.13731906
0.17511618 -0.1894111 -0.050843507 -0.038258635 0.17498633 0.16184616 0.15686408 -0.09349099
