dir_save/reference_training_result/we0_critic_linear_700.pth (torch, 1631 bytes, 1 tensors)

weight f4 [1, 128]
-5.0604653 7.1676393 3.7314703 3.9280605 3.0395937 -3.7573779 -4.2119765 3.9285371
2.7365594 4.22346 4.715265 7.2611017 4.7049084 -4.748236 -3.20246 2.605504
3.4532685 5.9111447 -4.0243607 4.7909174 -3.9908445 4.05159 3.264812 -3.7120924
-3.1585686 -3.2173584 3.4878705 2.779487 2.281871 3.8938158 -3.6257527 -5.2484446
-4.282891 3.5041988 -3.2987294 -4.2732186 7.324547 3.2803946 -3.4484243 -4.3258286
-4.105867 4.7054143 -3.621463 -4.5649147 -3.2364376 -3.120765 4.1013546 3.9989629
7.63962 3.556955 4.401028 -7.0319285 -3.647189 3.1970637 -4.552709 4.3516965
3.6079166 2.867295 3.3041978 -3.1051404 3.6004126 -3.009827 -5.285366 3.6481347
-3.5652993 -3.968251 3.7018847 5.069151 3.7197018 4.3963947 -3.235993 4.2641783
-4.7916455 3.5304034 -4.1201878 -5.1877236 5.580379 4.58616 4.7259793 3.8224535
5.450721 -3.5883698 -5.8026705 -3.7442343 -3.106188 -4.4085355 3.3705213 3.6610343
3.0225449 3.8598077 -4.0497165 2.617425 -4.113898 4.440383 -4.517442 -4.6220794
-4.026336 4.2112904 3.2444584 5.105996 3.576263 3.5702438 3.4507134 -3.3838973
-3.2070057 -3.6339908 -4.0803204 3.538587 -3.8022194 4.296053 -2.9381478 -4.3097706
3.735216 -3.0480251 -4.9465795 4.192322 -3.802855 -4.2273564 -7.2088966 -5.10797
-4.4577684 5.5832973 -3.7195706 5.132868 -8.753939 -4.780002 -4.3278317 5.397699
00000000: 55ef a1c0 4d5d e540 69d0 6e40 5865 7b40
00000010: b488 4240 e178 70c0 83c8 86c0 276d 7b40
00000020: ca23 2f40 9626 8740 73e3 9640 f25a e840
00000030: 9c8e 9640 8df1 97c0 1bf5 4cc0 94c0 2640
00000040: 5a02 5d40 1928 bd40 90c7 80c0 324f 9940
00000050: ff69 7fc0 a0a6 8140 aef2 5040 ec92 6dc0
00000060: fd25 4ac0 33e9 4dc0 4539 5f40 1de3 3140
00000070: 2d0a 1240 4734 7940 550c 68c0 42f3 a7c0
00000080: 710d 89c0 cb44 6040 621e 53c0 35be 88c0
00000090: b062 ea40 fcf1 5140 fcb2 5cc0 306d 8ac0
000000a0: 4363 83c0 c192 9640 0dc6 67c0 c813 92c0
000000b0: cb21 4fc0 9dba 47c0 4c3e 8340 02ef 7f40
000000c0: c477 f440 27a5 6340 39d5 8c40 8f05 e1c0
000000d0: 8b6b 69c0 b19c 4c40 cbaf 91c0 1941 8b40
000000e0: 1be8 6640 c381 3740 fa77 5340 9fba 46c0
000000f0: 296d 6640 01a1 40c0 b821 a9c0 0a7b 6940
00000100: dd2d 64c0 d3f7 7dc0 aeeb 6c40 7c36 a240
00000110: 980f 6e40 44af 8c40 821a 4fc0 2674 8840
00000120: 2955 99c0 21f2 6140 94d8 83c0 d501 a6c0
00000130: 7792 b240 d3c1 9240 393b 9740 14a3 7440
00000140: 4e6c ae40 daa7 65c0 7aaf b9c0 89a1 6fc0
00000150: c9cb 46c0 b912 8dc0 9fb6 5740 634e 6a40
00000160: 6071 4140 1707 7740 4797 81c0 e483 2740
00000170: 0da5 83c0 9e17 8e40 e38e 90c0 13e8 93c0
00000180: bfd7 80c0 e4c2 8640 35a5 4f40 5264 a340
00000190: 7ee1 6440 e07e 6440 7dd8 5c40 c691 58c0
000001a0: 953f 4dc0 4e93 68c0 fc91 82c0 3678 6240
000001b0: 9057 73c0 4479 8940 9d0a 3cc0 a4e9 89c0
000001c0: c70d 6f40 d812 43c0 614a 9ec0 8027 8640
000001d0: fa61 73c0 8146 87c0 48af e6c0 7e74 a3c0
000001e0: 0aa6 8ec0 5faa b240 720d 6ec0 7440 a440
000001f0: 2210 0cc1 c7f5 98c0 997d 8ac0 f3b9 ac40
