dir_save/reference_training_result/we0_actor_900.pth (torch, 133827 bytes, 4 tensors)

0.weight f4 [128, 128]
000000 00 bd 09 bd 78 86 b2 3c 81 90 27 3d 67 32 a2 3c
       -0.03362751 0.021792635 0.040909294 0.019799424
000010 7a c5 4f 3d 0b 71 e8 3b 20 b6 b5 bd 22 c8 c5 3d
       0.050725438 0.007093554 -0.08872628 0.09657313
000020 1d e5 cd 3d 50 2d 94 bd 61 96 21 3e a2 12 96 3d
       0.100534655 -0.07235205 0.15780021 0.07327773
000030 b6 3d eb 3d 43 61 e1 3d c6 e6 87 3c 76 d1 32 3e
       0.1148638 0.11004879 0.016589534 0.17462716
000040 b4 6f a2 bd e7 4d 49 3d cc 7c e6 bd 54 0e 78 3b
       -0.07931462 0.04914656 -0.11254272 0.0037850337
000050 cf 34 07 3e ae 64 dc 3d c1 dd 0c 3d 6c 83 94 bd
       0.13203739 0.107613906 0.03439117 -0.07251629
000060 7c 81 68 3e 12 c7 48 3d 35 bf c2 3c 1f 1d 8f 3d
       0.22705644 0.049017973 0.023772815 0.06987976
000070 00 c6 59 3c fa c1 74 bd b7 fa cc bc b0 94 ae 3d
       0.013291836 -0.059755303 -0.025021894 0.08524454
000080 9f 76 28 3e d7 7a 0d be 33 c4 be 3c 8f 7e 77 3d
       0.164515 -0.13816391 0.023286914 0.06042343
000090 6e c3 0d bd 6a 6a 1b be e2 94 2c 3e cf 58 bb 3d
       -0.034610204 -0.15177312 0.1685367 0.09147798
0000a0 35 f7 b0 bc 32 41 fa 3d f3 44 9f bd 0b 30 ee 3c
       -0.021602252 0.12219466 -0.07776823 0.029075643
0000b0 45 4a b5 bd ff 32 9e bd a6 f3 b4 3c 6c bd ca 3c
       -0.088520564 -0.077245705 0.022088837 0.024748527
0000c0 dd 78 7b 3b bb 99 2e 3d e1 df 51 3e 50 d2 84 3d
       0.00383716 0.042627078 0.2049556 0.064854264
0000d0 3c 68 42 3d e5 67 1c 3e 35 89 a5 3d 2e 83 3a 3d
       0.047462687 0.15274008 0.08082811 0.04553526
0000e0 b5 3f a8 3c 65 1b b4 3d 75 2b 6b 3e 36 9c ae bc
       0.02053819 0.087942876 0.22965796 -0.021314722
0000f0 15 5d 30 be 28 62 e7 bd 61 c7 a4 3d 51 85 21 bd
       -0.17223008 -0.11298019 0.08045841 -0.03943378
000100 50 ee 13 3d 04 69 ec bc c5 6b 8f bd b2 2d 14 3d
       0.036115944 -0.02885867 -0.07002977 0.03617639
000110 8f 73 7f 3d 87 ca 43 3d 99 a7 d2 3d fe 9b 72 3d
       0.062366065 0.047800567 0.10285873 0.059230797
000120 94 11 73 bc 05 d9 88 bc 8c a2 41 3e 53 b4 a7 bc
       -0.014835734 -0.016705045 0.18909663 -0.020471727
000130 6a e3 5c bc 99 23 b3 3d fc 50 43 3c 83 5f f1 3b
       -0.013481954 0.08747024 0.011921164 0.007366122
000140 5f f7 e5 bd d7 b9 c6 3d ad 53 02 be 6e 13 46 3a
       -0.11228823 0.09703415 -0.12727232 0.0007555996
000150 e2 43 0d 3e 39 a3 5e bd c8 b8 fb 3b 0a 19 0b bc
       0.13795426 -0.05435488 0.0076819398 -0.0084898565
000160 d1 f6 20 bb ee 8f 94 3d 65 03 57 bd 27 ec 22 3e
       -0.0024561177 0.07254015 -0.05249347 0.15910397
000170 e1 90 25 bd 2b c7 26 3d 0b e9 db bd d5 df 95 3d
       -0.04042137 0.040717285 -0.10737809 0.07318083
000180 3f c8 31 bd 28 b4 7a 3d c0 ba 1b bd d6 5c 01 be
       -0.04340386 0.061206967 -0.038019896 -0.1263307
000190 c5 59 29 3d 82 52 b6 bd 50 ed 16 3e 12 f7 e6 3c
       0.041345377 -0.08902456 0.14738965 0.028193984
0001a0 e9 57 5c 3d 1c 37 53 bc fb ef fc 3d 32 71 5c 3e
       0.053794775 -0.012891557 0.1235046 0.21527556
0001b0 b6 9b f3 bb f5 94 26 bd 04 1c b3 bc 46 a7 72 be
       -0.0074343337 -0.0406694 -0.021863945 -0.23696622
0001c0 91 b1 73 bd dc 8e 1a 3c bc dd 99 ba 1c cd 44 bd
       -0.059495512 0.009433474 -0.0011739056 -0.04804717
0001d0 06 2e a2 bd 25 9e 05 be 53 23 94 bd 75 fc 1a 3e
       -0.079189345 -0.13048609 -0.072333 0.15135367
0001e0 00 22 41 3d 38 f6 be bc c5 3e 5f 3c 5a d7 15 bd
       0.047151566 -0.023310766 0.013625805 -0.03658233
0001f0 4e ad 2f be 37 01 38 be c1 db 7d 3c 3a ad eb bc
       -0.17155954 -0.17969213 0.015494288 -0.028769124
000200 95 df 72 3d 85 23 fa 3d 61 e2 97 3d 62 cd b9 3d
       0.059295256 0.12213806 0.07416225 0.09072377
000210 27 58 e6 bd 22 22 e7 bc ce b3 48 3d fe 9f bf bd
       -0.112472825 -0.028214518 0.0489996 -0.09356688
000220 4c f4 da 3d 61 ba 16 bd a2 0d bc bc 96 1f 01 3e
       0.10691127 -0.03679884 -0.02295572 0.12609705
000230 6c 06 b2 bd f9 84 fa bd f0 27 17 bc c4 97 95 3e
       -0.08692631 -0.12232394 -0.00922583 0.2921735
000240 e6 b5 62 bd 92 5a f7 3d 54 2d ee bc d1 8d 17 be
       -0.055349253 0.12077822 -0.029074349 -0.14800192
000250 24 79 1c bd a4 e6 3c 3d be 3e 09 3e ad 60 d3 bc
       -0.038201466 0.046118394 0.1340284 -0.025802935
000260 4f d1 b5 3c 86 78 94 bb ee 09 f0 bc 5f e1 ae 3d
       0.022194533 -0.004530969 -0.02930161 0.0853908
000270 9f 49 24 3d 81 52 bd bd ff 8a e1 ba b5 b2 38 3c
       0.040109273 -0.09244252 -0.0017207562 0.011273076
000280 cf 23 c7 3d 25 c3 8b bd 0c 35 93 bd e6 7d 4b 3c
       0.09723627 -0.0682433 -0.07187852 0.012420153
000290 06 33 5a 3d ea 3d 95 bd ea 0e 5d bd 53 20 30 3e
       0.053271316 -0.072872 -0.0539693 0.1719983
0002a0 93 88 da 3d d8 97 28 bd b7 55 e6 3c 7b 56 fc 3d
       0.10670581 -0.041160434 0.028117044 0.12321182
0002b0 d5 66 09 3c 34 02 cc bd 7a 07 4e bd 79 36 2f 3e
       0.0083863335 -0.09961358 -0.0503001 0.17110623
0002c0 b7 7e b2 3c 4d ad 3d 3d 74 bb 13 3e c9 ed 04 be
       0.021788938 0.04630785 0.14426976 -0.12981333
0002d0 3f c3 ce bc ff 84 a7 3d 32 31 b5 bd 08 0a 33 3e
       -0.025239585 0.08179664 -0.08847274 0.17484295
0002e0 aa 5f 6d bd 36 d8 80 3d 00 4e 1c 3c 49 5f 06 3d
       -0.05795256 0.06291239 0.009540081 0.032805715
0002f0 55 a3 8e 3c 21 73 93 bd 49 0c f1 bc a2 2e 55 3e
       0.017411867 -0.071996935 -0.029424803 0.2081857
000300 c7 24 29 be c7 e7 10 bd 68 07 fe 3d 93 fd a0 bd
       -0.16517936 -0.03537729 0.124037564 -0.078608654
000310 b4 29 14 3e 60 96 08 bd 8f 06 83 bd 24 ad 19 be
       0.14469033 -0.033346534 -0.06397735 -0.15007454
000320 ff eb 28 3e bd 2c 54 3e 9f 85 86 bb 1c e7 aa 3d
       0.16496275 0.20720191 -0.0041052843 0.08344862
000330 c2 12 98 bd 71 58 7c 3d 67 e6 3a bd fe 12 23 bd
       -0.07425453 0.06160778 -0.045629885 -0.039813034
000340 e8 f4 3c 3d b1 41 72 bd 72 d0 e6 3c 13 24 12 bd
       0.046132 -0.05914468 0.028175566 -0.035678934
000350 56 42 90 3d 51 fa dc 3d c7 ec 83 3d 45 4e 3d bd
       0.070439026 0.107899316 0.06441646 -0.04621722
000360 ed e2 97 3c 10 eb 92 3d 6c 8a a0 39 e8 90 37 be
       0.018540824 0.07173741 0.0003062071 -0.17926371
000370 bb 82 e1 bd fe 1f 4d 3e cc 9f 83 bb 1a dc 47 be
       -0.11011263 0.20031735 -0.004016852 -0.19517556
000380 80 e0 ec 3d 29 16 f3 3d f1 ba 49 3d 5f 60 96 3d
       0.115662575 0.11869461 0.049250547 0.073426
000390 8f a1 29 bd 9b c2 8e bb 96 b6 4a 3d 67 cd 04 be
       -0.04141384 -0.004356695 0.049490534 -0.1296898
0003a0 ed 68 fe bd c8 be f9 3b bd 42 b1 3b a3 96 54 bd
       -0.12422357 0.00762162 0.005409567 -0.05190147
0003b0 99 f7 56 3c fa dc 44 3d 47 42 a9 bd 96 37 dc bd
       0.013120555 0.048062302 -0.082645945 -0.1075279
0003c0 a9 de 90 bd 2c ae 62 be 86 88 60 bc 3e 43 a8 3d
       -0.07073719 -0.22136754 -0.013704425 0.082159504
0003d0 c5 ce 02 bd 6b 1e be 3d ec 46 6b bd cb e4 1e 3e
       -0.031935472 0.092831455 -0.057440683 0.15516965
0003e0 0c 3d 0c bd b7 e0 7c bc 54 b5 a1 3d 61 6a 87 3d
       -0.034237906 -0.015434436 0.07895914 0.06612087
0003f0 06 7a 3e 3e 88 de ef bc d2 ef 08 bd f6 68 da 3d
       0.18601236 -0.029280916 -0.033431835 0.10664551

0.bias f4 [128]
000000 b8 52 fa 3c d0 6d 4e bd 57 cd 31 3d fc aa 77 3c
       0.030557021 -0.050397694 0.043408718 0.015116449
000010 37 44 10 bd e7 fe 49 bb 76 8c 19 3c e5 29 9e 3a
       -0.035221305 -0.00308221 0.009371867 0.0012066929
000020 21 6d 93 bc 02 ab a3 bc 54 33 ea 3b 72 ce 2e bd
       -0.017996373 -0.019979004 0.007147232 -0.04267735
000030 9b f8 68 bc 08 9e 9e 3d 8f 92 33 bc c0 77 ab 3c
       -0.014219428 0.07744986 -0.010960235 0.020931125
000040 e6 a5 18 bc ec ba 0e bb ee e6 38 3c 98 d7 24 3d
       -0.009316897 -0.0021778895 0.011285527 0.04024467
000050 4d ed 9c 3a 48 a5 68 3a b5 bc cd 3c fc 90 b4 bc
       0.0011972577 0.00088747265 0.025114397 -0.02204179
000060 56 1e a0 3b e1 9f 00 3d ac 29 0f 3c 46 67 2a 3d
       0.004886429 0.031402472 0.008737963 0.041602395
000070 b4 81 fe bc b6 e0 b8 3b a4 5c c9 bc 46 96 ce 3b
       -0.031067707 0.005642022 -0.024580307 0.006304535
000080 bc 17 1a bc 16 20 49 3d ae 2b 16 3c a1 2f 19 bd
       -0.009405073 0.049102865 0.0091656875 -0.037398938
000090 73 22 91 bb be a3 2f 3c ff ab 16 bc 8c ca e5 3c
       -0.0044291555 0.0107201915 -0.0091962805 0.028050683
0000a0 e1 c3 6b 3c 56 ab 8e 3c 7f 07 83 bd 33 4f 64 bd
       0.014389963 0.017415684 -0.06397914 -0.055739593
0000b0 7e 9a 78 bb 36 3a 0d bb fe 41 12 bc ff b1 c8 ba
       -0.0037933881 -0.002154959 -0.008926867 -0.0015311836
0000c0 a0 20 4e 3c 66 fe 17 bd 40 d5 1c 39 07 65 02 3b
       0.012581021 -0.037107848 0.00014956761 0.0019896643
0000d0 c7 e7 bc bc ab 4c fb 3b 1f 58 47 bc c6 52 37 3c
       -0.023059739 0.0076690516 -0.012167006 0.011189168
0000e0 ea a9 0f bb 3e 2d f2 bc d9 65 3c bc 4f 82 61 3b
       -0.0021921345 -0.029562589 -0.011498892 0.0034409945
0000f0 dc 86 97 bb 74 96 65 bc dc de 1b 3d dc 0e 3e bd
       -0.004624231 -0.014012922 0.038054332 -0.04640089
000100 76 fb 03 3d 9c a7 18 bc 58 e1 93 bd c0 c0 96 3c
       0.032222234 -0.009317305 -0.07220715 0.018402457
000110 10 0b 89 bc 8f 4d b3 bc 08 85 14 b9 63 59 e4 3c
       -0.016728908 -0.021887569 -0.00014163938 0.027874654
000120 32 e5 21 bd 56 b4 a6 3c 6f 79 09 bc 92 42 4c bc
       -0.03952522 0.020349663 -0.008390768 -0.0124670435
000130 df c6 e7 bc 33 8a 3c bc 3f 7e 60 bc c3 e0 2b bb
       -0.028293071 -0.011507559 -0.013701974 -0.0026226498
000140 7f 12 15 3c 73 4d 5b bd f5 b3 db bc 3f 23 80 bc
       0.009098648 -0.05354066 -0.026819209 -0.015641807
000150 8c 77 d7 3a 1d ae 99 3c aa 79 4b 3b ee 99 11 bd
       0.0016438826 0.018759781 0.003104786 -0.03554719
000160 9d 2e f8 bc 67 b4 46 bc 9d 86 02 3d 91 ef 19 bc
       -0.030295664 -0.012127972 0.03186666 -0.009395496
000170 54 9c 80 bc 59 4f ad bc 3b 59 04 3c 9e 0e e6 bb
       -0.015699543 -0.021156 0.008077915 -0.0070207855
000180 cd 42 f6 bb 71 a5 20 3c 96 54 56 bc ae 5d b2 bc
       -0.0075152875 0.009805069 -0.01308169 -0.021773186
000190 5b 89 c8 3b 7e f0 4e bd 15 69 05 bb 99 3b 0b 3c
       0.0061198897 -0.05052232 -0.0020356823 0.008498096
0001a0 34 46 10 3c 93 ac bf bb e5 4e 83 bc 4a 43 a0 ba
       0.0088058 -0.00584943 -0.01602883 -0.0012227085
0001b0 b9 d3 e2 bc d5 6b f3 bc f1 23 82 bb 06 95 86 3c
       -0.027688848 -0.029714504 -0.0039715697 0.016428482
0001c0 64 06 24 bc 96 bc 2c 3b 83 05 a9 3c 02 6d 13 3b
       -0.010011289 0.0026357523 0.020632511 0.0022495394
0001d0 36 80 8f 3c 4d 64 29 3d 92 33 76 ba fa 6d fe bc
       0.01751719 0.04135542 -0.000939184 -0.0310583
0001e0 a8 c8 cb bb 0d 80 9c ba 78 f9 03 bb 9b 30 91 bb
       -0.0062189884 -0.0011940018 -0.0020137709 -0.004430843
0001f0 ba 77 82 bd 30 83 b7 3a 6d b4 90 3c be 66 b4 3c
       -0.06370492 0.0014000889 0.017664159 0.022021648

2.weight f4 [128, 128]
000000 5a 98 47 bd 61 92 f6 3c 1a 8b 94 be ce 4b 3b bc
       -0.04872928 0.030099096 -0.29012376 -0.011431647
000010 4d 56 62 bd 7e b3 4a bd bf cf a8 bd c1 a6 9c bd
       -0.055258084 -0.049487583 -0.082427494 -0.07648993
000020 d5 9b 33 3e 57 b6 06 bc 9d b4 fd bd e0 ef db 3d
       0.17539914 -0.008222184 -0.12387965 0.10739112
000030 b8 70 8f 3c ad 9b e7 bd ad ff f9 bc d4 47 91 bd
       0.017509803 -0.1130899 -0.030517424 -0.07093778
000040 2b ca 9c bc fe 6f 1f 3e e8 c5 72 bd b3 9a 0c 3d
       -0.01913937 0.15570065 -0.05927077 0.03432722
000050 a2 5e d0 bd 29 1c f0 bc 1c 75 2c be 9f 55 a4 be
       -0.101743 -0.029310303 -0.16841549 -0.32096574
000060 4f 96 65 bb 13 07 89 3d 48 25 c1 bd ec b6 dd 3d
       -0.0035032218 0.066908024 -0.09430939 0.10825905
000070 12 2d 36 bd 17 eb b6 3d e0 7d 03 3c 58 b7 c7 bc
       -0.044476576 0.089315586 0.008025616 -0.024379417
000080 16 4a 03 be fc 9e 93 bc 54 c1 37 3d 50 69 95 3d
       -0.1282123 -0.018020146 0.044862106 0.072954774
000090 d2 fe b1 bc 07 89 1d 3d 9e 11 c8 bd a2 38 9c 3b
       -0.021727953 0.038460758 -0.09768985 0.0047674933
0000a0 b2 7c a3 bd d0 f7 a2 bc 8b c2 80 bb 9d 79 19 be
       -0.07982768 -0.019893557 -0.0039294413 -0.14987798
0000b0 be 8d f4 3d b1 79 cc bd 1d 83 b4 bd 8c 19 77 3d
       0.11941098 -0.09984148 -0.088140704 0.060327098
0000c0 18 5d 18 3d d8 47 06 bd 47 e7 5e bd f0 9e 0e 3d
       0.037198156 -0.03278336 -0.054419782 0.034819543
0000d0 46 30 64 3d 86 1e 83 3d 26 e0 41 bc a2 24 c4 bd
       0.0557101 0.06402306 -0.011833226 -0.095773
0000e0 c5 cb 1a 3e 47 0d 87 3c 6c 65 84 3d d7 bf d4 bb
       0.15116794 0.016485823 0.06464657 -0.0064925957
0000f0 b8 d3 74 bb f2 3f 56 3d 9f 94 35 3d 9e a2 37 3c
       -0.003735764 0.052307077 0.04433119 0.011208205
000100 3f 2a 69 bc 43 b8 c2 bd 70 24 1a bc c2 6d f5 3c
       -0.014231264 -0.095078014 -0.009408101 0.029959563
000110 d3 69 17 3e f5 b4 1a bd e9 d1 8a bb a4 a0 13 3c
       0.14786462 -0.03777023 -0.004236449 0.009010468
000120 5e 77 28 bc 19 d0 45 3e 9e 61 3f 3d ab aa c6 bd
       -0.010282366 0.19317664 0.046723954 -0.09700521
000130 0e 5e 2e bc 70 16 18 bd a7 20 c3 3d 0a b2 c2 3d
       -0.010642542 -0.037130773 0.09527712 0.095066145
000140 d5 2a 6d bd 65 15 02 3c 95 85 c1 bd 2d 3d ef 3c
       -0.057902176 0.007939671 -0.09449307 0.029203976
000150 6b 54 d4 38 c2 1a 1b bb ba 51 80 3d 30 e6 27 bd
       0.00010124672 -0.0023667072 0.06265588 -0.04099101
000160 a3 c9 9e bc 55 1f a5 3d 59 4e 0c be 92 ff 20 3d
       -0.019383257 0.08062617 -0.13701762 0.03930623
000170 a2 44 54 3e 7b f1 9e 3c de 8e 8e bd 0b 41 b3 3d
       0.20729306 0.019402256 -0.069608435 0.0875264
000180 cf 8d 34 3c 12 60 09 be 50 39 c7 bc 7a 92 f9 3d
       0.011020138 -0.13415554 -0.02431932 0.12186141
000190 84 6d 3d 3d e3 0a 67 bd 7a 8b 0d 3e 7e 3b b0 bd
       0.04624702 -0.056406867 0.13822737 -0.08605097
0001a0 f6 65 30 be fa 4b 9f bc eb c1 a2 3d b8 fc 43 3d
       -0.17226395 -0.019445408 0.07947143 0.047848433
0001b0 db a4 94 bd d0 cd 18 bd c5 cb 10 bd 49 a0 fa bd
       -0.07258006 -0.037305653 -0.03535058 -0.12237603
0001c0 4d 20 04 3e 82 fa 23 3e 8c cf 0c be fc 4a b2 bd
       0.12902947 0.1601353 -0.13751048 -0.087057084
0001d0 19 c1 19 bc 2d 8e 8f 3d 6e 6e 66 3d 9c e1 04 3e
       -0.009384417 0.0700954 0.056257658 0.12976688
0001e0 25 fb 6f 3d cc 5e 51 bd 6a 76 c7 3d 55 93 2c bd
       0.05858912 -0.051115796 0.097393826 -0.042132694
0001f0 f4 76 b4 bd 64 7d de bd a2 5d af 3d 1b 50 98 3d
       -0.08811751 -0.1086376 0.08562781 0.07437154
000200 c2 60 18 3d 08 fc c9 3d 28 f5 99 3c 3c ce cd bd
       0.03720165 0.09862524 0.018793657 -0.10049102
000210 8f 5a c9 bd a2 3d 7f 3d 9d 63 5c 3c 30 c5 92 3c
       -0.09831726 0.062314637 0.013451484 0.017916292
000220 aa ed ad bc 50 17 c3 bd 8c 25 fd bd 5b 59 ca bd
       -0.021231491 -0.09525931 -0.12360677 -0.098803245
000230 0d 06 37 3d 71 bf d3 bd 8c f0 1b 3c 81 ca 64 3d
       0.044683505 -0.10339249 0.0095178 0.055857185
000240 39 b3 d8 bc 57 68 3b 3d 3c 1c 5e 3e 60 0c 95 bd
       -0.026452648 0.045753803 0.21690458 -0.07277751
000250 44 59 7f bd a7 41 bc 3b 41 6b 45 3d 51 4b 80 bc
       -0.06234099 0.005745131 0.04819799 -0.015660914
000260 63 4f 80 bd ad c3 4f 3e 6d a1 7e bc 3f d2 23 bc
       -0.06265142 0.20289488 -0.015541417 -0.009998857
000270 32 68 2d be dd 9e 66 bc cc 4b bd bc 45 72 3c be
       -0.16934279 -0.014075962 -0.023107432 -0.18402965
000280 2d fb 2a bd e3 fa 88 3c 85 45 aa bd 9a ba 00 be
       -0.041743446 0.016721195 -0.08314041 -0.12571183
000290 84 80 b5 3d f9 07 7b bc 4e ef 67 bb 81 ff a5 3d
       0.08862403 -0.015321725 -0.003539044 0.08105374
0002a0 ac 62 12 be 8f 0d fc 3d 53 e8 42 3d c9 5e 04 3d
       -0.14295453 0.123072736 0.047584843 0.032316957
0002b0 16 30 8b bd 3a 73 b1 3d d7 f8 a4 bd 74 c4 63 3d
       -0.06796281 0.08664556 -0.08055275 0.055607274
0002c0 d1 15 86 3d 95 30 bd 3b 61 00 81 bd f2 7c d3 3c
       0.0654713 0.0057736137 -0.062989004 0.025816415
0002d0 3e 32 80 be 38 79 7b 3d e1 e3 3e 3d 87 fd 8b bd
       -0.25038332 0.0613949 0.04660404 -0.06835466
0002e0 ec 80 68 bd 58 82 28 be 13 50 92 bd fa 70 a1 3d
       -0.056763574 -0.16455972 -0.07144179 0.07882877
0002f0 6d a5 c6 3d c8 e2 64 bd 2e a3 be bd 6d 8c 45 be
       0.09699521 -0.055880338 -0.09308468 -0.1929185
000300 7e ba bd bd e6 ba 2c be 9f 54 e6 bd 92 1c ec bd
       -0.09264086 -0.16868171 -0.11246609 -0.11528887
000310 f2 38 bf bb 8c 50 8d 3d e0 ab 5d bc 6b c4 bc 3b
       -0.005835646 0.06900129 -0.013529748 0.0057607195
000320 50 b5 48 bd ed 09 6e 3d 08 17 49 3e b7 8e 41 be
       -0.049001038 0.058114935 0.19637692 -0.18902098
000330 41 37 5b 3d c6 f7 b0 3c 13 df a5 3d 5e c8 48 3d
       0.05351949 0.021602523 0.08099189 0.04901921
000340 6b 31 bd bd e1 ee 98 3d 51 46 69 3d 1b 07 c3 bc
       -0.09237941 0.074674375 0.056951825 -0.0238071
000350 70 3c e3 bc 00 be d2 3d e2 38 15 bd 7f 79 81 bc
       -0.02773878 0.10290146 -0.0364312 -0.015805004
000360 29 99 60 3d ca fc 00 be ef 0e 00 bd c8 60 30 3e
       0.054833565 -0.12596431 -0.03126424 0.17224419
000370 7a c2 d7 3d 09 be 5b 3a d0 a7 83 3d 8a 0e 68 3d
       0.1053514 0.00083825045 0.06428492 0.05665449
000380 0e 17 12 ba 34 5f 6e 3d 82 ba 91 3d 7a 73 25 3d
       -0.00055728934 0.05819626 0.07115652 0.04039333
000390 d8 3b 6c 3e 6f 40 24 bd bb 43 60 bd ee 22 d7 bb
       0.23069704 -0.04010051 -0.054752093 -0.0065654432
0003a0 d1 df 66 bd 14 ce 29 3d 31 b3 fc 3d 45 a2 7b bc
       -0.05636579 0.041456297 0.123388655 -0.015358512
0003b0 20 10 04 bd 3c 72 22 3d 68 22 97 bd 55 ea 97 bb
       -0.03224194 0.039659724 -0.07379609 -0.004636089
0003c0 8b 44 f7 bc ac e6 2c 3e b1 b4 fe bd 95 d0 9b 3d
       -0.030184051 0.1688487 -0.12436808 0.07608143
0003d0 43 9e e8 3d be 75 1d 3e c1 b2 e9 bb 81 55 04 bd
       0.11358311 0.15376946 -0.007131905 -0.032308105
0003e0 9e 80 99 bd 71 b4 1e ba 7e 66 11 3c b7 52 2b 3e
       -0.07495235 -0.00060541095 0.008874534 0.16730772
0003f0 2b 60 c2 3d 30 ed 08 3e fb a3 a1 3c 33 65 b9 bd
       0.09490999 0.1337173 0.019731512 -0.09052505

2.bias f4 [128]
000000 08 30 df bb ef 76 e3 3c 7d 17 f2 3a cd a0 10 bc
       -0.0068111457 0.027766673 0.0018470135 -0.0088274
000010 25 c6 86 3d 01 67 7f 3d fd a6 94 bd d1 17 a4 bc
       0.06580762 0.06235409 -0.07258413 -0.020030888
000020 6e cf 99 bc 1c ea d2 3c f5 82 3c 3c 2a 69 90 bc
       -0.018775668 0.025746398 0.011505832 -0.017628271
000030 bb db 19 bd 77 9a 75 3d 06 bb 00 3d 72 a5 b0 ba
       -0.037563067 0.059961762 0.03142836 -0.0013477041
000040 68 c1 62 3c a0 52 e6 ba 90 b2 56 bb 50 5c b9 ba
       0.013840057 -0.0017572232 -0.003276024 -0.0014141891
000050 15 33 8b bc d0 19 64 3d fb 72 86 3b 47 91 c7 ba
       -0.016992131 0.05568868 0.004103062 -0.0015225791
000060 cc 9b a0 bb 25 2d 3e bb a2 3b b7 3c 77 7c e5 3c
       -0.004901385 -0.0029018607 0.022367302 0.028013451
000070 a4 50 a8 bc 7f 51 a8 bc 96 61 74 bc aa 82 5e bc
       -0.020546265 -0.020546673 -0.014915844 -0.013580957
000080 ee 0c 0e 3d 5d a6 d5 3c 8c b6 7b 3b 18 3b 54 bd
       0.0346803 0.026080305 0.0038408367 -0.05181417
000090 c5 58 c8 3c 9e 5c eb ba c5 aa 30 bd 9c 4c d2 3c
       0.024456391 -0.0017956679 -0.04313161 0.025671296
0000a0 78 19 36 3b e8 4a da bc 35 a6 35 3c f5 ff 6d bc
       0.0027786177 -0.026647046 0.01108699 -0.014526357
0000b0 b3 3e e7 3c 89 f0 e5 3c 86 b0 4b bb c5 3d 89 bb
       0.02822814 0.028068798 -0.0031080558 -0.0041882717
0000c0 4e b4 00 bc 4c 0b c5 3b e7 9e 4a 3c 85 e6 56 3c
       -0.007855488 0.0060133096 0.012366987 0.013116484
0000d0 4e 15 03 3d 14 38 9e bc aa 3d 3a bd af 40 97 3c
       0.03200274 -0.01931385 -0.045468964 0.01846346
0000e0 82 bd 76 38 5d 20 16 3d 76 0c ab bc eb 64 15 bc
       5.8827463e-05 0.036651958 -0.020879965 -0.009118299
0000f0 8f ad 05 3d 29 2d b1 bb a6 59 57 bc 1c 59 a8 3c
       0.03263622 -0.005406995 -0.013143932 0.020550303
000100 e2 41 e7 bb 1b 8d 85 bd 8a ab cc bb 52 74 03 bd
       -0.0070574144 -0.06521054 -0.006246035 -0.032093354
000110 f3 66 8f 3c 6d a1 fd 3b 34 20 55 3b 1a 6a eb bc
       0.017505145 0.0077401907 0.0032520415 -0.028737117
000120 86 95 4c bc a3 b3 98 bb 61 8c 86 bd 87 74 51 bc
       -0.012486821 -0.0046600862 -0.06569744 -0.01278413
000130 0e d6 da bc 88 79 22 3d 9c 17 80 bc df 79 c6 ba
       -0.026713397 0.039666682 -0.015636258 -0.0015142522
000140 70 a1 31 3d dd 2f 4f 3d 9e 83 65 bc 4a b1 ff 3c
       0.04336685 0.050582755 -0.014008431 0.031212468
000150 9f 73 71 bc dd 28 d0 3b 8b 76 06 bd cb 3c 2f bd
       -0.014737039 0.0063525275 -0.032827895 -0.042782586
000160 c2 be 44 3c 9c ed 13 bd 34 18 71 3c 03 81 3a 3c
       0.012008371 -0.036115274 0.014715243 0.011383298
000170 92 b3 bf 3c d0 42 9a 3b c6 69 da 3c f8 96 18 bc
       0.023401055 0.0047076717 0.026661765 -0.0093133375
000180 49 be 28 bd cb a6 16 bb fa 15 26 bd 27 3f 92 bc
       -0.041197095 -0.00229876 -0.040548302 -0.017852379
000190 ed 5a b3 3c dc 31 88 3a 07 4c 15 3d dd 9d 7d 3c
       0.021893943 0.0010390836 0.03644946 0.015479532
0001a0 63 6a 99 3a 84 e1 0a bd ac 9e 01 bc f6 e2 94 bd
       0.0011704679 -0.033906475 -0.0079113655 -0.07269852
0001b0 be 3f a1 3b 4b e9 a8 bc 70 35 47 bd 04 1b 5e 3c
       0.0049209287 -0.020619055 -0.048634946 0.013556246
0001c0 e2 4d 51 3c 9c a6 f5 bc 98 04 3e 3d 17 a0 80 3c
       0.012774916 -0.029986672 0.0463911 0.015701337
0001d0 c7 1d 41 3c 92 ef 69 3b 34 55 2e 3b 21 f3 5f 3c
       0.011786885 0.0035695774 0.0026601078 0.013668806
0001e0 da 7d 9b bb 8e 34 34 3d f7 c7 18 3c 74 42 c2 bc
       -0.0047452273 0.043995433 0.009325019 -0.023713328
0001f0 f4 4c bc 3b 6e 52 df bb 74 68 b7 3b 53 fd c9 bc
       0.005746478 -0.0068152463 0.0055971686 -0.024656927
