dir_save/reference_training_result/we0_critic_linear_final.pth (torch, 1703 bytes, 1 tensors)

weight f4 [1, 128]
0	0xc07bb96e	-3.9331927
1	0x410bb71c	8.732204
2	0x40b1966e	5.549613
3	0x4098f8bb	4.7803626
4	0x40df6cc1	6.9820256
5	0xc0e73536	-7.2252455
6	0xc0d3792c	-6.6085415
7	0x400810e4	2.126031
8	0x40932d2a	4.599263
9	0x40208a28	2.5084324
10	0x40ea4475	7.3208566
11	0x41335b46	11.209784
12	0x40d618dc	6.6905346
13	0xc03c7f7c	-2.945281
14	0xc0b05f75	-5.5116525
15	0x403a8211	2.9141886
16	0x40e473a7	7.1391177
17	0x4093ef06	4.6229277
18	0xc01345e3	-2.3011405
19	0x409198d7	4.549907
20	0xc0d01911	-6.50306
21	0x400ff0cd	2.2490723
22	0x40a56cf2	5.169549
23	0xc0c12b75	-6.036555
24	0xc086e39b	-4.215284
25	0xc0a6d68f	-5.213691
26	0x40ad7194	5.4201145
27	0x409e9da4	4.9567432
28	0x40a4ec14	5.153818
29	0x402e49f9	2.723265
30	0xc105b8e6	-8.357641
31	0xc0cdfe11	-6.437264
32	0xc05a88e5	-3.4146054
33	0x40b23619	5.5691037
34	0xbfc0e939	-1.5071174
35	0xc0d7e71d	-6.746962
36	0x40eaed04	7.3414326
37	0x40ac25b5	5.379603
38	0xc08ddde5	-4.4333367
39	0xc11ba194	-9.726948
40	0xc0a264a8	-5.074787
41	0x41040b41	8.252748
42	0xc0b7558f	-5.729194
43	0xc0cc4e30	-6.3845444
44	0xc0c5418b	-6.164251
45	0xc0aa1b83	-5.3158584
46	0x401a1e90	2.4081154
47	0x40d87abb	6.7649817
48	0x40f9c0ea	7.804799
49	0x40d9ffc3	6.812471
50	0x40c97652	6.2956934
51	0xc0aa242f	-5.316917
52	0xc0be0694	-5.938303
53	0x4068a1d5	3.6348774
54	0xc0e863fe	-7.262206
55	0x405d47d3	3.4575088
56	0x40b21545	5.5650964
57	0x4096265f	4.692184
58	0x40e026da	7.0047426
59	0xc09cf648	-4.9050636
60	0x40865616	4.1980085
61	0xc0a5682a	-5.1689653
62	0xc108fb9c	-8.561428
63	0x3fec3b51	1.8455602
64	0xc0057494	-2.0852404
65	0xc0636bde	-3.5534587
66	0x406b454e	3.676105
67	0x405f95d5	3.49352
68	0x40b7db41	5.7455144
69	0x40c6c3cf	6.2114024
70	0xc0a0aa60	-5.0207977
71	0x4140e142	12.054995
72	0xc0870963	-4.219896
73	0x3fdd2cab	1.7279257
74	0xc0cf97fd	-6.4873033
75	0xc058a072	-3.3847928
76	0x41107b41	9.030091
77	0x40d41b45	6.628329
78	0x40cf68bd	6.4815354
79	0x404ff13e	3.2490993
80	0x40f0a33e	7.519927
81	0xc10b1420	-8.692413
82	0xc13aa4fc	-11.665279
83	0xc002a9cd	-2.0416138
84	0xc09cfcd9	-4.905865
85	0xc0f29156	-7.580241
86	0x3fc99411	1.5748311
87	0x40daba20	6.8352203
88	0x409a5953	4.823404
89	0x405957ea	3.3959908
90	0xc102b4f5	-8.169179
91	0x40cb9e6d	6.363089
92	0xc0c2db38	-6.08926
93	0x40828ebd	4.079924
94	0xc0f5ea76	-7.6848707
95	0xc0ee2144	-7.4415607
96	0xc0779376	-3.8683753
97	0x4095a3ab	4.676229
98	0x40903521	4.5064855
99	0x40e79022	7.2363443
100	0x40a26a8d	5.0755067
101	0x40ae807d	5.4531846
102	0x409f1879	4.9717374
103	0xc0b4e869	-5.6533704
104	0xc0c51e1c	-6.1599255
105	0xc0b4146f	-5.6274943
106	0xc0e8be0c	-7.273199
107	0x3fde25be	1.7355268
108	0xc0d0bb03	-6.5228286
109	0x410637dc	8.388638
110	0xc097b039	-4.7402616
111	0xc0d4e6c9	-6.653172
112	0x40c3eb2e	6.1224585
113	0xc0a1c43f	-5.055206
114	0xc0dbe6ab	-6.8719077
115	0x4018f14d	2.3897278
116	0xc0c6f80f	-6.2177806
117	0xc0217d54	-2.5232744
118	0xc14d1a4e	-12.818922
119	0xc0538d1f	-3.3054883
120	0xc02b0757	-2.672323
121	0x40ad758d	5.4205995
122	0xbff54966	-1.9163024
123	0x40efc11d	7.4923234
124	0xc17e577d	-15.896359
125	0xc0f65853	-7.698282
126	0xc108b48b	-8.544078
127	0x41063450	8.387772
