dir_save/reference_training_result/we0_actor_-600.pth (torch, 133833 bytes, 4 tensors)

0.weight f4 [128, 128]
000000 90 cf 8d bc 61 13 7e 3c 09 e7 84 ba d4 8d f9 3b
       -0.017310888 0.01550755 -0.0010139655 0.007615784
000010 09 69 f1 bc da 2c 8c 3c 12 60 a6 bd d6 54 d0 3d
       -0.02946903 0.01711123 -0.08123793 0.10172431
000020 45 cd bc 3d 91 24 57 bd 3e 71 27 3e ec 6b a0 3d
       0.092188396 -0.052525107 0.16351792 0.078330845
000030 db d4 95 3d ce 65 e1 3d ad 8a f2 3c c2 7b 1c 3e
       0.073159896 0.11005746 0.029607141 0.15281585
000040 dc 9a f7 bd 57 0e bc 3c b8 0e 9e bd 7e 18 4f 3c
       -0.12090084 0.022956057 -0.07717651 0.012640117
000050 e3 bb 00 3e 94 99 81 3d a7 1c e9 3c 41 67 d7 bd
       0.12571673 0.06328121 0.028456045 -0.10517741
000060 d1 63 4a 3e d8 1c 70 3d 6b 4b 1f 3d a8 90 34 3d
       0.1976464 0.058621258 0.038890284 0.044083267
000070 8a ee 78 3b be d0 4b bd 9e b5 09 bd a8 38 86 3d
       0.0037983977 -0.04975962 -0.03362047 0.06553775
000080 07 d3 2d 3e ec b2 04 be 53 51 14 3d fb e1 ec 3c
       0.16975032 -0.12958878 0.03621037 0.02891635
000090 a6 18 53 bd fc a1 16 be a4 0c 3e 3e 71 55 aa 3d
       -0.05153718 -0.1471023 0.1855951 0.08317078
0000a0 05 a9 12 bd f0 00 01 3e 8e b7 01 be 22 5f 17 3d
       -0.03580572 0.12598014 -0.12667677 0.03695596
0000b0 d7 35 6c bd c2 00 77 bd 04 8a 81 3c e0 1f 64 3c
       -0.057668533 -0.060303457 0.015812881 0.013923615
0000c0 2d c4 db 3c 64 1d 60 3d 59 19 75 3e 24 01 a7 3d
       0.026826942 0.05471553 0.2393545 0.081545144
0000d0 51 3a 2d 3d fa e3 ff 3d 0e 9f fb 3c 1b f5 90 3d
       0.042291943 0.12494655 0.030715492 0.07078
0000e0 64 90 91 3b cd 2a c2 3d 4b b9 75 3e fd be a4 bc
       0.0044422615 0.0948082 0.23996465 -0.020110602
0000f0 2e 37 27 be a2 6b b2 bd 2a 9b c7 3d bb db 70 bd
       -0.16329643 -0.087119356 0.09746392 -0.0588033
000100 44 1b 46 3c c1 5f 8e bc bb ec 84 bd 6e ff a5 3b
       0.012091462 -0.017379643 -0.06490465 0.00506585
000110 69 fd 12 3d ef 86 8d 3d 83 66 b2 3d 3a 2e 68 3d
       0.035886202 0.06910502 0.08710959 0.05668471
000120 0e 0f 59 bc 8b 5e dd 3b c5 ac 1f 3e c3 b4 09 bd
       -0.013248218 0.006755655 0.1559325 -0.033619653
000130 19 37 e4 3c 19 f2 9e 3d 63 f7 df 3b 80 f3 2a 3d
       0.027858304 0.0776102 0.0068349107 0.041736126
000140 19 3e a1 bd cc 2a c9 3d 9e 6f eb bd 11 f9 ba bb
       -0.07873172 0.09822616 -0.11495899 -0.0057059606
000150 3e a8 e1 3d ed c5 26 bd d8 c3 c6 bb a9 1d 82 3b
       0.11018418 -0.0407161 -0.006065827 0.003970821
000160 c9 26 9e 3c 44 63 3e 3d 17 9b 0a bd e3 53 2c 3e
       0.019305604 0.046481386 -0.03383931 0.16828875
000170 9c 57 83 bd 58 a2 4e 3d 8f 9e fd bd b7 32 26 3d
       -0.064131945 0.05044779 -0.12383758 0.04057571
000180 ec 0a a4 bc 90 8c 93 3d 86 09 5a bd 7a 49 02 be
       -0.02002474 0.072045445 -0.05323174 -0.12723342
000190 f2 bc 90 3c 76 c5 8f bd 18 01 1a 3e 20 4b f0 3c
       0.017668221 -0.070200846 0.1503948 0.029332697
0001a0 52 c4 6b 3d 06 c8 0e bd c6 41 2a 3e 01 b3 50 3e
       0.057560273 -0.034858726 0.16626653 0.20380785
0001b0 9d df 91 3b 8a 2c 36 bd 02 2a 9f 3c ab 7a 61 be
       0.0044517056 -0.04447607 0.01942921 -0.2201945
0001c0 37 04 45 bd 8a cd c0 3c 32 4a 64 bc c7 0d 3f bd
       -0.048099723 0.023535509 -0.013933705 -0.046644
0001d0 88 d1 aa bd 46 35 0d be b4 64 78 bd 34 37 08 3e
       -0.08340746 -0.13789853 -0.060642913 0.13302308
0001e0 67 37 0f 3d 65 6f aa bc d3 19 d0 b9 85 eb 76 bd
       0.034964945 -0.02080507 -0.00039692092 -0.060283203
0001f0 02 8a 2c be 36 0e 48 be 42 4d 9e bb e7 4e d2 bc
       -0.16849521 -0.19536671 -0.004830987 -0.02567239
000200 b5 d9 d9 3d 29 70 14 3e d2 2a f6 3c fa 5a c6 3d
       0.106372274 0.1449591 0.030049715 0.09685321
000210 b4 c2 a5 bd 90 9b e5 bb fb 76 b6 3d 2f 84 24 be
       -0.08093777 -0.00700707 0.089094125 -0.16066049
000220 2f 34 ab 3d d2 aa 08 3c 38 1e 2d bc c3 3d d4 3d
       0.083595626 0.008341508 -0.010566287 0.103633426
000230 e8 bc b2 bd 5f 81 9c bd 99 b8 de bc 07 08 93 3e
       -0.08727437 -0.07641863 -0.027187632 0.28717062
000240 2c 24 e0 bd 03 5d de 3d 46 ca b5 bc d5 f5 00 be
       -0.10944399 0.10857584 -0.022191178 -0.12593777
000250 66 ea fe bc df 17 36 3d 89 7c 27 3e b0 10 b7 bb
       -0.03111763 0.04445636 0.163561 -0.005586706
000260 c6 d4 26 3d 17 46 f5 bc 27 84 d8 ba 7b 64 14 3d
       0.04073026 -0.029940648 -0.0016518877 0.03622864
000270 6f 99 3f 3d 52 90 9b bd e5 64 e8 3d 3f ad 3f bd
       0.046777185 -0.07595886 0.11347369 -0.04679608
000280 1a 04 9c 3d ed 2b cc bd 42 14 15 bd 01 f9 b0 3b
       0.0761797 -0.09969316 -0.036396272 0.0054007773
000290 fa ea 2d 3d c2 30 a9 bd 9f 71 2e bd 7d fa 1e 3e
       0.04246042 -0.08261253 -0.042588826 0.15525241
0002a0 6c 85 2d 3d 69 2f 19 3c 5d db db 3c 69 8c 09 3e
       0.04236357 0.009349682 0.026837999 0.13432468
0002b0 e5 76 f5 bc ea 4d e7 bd 24 8c 11 bc 19 21 16 3e
       -0.02996392 -0.11294158 -0.00888351 0.14661063
0002c0 73 e3 31 3d 65 f8 40 3d fc 36 8f 3d 24 d1 15 be
       0.043429803 0.047111887 0.06992909 -0.14630562
0002d0 b1 f5 9a bc dc d3 bb 3d 9f 80 98 bd 45 fe 12 3e
       -0.018915983 0.09171268 -0.074464075 0.14354809
0002e0 ce 7f 6f 3c c6 1c bd 3d ec 4c 3e 3d 64 ee 83 3d
       0.014617873 0.09234004 0.046460077 0.06441954
0002f0 f7 0b 24 3c 73 9c 41 bd 88 2e d3 bc de 5f 5b 3e
       0.010012618 -0.047268342 -0.025779024 0.21423289
000300 e9 08 36 be 02 02 b2 bc 5f 37 70 3d ce 94 5b bd
       -0.17776836 -0.021729473 0.058646556 -0.053608708
000310 3d 85 a8 3d cb 9b 21 bd ef 27 3e bd 82 8c ec bd
       0.08228538 -0.039455216 -0.046424802 -0.11550237
000320 ab 07 17 3e 64 89 57 3e 4b 53 a6 3b ca 73 36 3d
       0.14749019 0.21048504 0.0050758473 0.04454402
000330 57 47 93 bd 56 6a 8a 3c e2 88 6f bd 9d d0 76 bd
       -0.07191341 0.016896408 -0.05848015 -0.060257543
000340 e9 0a 0b 3d 45 af a7 3b a2 5d 84 3c dc ba 60 bc
       0.03394595 0.0051173293 0.016157929 -0.013716426
000350 08 16 a0 3d 1a 56 0d 3e fa c2 fc 3c 5b 2a 8a bc
       0.07816702 0.13802376 0.03085469 -0.0168659
000360 cf a5 96 3d db e6 97 3d f6 92 17 bd 66 d0 08 be
       0.07355844 0.07417079 -0.037005387 -0.13360748
000370 94 fc 10 be 4e b0 41 3e bf 56 08 3c 88 67 b9 bd
       -0.14158851 0.18914911 0.008321463 -0.0905295
000380 cf 8f a9 3d 9d fe 00 3e c9 18 ba 3c ff ed cd 3d
       0.082793824 0.12597127 0.022716897 0.1005516
000390 cb 91 b6 bd c9 b9 7d 3d dd a2 9e 3d 1b 88 8d bd
       -0.089145266 0.061944757 0.077459075 -0.06910726
0003a0 af 05 1b be 66 7b 35 3d 3a 83 7a 3d b5 54 2a bd
       -0.15138887 0.044307135 0.061160304 -0.04158469
0003b0 b5 4d b8 bc 36 95 bb 3d b5 ee d5 bd f5 8a 9b bd
       -0.022497991 0.09159319 -0.104459204 -0.07594863
0003c0 f2 80 fd bc f3 dd 3e be 25 8b c1 bd 06 69 86 3d
       -0.030945275 -0.18639354 -0.09450368 0.065630004
0003d0 01 32 a6 bc af c3 b2 3d d6 73 f2 bc 97 da 05 3e
       -0.020287516 0.0872873 -0.02959625 0.13071667
0003e0 d2 c5 2f bd 43 28 6a 3c 7c a7 8d 3d 0d 97 de 3d
       -0.042913266 0.014291826 0.06916711 0.108686544
0003f0 15 d9 43 3e 51 f3 22 bd 82 6c 5e bc 56 88 8f 3d
       0.19125779 -0.039782826 -0.013575675 0.07008426

0.bias f4 [128]
000000 cb bc 40 3d 73 76 68 3b 64 27 a3 3c 51 fb 2b 3c
       0.047055047 0.0035470992 0.019916244 0.01049693
000010 56 59 07 bd b3 f8 3c 3c ac 5c b6 bb c8 98 f5 ba
       -0.03304418 0.011533904 -0.0055652466 -0.0018737549
000020 28 e1 01 bc 1a 9a 13 3b 6f 17 be bc 42 5f a7 bc
       -0.007927217 0.0022522272 -0.023204533 -0.020431165
000030 6f 50 ce bc 39 c1 6f 3d 58 19 54 bc cc 7c 85 3b
       -0.025184838 0.05853388 -0.012945496 0.004073715
000040 b1 b2 bf ba 43 bd 9a bb fc c7 49 3c da 1f 14 3d
       -0.0014625398 -0.004722269 0.012315746 0.03616319
000050 23 2a 29 bb b3 90 0d bc ab fb 01 3d d1 5e 52 3b
       -0.002581247 -0.008640456 0.03173415 0.0032099972
000060 6d 00 39 bc 79 08 87 3b 67 0c 4a 3b 70 83 d3 bb
       -0.011291605 0.004120883 0.0030830146 -0.0064548776
000070 5c 22 85 bc ec d0 1c 3c 0b 98 0e bd 51 1e 8d 3b
       -0.016251735 0.009571295 -0.03481297 0.0043065925
000080 64 43 63 3b f0 84 c9 3c a9 01 46 3c 5c 20 e9 bc
       0.003467762 0.024599522 0.012085357 -0.028457813
000090 fc 37 d9 ba 83 45 ba 3b c2 9f 2c 3b 8a 93 d4 3c
       -0.0016572471 0.005684556 0.002634034 0.025949258
0000a0 0b 1e 1c 3b 90 9e 04 3d eb 23 46 bd b8 04 fe bc
       0.0023821618 0.03237778 -0.048374098 -0.03100811
0000b0 66 29 15 bc e8 cc aa bc 6f 2b ef bc a2 82 0b 3c
       -0.009104108 -0.02084966 -0.029195515 0.008515032
0000c0 16 e9 82 3c bd a7 b6 bc 8b 0e b2 3c 22 a8 02 3c
       0.015980285 -0.02229678 0.02173545 0.007974656
0000d0 7d 4f ee bb df 24 ad bb a3 49 39 bb 00 aa a7 bb
       -0.0072726593 -0.0052839364 -0.002827265 -0.005116701
0000e0 52 0d 3a bc ab 74 71 bc bf 70 eb bc 88 23 21 3b
       -0.011355715 -0.0147372885 -0.028740285 0.0024587829
0000f0 5e 2b 14 bb 65 7d a9 bb 3a 24 7d 3c 25 b2 09 bc
       -0.0022608857 -0.005172419 0.015450532 -0.008404289
000100 d7 35 c2 3c b7 12 40 bc 1f f0 50 bd 0b 58 80 3c
       0.023707313 -0.011723212 -0.051010247 0.015666982
000110 a9 e0 82 bc 74 21 d6 bc 5e 1e d4 3b 22 12 2c 3c
       -0.015976267 -0.026138999 0.0064733466 0.01050237
000120 d7 28 03 bd a6 03 8c 3c ac e2 bb 3b 6c 59 ec b9
       -0.03202137 0.017091583 0.0057338085 -0.00045080052
000130 73 4b 8e bc 92 ee 6c bc 56 67 78 3c c6 52 61 bc
       -0.017369961 -0.0144611765 0.015161356 -0.013752645
000140 af 9a be bb 4d af c2 bc 0a b4 2a bb 25 be e5 bb
       -0.0058167796 -0.02376523 -0.0026047253 -0.0070111924
000150 b5 bd cd bc 9d 1f 9a 3b 7b ef 87 3b e6 9e 9d bc
       -0.025114873 0.0047034756 0.0041484213 -0.019240808
000160 e6 32 8a bc dc 64 83 3a 70 f5 13 3d 52 3f 10 bc
       -0.016869973 0.0010024565 0.03612274 -0.008804159
000170 a3 1f 9e 3a d4 2b 19 bc ba 60 b6 3c 5b 7e 47 bc
       0.0012063872 -0.009348828 0.02226292 -0.012176122
000180 ee b1 f8 bb 13 57 16 bc f1 4a 81 bb 52 29 8e bc
       -0.0075895702 -0.009176034 -0.0039457013 -0.017353687
000190 04 00 3c ba 84 c2 81 bc 9a 2a f1 bb d7 d3 9d 3c
       -0.0007171633 -0.015839823 -0.007359815 0.019266052
0001a0 46 a5 6c 3b 3a 19 1c bc 78 50 c2 bc f8 fd 1f bc
       0.0036109253 -0.009527499 -0.023720011 -0.009765141
0001b0 87 cc a6 bc 3b 52 07 bd 50 d5 e2 3b 95 ee 25 3c
       -0.020361198 -0.033037405 0.0069224015 0.010127683
0001c0 15 99 24 bc cc 50 df bb 49 ee 63 3c ed 4c 04 3c
       -0.010046263 -0.0068150517 0.013911792 0.008074981
0001d0 62 8b bf 3c f4 78 99 3c 89 e3 58 3a ce 15 56 bc
       0.023381893 0.018734433 0.00082736515 -0.013066722
0001e0 07 60 a2 ba 6d 84 ea 3b 5f 8e 55 3a 58 70 dd bb
       -0.0012388238 0.0071568997 0.000814652 -0.006757777
0001f0 8f cd 1c bd 05 d5 68 3c 30 4f 06 3d 8f 8e f8 3c
       -0.038281973 0.014210944 0.032790363 0.030341415

2.weight f4 [128, 128]
000000 59 33 ad bd b9 dc 40 3d 24 d4 90 be 71 b3 99 bc
       -0.084570594 0.047085498 -0.2828685 -0.018762322
000010 72 8d 51 bd 46 fe 87 bd 05 01 b4 bd 60 39 87 bd
       -0.051160283 -0.06640296 -0.08789257 -0.0660274
000020 08 f3 27 3e 9d 4c ab bc 4b 5c db bd 39 16 be 3d
       0.16401303 -0.020910555 -0.10710963 0.092815824
000030 00 12 d7 3c 39 27 ea bd 84 d1 77 bc 12 b9 f8 bd
       0.0262537 -0.114332624 -0.015125636 -0.12144674
000040 d4 5e a4 bc 5e 49 22 3e b3 df 76 bd 30 a2 d6 b8
       -0.020064749 0.158483 -0.06027193 -0.00010234525
000050 fc 8a b3 bd 29 64 41 bd c0 d9 0e be 87 da a4 be
       -0.087667435 -0.04721466 -0.13950253 -0.32197973
000060 e0 55 64 bb 90 da 1f 3d ed 01 a3 bd f5 bc 9d 3d
       -0.0034841225 0.039026797 -0.07959352 0.07702056
000070 60 18 9f bc 7b 49 a3 3d c3 ce 9b 3c 81 2b 1f bd
       -0.019420803 0.07973 0.01901949 -0.038859848
000080 a4 76 e1 bd c4 b2 f5 bc 84 d3 51 3d 8f fa 8d 3d
       -0.11008957 -0.029992469 0.051227108 0.06932556
000090 fe 98 10 bc 1e 08 58 3c eb 08 9b bd c2 33 81 3c
       -0.008825539 0.013185529 -0.0757006 0.01577175
0000a0 4e fa 90 bd cc ed ef bc 37 3a 4f 3c 2a 5d 16 be
       -0.07078992 -0.029288195 0.012648157 -0.14683977
0000b0 28 ec 09 3e 1e 25 ef bd 7e d7 e2 bd 4e 87 82 3d
       0.13468993 -0.116770014 -0.11076258 0.063734636
0000c0 cb 32 56 3d da 01 33 bc 3f f0 8e bd 72 52 14 3d
       0.052294534 -0.010925734 -0.06979417 0.03621144
0000d0 36 14 1c 3d 84 5a 7e 3d 0e 30 dc ba 36 45 d0 bd
       0.038105212 0.06209804 -0.0016798989 -0.10169451
0000e0 b0 56 19 3e 35 8c f7 3c 47 cf 9d 3d 19 fa 47 bc
       0.14974475 0.030218223 0.07705551 -0.012205624
0000f0 24 c2 b1 bc 95 89 c3 3c 2e cb 07 3d 90 bd 53 3c
       -0.021699019 0.023869315 0.03315275 0.012923613
000100 95 b0 e4 3b 7e 14 b7 bd 63 b8 15 bc 74 32 2a 3d
       0.006979058 -0.089394554 -0.0091381995 0.041552022
000110 45 bc 21 3e 3b 70 cf bc 3d a9 45 bc d6 62 cc 3b
       0.15794475 -0.02532207 -0.012064275 0.006237368
000120 cb 2f 21 39 fc 4e 39 3e 1a 00 3f 3d 16 b0 c0 bd
       0.00015371961 0.18096536 0.046630956 -0.09408586
000130 74 1b d0 3b 6d 49 3d bd 99 ea cc 3d a4 45 ce 3d
       0.006350929 -0.046212602 0.100056835 0.10071877
000140 8c 96 7e bd 8f 8a d6 3c 7e 68 e2 bd d3 18 2e 3d
       -0.06215529 0.026189117 -0.110550866 0.042504143
000150 d9 59 ad bb 98 18 70 3b 42 74 36 3d 5f d8 0e bd
       -0.0052902517 0.0036635753 0.044544466 -0.034874316
000160 9d 65 d1 bb 73 47 92 3d 53 f3 f3 bd 8e 52 e9 3c
       -0.006390287 0.07142534 -0.11911645 0.028481748
000170 6a ee 4a 3e 27 eb f5 3c 04 36 ad bd da b6 b2 3d
       0.1981751 0.030019356 -0.08457568 0.087262824
000180 c8 bb c6 3c e9 ae 1e be a7 f7 dd bb 1f 5d a3 3d
       0.024259463 -0.1549641 -0.006773907 0.07976746
000190 40 f6 ad 3d f6 0b 52 bc 25 b6 ef 3d 6f 3f e4 bd
       0.08494234 -0.0128202345 0.11704663 -0.111449115
0001a0 08 d4 25 be 09 78 97 bc 2f dc aa 3d 62 8d 64 3d
       -0.16194165 -0.018489854 0.08342778 0.055798896
0001b0 b0 9c 64 bd 17 29 3a bd 36 15 6a bc 19 ca 01 be
       -0.05581349 -0.045449343 -0.014287284 -0.1267475
0001c0 53 22 03 3e 12 24 2e 3e b4 11 01 be e6 3a 9d bd
       0.12806062 0.17005947 -0.1260441 -0.076772496
0001d0 f1 bb 12 bc 27 d4 8b 3d f7 b2 4c 3d de 04 00 3e
       -0.008955942 0.06827574 0.04997536 0.12501857
0001e0 39 13 62 3d bb 2f 3e bd af d1 74 3d 8a 1e ae bd
       0.055194113 -0.046432238 0.059770282 -0.085019186
0001f0 3d d6 9b bd dc 70 05 be 4b 66 6f 3d 74 49 58 3d
       -0.07609222 -0.13031334 0.058447164 0.052804425
000200 c1 8c 3a 3d cf 68 c8 3d 25 00 27 3c 9d fc d0 bd
       0.04554439 0.09785616 0.010192906 -0.10204432
000210 24 91 aa bd 20 35 9f 3d 21 93 84 3c 14 73 92 bc
       -0.083284646 0.07773805 0.016183438 -0.01787714
000220 ca e8 45 bc a8 a6 8a bd 11 64 9f bd 1c 8f d3 bd
       -0.012079427 -0.067700684 -0.07782758 -0.1033003
000230 1a 0c f8 3c ab 89 c1 bd 2e f1 63 bc fa b2 d4 3c
       0.030279208 -0.09450086 -0.013912482 0.025964249
000240 85 50 23 bd 47 eb 98 3d 18 10 76 3e a3 ec a7 bd
       -0.03987171 0.074667506 0.24029577 -0.08199432
000250 b1 14 13 bd 8c 99 b0 3c f3 af be 3b 48 72 57 ba
       -0.035908405 0.021557592 0.0058193146 -0.00082186284
000260 91 bc 6e bd 74 8d 60 3e 09 23 6a bd 38 c8 51 3c
       -0.0582853 0.2192896 -0.05716232 0.0128040835
000270 29 a2 23 be 05 28 e2 bc 1d 60 30 3c ae f1 37 be
       -0.15979828 -0.027606973 0.010765103 -0.17963287
000280 02 5a 65 3a 8e 16 a2 bb 74 db c5 bd 33 c2 dd bd
       0.0008749069 -0.0049465364 -0.09660998 -0.10828056
000290 e2 01 89 3d 16 17 d1 3c ed ef 99 bd 0c 49 aa 3d
       0.06689812 0.025523704 -0.07516465 0.08314714
0002a0 9d 38 22 be 9d 12 d4 3d 10 48 5d 3d 46 da 92 3c
       -0.15841909 0.10355113 0.054023802 0.017926347
0002b0 5f 4a 50 bd 76 77 8a 3d be 14 94 bd 4b ac 89 3c
       -0.050852176 0.067610666 -0.07230519 0.016805789
0002c0 9d 90 72 3d 06 13 27 3c fd 5c 93 bd a9 4b c8 3c
       0.059219945 0.010197407 -0.071954705 0.02445014
0002d0 f6 d7 69 be 40 52 ae 3d f5 87 a6 3c 52 1b 04 bd
       -0.22836289 0.08511782 0.020328501 -0.032252617
0002e0 c3 d8 3b bd 9a a6 21 be 47 58 43 bd e3 f3 c1 3d
       -0.045861017 -0.1578621 -0.04769161 0.09470346
0002f0 24 a9 c3 3d 6d f4 7b bd 2e 4f 8e bd 87 af 45 be
       0.095537454 -0.0615124 -0.06948696 -0.1930524
000300 d3 b9 de bd b2 ff 32 be 7f 2f c9 bd 00 66 ef bd
       -0.10875287 -0.17480353 -0.09823512 -0.11689377
000310 d7 9d 26 3c 31 88 4d 3d a1 c1 6c bc 9f 25 cf 3c
       0.010169468 0.05017871 -0.014450462 0.025286494
000320 69 7a f1 bc 41 5a 91 3d e6 88 32 3e f8 e6 3f be
       -0.029477315 0.07097293 0.17435035 -0.18740451
000330 ff d8 cb 3c 9d 43 2f 3d 18 79 85 3d 97 6e 5e 3d
       0.024883745 0.04278909 0.065172374 0.054304685
000340 14 84 b4 bd 20 71 56 3d 60 e3 2a 3d 5e 75 49 bd
       -0.088142544 0.05235398 0.041720748 -0.049184196
000350 45 82 0a bc 13 3f cb 3d 9d b3 49 bd 23 4b b8 3c
       -0.00845391 0.0992414 -0.04924356 0.022496765
000360 a9 a9 85 3d 65 75 1a be b4 df 69 bd fe d3 2c 3e
       0.06526501 -0.15083845 -0.057098106 0.16877744
000370 63 79 b9 3d f0 fe 96 3c 66 f2 84 3d 30 5a 8f 3c
       0.09056356 0.01843211 0.06491546 0.01749906
000380 6b cb ef bb 35 c9 83 3d 3f 95 a1 3d be 88 4e 3d
       -0.0073179505 0.064348616 0.078897946 0.050423376
000390 e6 b8 61 3e ec 6e 93 bb a1 2d d8 bd d8 03 35 bc
       0.2204319 -0.004499307 -0.10555578 -0.01104828
0003a0 bd 52 56 bd f6 f5 8d 3d be 82 f4 3d fd 4e b9 bc
       -0.052325 0.06931679 0.119389996 -0.022620672
0003b0 69 72 6f bc 07 8a b6 3c 92 56 7b bd a4 07 78 bc
       -0.01461468 0.022282613 -0.061361857 -0.01513854
0003c0 18 8f cd bc 4c 71 1f 3e 20 e4 1e be 8a f1 a9 3d
       -0.025092646 0.15570563 -0.1551671 0.08298023
0003d0 2a fd da 3d 81 cc 03 3e 07 7d 5a bc d9 4b 1f bb
       0.106928185 0.12870981 -0.013335473 -0.0024306683
0003e0 c4 4d b7 bd d4 4b ff bb b8 d8 8a 3c 9e 0b 22 3e
       -0.089503795 -0.007791022 0.016949043 0.15824744
0003f0 91 12 d1 3d 84 d0 06 3e 6d 29 c3 3c c7 e8 9b bd
       0.102086194 0.1316548 0.023823464 -0.07612758

2.bias f4 [128]
000000 87 23 28 bc ee f7 37 3c 79 93 32 3c 99 25 da 3a
       -0.010262377 0.011228545 0.010899418 0.0016643285
000010 59 48 6a 3d d8 73 3b 3d 98 7c 35 bd 4a 0e 50 bb
       0.057197902 0.045764774 -0.044308275 -0.0031746798
000020 91 c3 0f bc 85 b6 0f 3c 2f 82 8b 3c e2 8c 99 bb
       -0.008774654 0.008771543 0.01702985 -0.004685984
000030 25 8d fb bc c9 35 25 3d 37 02 f5 3b 95 86 57 bb
       -0.030706951 0.040334497 0.0074770707 -0.0032886614
000040 19 d4 bc 3c e5 8c c3 3a 56 da 1d 3c b9 50 d0 3a
       0.023050355 0.0014919309 0.009634575 0.0015893198
000050 02 d2 3b bc 4f 02 8c 3c be d1 0f 3c 09 33 ce 3b
       -0.011463644 0.017090945 0.008778034 0.006292705
000060 43 08 63 bc 41 3a ee 3b 8e a3 2d 3c 39 e3 0a 3d
       -0.01385695 0.007270128 0.0105980765 0.033908103
000070 c8 9c bd bc 8e ec a7 bb 9e eb 1f bc e3 e1 0a bc
       -0.023146048 -0.005124635 -0.009760765 -0.008476707
000080 fd c6 f1 3c b9 f2 f2 3b c8 8f 12 3d c0 6f 0b bd
       0.02951383 0.0074141887 0.03578165 -0.03404212
000090 31 04 ee 3c 6d f6 a8 bb be fd 38 bc 86 9d a8 3b
       0.029054733 -0.0051563294 -0.011290966 0.0051457314
0000a0 86 bb cb bb 49 7f 3f 39 7d c6 5c 3a d1 6f 60 3c
       -0.006217423 0.00018262597 0.0008421911 0.013698534
0000b0 8b 44 cd 3c b2 a0 03 3c 44 da ad 3b e0 65 17 bb
       0.025057098 0.008033918 0.0053055603 -0.0023101494
0000c0 cc e4 f8 bb ec 63 99 3b 53 27 e8 3a ec 1c 50 3b
       -0.007595634 0.004681101 0.0017711915 0.003175552
0000d0 4f 66 b5 3c ff b4 bd bc 9a c5 48 bc 41 4d 38 3c
       0.022143511 -0.023157595 -0.012254143 0.0112488875
0000e0 dc 1d 1a 3c 0f 49 ae 3c b5 0c 8b bc c7 4c 30 3b
       0.009406533 0.021275071 -0.016973833 0.0026901232
0000f0 21 fb 37 3b 3b 10 ce bb a7 7f 25 bb c3 da 1b 3c
       0.0028073268 -0.006288556 -0.0025253089 0.009512606
000100 1e 35 16 bc 1b c2 20 bd 29 0f aa bc d7 7c 5b bc
       -0.009167938 -0.039247613 -0.020759182 -0.013396463
000110 67 5d f3 3b e2 62 76 bb b6 a8 85 3c e4 93 a1 bc
       0.007426906 -0.003759556 0.0163158 -0.01972384
000120 85 ef 68 bb cb f7 d1 ba 89 8e 15 bd 0f 69 40 bc
       -0.0035543155 -0.0016019283 -0.036512885 -0.011743798
000130 c8 e4 10 bc d5 22 1a 3d c1 16 4f bc e1 86 83 b9
       -0.008843608 0.037630875 -0.012639702 -0.0002508676
000140 e5 ac e6 3c f8 ef 37 3d 87 1d 6d ba b6 7a 92 3c
       0.028158614 0.044906586 -0.00090452324 0.017880779
000150 83 66 44 bb 29 9b ca 3c 75 66 9d bc cc 6e 38 bc
       -0.0029968328 0.02473219 -0.019213894 -0.011256885
000160 3d 19 b0 3c 56 66 54 ba be 61 b1 3b 45 3d a0 3a
       0.02149641 -0.00081024074 0.005413263 0.0012225291
000170 9f 63 2f 3c 6e b0 38 3c ce 85 be 3b d8 01 b8 3c
       0.010704904 0.011272533 0.0058142906 0.022461817
000180 e0 30 24 bd d7 48 aa b9 71 b5 b7 bc 0b 3b c6 bb
       -0.040085673 -0.00032479197 -0.022425385 -0.006049519
000190 d7 d2 5d 3b af bb 01 3c 8b 29 1e 3d 99 d6 d7 3c
       0.0033847594 0.007918282 0.038613837 0.026347445
0001a0 ee fa c3 bb e8 b5 b2 bc 3b d4 82 bb f2 75 28 bd
       -0.005980841 -0.021815255 -0.003992585 -0.041128106
0001b0 95 fb 84 bb 50 79 7e bc b0 86 15 bd 47 f1 f9 bb
       -0.004058311 -0.015531853 -0.0365054 -0.0076276395
0001c0 20 23 27 b9 eb 84 25 bd 53 a0 85 3b c2 6b 0f 3c
       -0.00015939446 -0.040409964 0.00407795 0.008753719
0001d0 8b e3 4f 3c 35 07 69 bc f4 a9 df 3b b2 50 65 bb
       0.012688528 -0.01422291 0.00682568 -0.0034990725
0001e0 8f cc 9e bc 19 9a 37 3d b5 47 9a 3b 01 8f 06 bc
       -0.01938465 0.044824693 0.004708255 -0.008212806
0001f0 62 4d 9a 3c 20 55 15 bb 08 68 10 3c 1a 50 8e bb
       0.018835727 -0.0022786334 0.0088138655 -0.004343045
