dir_save/reference_training_result/we0_actor_500.pth (torch, 133827 bytes, 4 tensors)

0.weight f4 [128, 128]
000000 a4 c0 a9 bc 8e 75 00 bb c9 41 45 3c 8c 1c 18 bc
       -0.020721741 -0.0019601318 0.01203961 -0.00928415
000010 f2 94 35 3a e9 05 31 3c 40 21 9c bd 9b 20 d9 3d
       0.00069267966 0.010804632 -0.076235294 0.10601922
000020 37 1e ef 3d 68 a6 23 bd fd 5c 18 3e e6 36 9a 3d
       0.11675685 -0.03995362 0.14879222 0.07530002
000030 2e ad cd 3d 5c b6 c5 3d f6 58 f1 3b 4b fb 21 3e
       0.10042797 0.09653923 0.0073653413 0.15818517
000040 6b 21 bb bd 89 45 55 3c 2e 01 aa bd 33 d6 0e bb
       -0.09137233 0.013017067 -0.08301006 -0.0021795153
000050 b3 64 d9 3d 26 da bc 3d 86 f2 58 3d 27 8e bf bd
       0.1061491 0.09221296 0.052965663 -0.09353285
000060 e6 62 4a 3e bd d2 5e 3d dd ed 07 3d 51 70 2c 3d
       0.1976429 0.054400194 0.03318583 0.0420993
000070 94 73 b0 3b c7 63 47 bd ba b3 2d bd 85 a2 85 3d
       0.0053848717 -0.04867914 -0.04240773 0.06525139
000080 5e 16 38 3e ab bb 17 be 80 90 17 3d 65 2f 0d 3d
       0.17977282 -0.14817683 0.03700304 0.034469027
000090 51 b3 4a bd 15 35 0a be 2d 2a 39 3e 17 4f b3 3d
       -0.049487416 -0.13496812 0.18082495 0.087553196
0000a0 93 0a 38 bd d5 14 12 3e 94 e2 ec bd dc f1 4b 3d
       -0.04493196 0.1426576 -0.11566654 0.049791202
0000b0 dd 00 6d bd 10 80 90 bd ca ca 9b 3c 84 ff ab 3c
       -0.05786215 -0.07055676 0.019017596 0.020995863
0000c0 ce 6d db 3c b5 c7 7b 3d 8d 9e 6a 3e 74 ac 32 3d
       0.026785757 0.061469752 0.22912045 0.043621495
0000d0 3a 19 21 3d a4 7b 0f 3e 8e 61 fc 3c 7c 65 9a 3d
       0.0393307 0.14012009 0.030808236 0.07538888
0000e0 2f 5b 48 3c bf bb b9 3d 57 fc 6c 3e 01 df b3 bc
       0.012228771 0.09069013 0.23143135 -0.021956922
0000f0 43 88 37 be f7 0a ae bd 5b 77 d5 3d 2d 9c 48 bd
       -0.17923073 -0.08498185 0.10423156 -0.048977066
000100 d0 0b 88 3c 1b 0f 1f bd a4 7f 6c bd e3 12 af 3c
       0.016607195 -0.038832765 -0.057738915 0.02137131
000110 fa 8f 66 3d 29 f1 9b 3d f5 53 a5 3d 1b ad 4e 3d
       0.05628965 0.07614357 0.08072654 0.050458055
000120 95 bf 34 bc 67 61 57 bc 55 a1 2d 3e 60 94 22 bd
       -0.011032005 -0.013145781 0.16956075 -0.039692283
000130 94 9b ea 3c b3 34 d0 3d db cb 2e bc 86 c1 ba 3c
       0.028638639 0.101663016 -0.01066872 0.022797357
000140 98 2d a1 bd 86 62 c8 3d db 38 10 be 07 f8 9f 3b
       -0.078700244 0.09784417 -0.14084189 0.004881862
000150 aa 0a e1 3d a5 34 5c bd bc af a3 bb a7 e4 ce 3b
       0.10988362 -0.053761143 -0.0049953144 0.0063138786
000160 46 d1 fe 3c 6a 90 5f 3d 6c 53 42 bd ad 8e 2e 3e
       0.031105649 0.054581083 -0.04744284 0.17046614
000170 39 1a 0f bd 1a 4a 0f 3d 98 36 dc bd 2a fb 41 3d
       -0.034937117 0.034982778 -0.107526004 0.04735867
000180 53 3d 17 bd ea e1 73 3d 4f 28 1c bd 10 72 f6 bd
       -0.036923718 0.05954162 -0.03812438 -0.120334744
000190 d9 56 e1 3c 0c 9d a8 bd 8f 77 16 3e 39 27 29 3d
       0.027507233 -0.08233079 0.14694045 0.04129717
0001a0 33 fd 94 3d 7b c9 21 bc bb c1 1b 3e f6 04 53 3e
       0.072748564 -0.009874697 0.15210621 0.20607361
0001b0 22 53 53 3b 12 22 1b bd 0b 2e 43 3c 01 62 67 be
       0.0032245596 -0.03787429 0.011912833 -0.2259598
0001c0 2b af 3c bd 6d a8 83 3c 6b 5d 7a bc e2 cd 23 bd
       -0.04606549 0.016071523 -0.015281062 -0.039991267
0001d0 d3 3f 8c bd eb ba 16 be a1 cc 97 bd 4b 87 20 3e
       -0.06848111 -0.14719741 -0.07412077 0.1567661
0001e0 bd 8d 4b 3d e7 2e 9b bc 8c 2c 6b 3c 56 ad 78 bd
       0.04969572 -0.018943263 0.0143538825 -0.06071218
0001f0 07 8c 1e be 86 de 41 be c8 c2 07 bc ab ab 38 bd
       -0.15483104 -0.18932542 -0.008286186 -0.04508559
000200 c6 c2 af 3d 11 5a 0f 3e b5 3f 2f 3d 1a 6c d8 3d
       0.08582072 0.13999201 0.042785365 0.10567494
000210 b3 27 a8 bd a9 cf 03 bc 4b 12 dd 3d 97 6b 14 be
       -0.08210697 -0.0080451155 0.10794505 -0.14494167
000220 52 70 ac 3d a5 e0 ff bb 51 dd c2 bc 37 df dd 3d
       0.08419861 -0.007808762 -0.023787173 0.108335905
000230 42 d7 c9 bd e4 c7 bc bd 23 54 df bb ad 69 92 3e
       -0.0985551 -0.092178136 -0.00681545 0.2859625
000240 fa 83 c8 bd 40 d6 c7 3d c6 86 bc bc 31 f7 fb bd
       -0.097907975 0.09757662 -0.023013484 -0.123030074
000250 51 df 0a bd 99 6f 16 3d 64 18 1a 3e b3 b5 28 bd
       -0.033904377 0.03672752 0.15048367 -0.041188907
000260 40 06 4e 3d ae db 5c bd 2e 4a d0 bc 49 ca 6d 3d
       0.05029893 -0.05392044 -0.025425997 0.058054242
000270 84 ae 86 3d f4 00 d1 bd a7 1d ca 3d b0 76 97 bc
       0.06576255 -0.1020526 0.09868937 -0.018489212
000280 b8 4b b1 3d 2a 4f b0 bd ce a7 87 bd 61 9f b8 3c
       0.0865702 -0.08608849 -0.06623803 0.022536935
000290 29 09 30 3d 6e ca ac bd 04 45 3c bd a5 5a 34 3e
       0.042977486 -0.08437048 -0.045964256 0.17612703
0002a0 ce 70 5c 3d fd 31 98 3c 89 d7 8e 3c b5 81 01 3e
       0.053818516 0.018578524 0.01743676 0.12647136
0002b0 90 fc ff bc c0 3a f2 bd 09 9b e9 bc eb 81 27 3e
       -0.03124836 -0.11827612 -0.02851631 0.16358154
0002c0 16 35 81 3c db 5c 28 3d a7 b6 c5 3d 02 e3 20 be
       0.015772384 0.04110418 0.09653979 -0.15711597
0002d0 23 ed 10 bd 27 10 cf 3d 6c 44 69 bd b6 4c 22 3e
       -0.0353824 0.10110503 -0.056950018 0.15849575
0002e0 36 d3 bd 3b fd cb ad 3d fb 4b 8d 3c 64 6e 87 3d
       0.0057930006 0.08486173 0.017248144 0.06612852
0002f0 40 3b 88 3c 00 6c 57 bd d7 98 08 bc f5 71 55 3e
       0.016629815 -0.05259323 -0.008337221 0.20844252
000300 3c 3c 34 be 77 fa 30 bd 39 cf 9f 3d 67 67 9f bd
       -0.17601103 -0.043207612 0.078031965 -0.07783394
000310 2f 66 b8 3d 91 68 4e bd b9 9a 53 bd 1b b3 04 be
       0.09003865 -0.05039269 -0.051661227 -0.12958948
000320 3c b1 f7 3d 9f 10 64 3e a8 24 31 bc 1d 0b 7a 3d
       0.12094352 0.22271965 -0.010811962 0.061045755
000330 bb 1b b2 bd fb 8d 03 3d c0 ad 1a bd 4a 8a 04 bd
       -0.086966954 0.032117825 -0.037763357 -0.032358445
000340 45 d9 8c 3c 25 90 69 bc 7f 1b 97 3c af 13 bb bc
       0.017193446 -0.014255558 0.018445728 -0.022836534
000350 14 5a 99 3d 9d b8 0f 3e 3b c1 04 3d 53 e3 4e bc
       0.07487884 0.14035268 0.03241084 -0.0126274405
000360 7e 4b 3d 3d 94 2e b1 3d 93 44 d3 bc 5d b6 29 be
       0.046214573 0.08651462 -0.025789535 -0.16573472
000370 13 14 05 be 05 64 44 3e cc 6b cb 3c 83 d3 e1 bd
       -0.12995939 0.1917878 0.024831675 -0.11026671
000380 9b 7b a1 3d 10 d9 a6 3d 6f 6d 35 3d 7d e9 98 3d
       0.07884904 0.0814687 0.044293817 0.07466409
000390 97 fd 93 bd e0 16 ce 3c cc a2 96 3d 3a 39 ce bd
       -0.07226103 0.025157392 0.0735527 -0.10069509
0003a0 bd 8b 19 be 0e f0 11 3d 62 38 38 3d 27 96 14 bd
       -0.14994712 0.035629325 0.044975646 -0.03627601
0003b0 86 08 8f bc 51 6d 93 3d 5a f7 f6 bd 8c 32 cd bd
       -0.017460119 0.07198585 -0.12058897 -0.10019407
0003c0 31 88 df bc 08 5d 57 be c8 61 76 bd 4f 4c 6c 3d
       -0.02728662 -0.21031582 -0.060151845 0.05768996
0003d0 6e ea 00 bd 70 e0 b5 3d 4e 93 ea bc cd 62 e8 3d
       -0.03147357 0.08880699 -0.028634693 0.1134697
0003e0 40 e1 32 bd 4f 4d 2e 3a 56 e0 32 3d c6 a0 98 3d
       -0.043671846 0.0006649093 0.043670975 0.0745254
0003f0 da 9a 4c 3e 7b 62 e1 bc e8 24 9e bc 59 11 9b 3d
       0.19980946 -0.02751278 -0.019304708 0.07571668

0.bias f4 [128]
000000 91 7d 32 3d 38 60 b2 bc 73 ea 09 3d 7b d8 45 3c
       0.04357678 -0.021774396 0.033670854 0.012075539
000010 81 81 30 bd 0b e1 e2 3b 6a 34 1e 3a 24 37 86 bb
       -0.043092255 0.0069238 0.0006035032 -0.0040959287
000020 3b 34 08 bc ff a6 69 bc cc 03 87 bc bc 3f 57 bc
       -0.008313234 -0.014261006 -0.016481303 -0.013137754
000030 26 d3 7d bc d1 09 a5 3d 23 22 84 b9 76 1f 72 3c
       -0.015492236 0.08058513 -0.00025202436 0.014778009
000040 ed ce c0 bb db 46 8c bb 4d df 53 3c 36 6d 16 3d
       -0.0058840425 -0.0042809076 0.012931657 0.036725245
000050 2a ee 09 3c 2c ec 15 bc 94 65 07 3d ce 05 e0 bb
       0.008418599 -0.009150546 0.033055857 -0.0068366295
000060 6a 6b 98 bc 7e 29 03 3c 25 0e d6 3b bb da 83 bb
       -0.018605907 0.008005498 0.006532448 -0.0040238774
000070 2b 65 94 bc 86 33 70 3b 66 9a bf bc 6d b9 cf 3b
       -0.018114647 0.0036651804 -0.023389053 0.006339243
000080 21 7e 09 3c 53 c4 dc 3c 4f ef 95 3c cd 94 d1 bc
       0.008391888 0.026949083 0.018302588 -0.025583649
000090 3a ce 14 bc 30 dc 94 3c 41 f1 8c bb d6 34 08 3d
       -0.009082371 0.0181714 -0.0043012206 0.033253513
0000a0 da 01 0c 3c fe 12 de 3c 1e da 60 bd 1d 09 00 bd
       0.008545363 0.027108666 -0.054895513 -0.03125869
0000b0 dc 7a 2d bb 9b 93 8c 38 73 ea e1 bc d4 9c a5 3c
       -0.0026470935 6.703214e-05 -0.027577614 0.020216383
0000c0 84 5e b4 3c 90 e2 28 bd 0d 42 9e 3c 82 95 a3 3b
       0.022017725 -0.04123169 0.019318605 0.004992188
0000d0 a9 f9 dd bb d7 1b 4f bb 55 31 a3 3a eb 24 e4 bb
       -0.0067741466 -0.0031602287 0.0012450615 -0.006962409
0000e0 5e 20 8a bc b3 f4 c8 bc a9 4c f4 bc cb 3e d5 bb
       -0.016861137 -0.024530744 -0.02982171 -0.0065077296
0000f0 e8 fb 55 bb e6 94 35 bc c9 02 5c 3c 3b 45 9d bc
       -0.0032651369 -0.011082863 0.013428398 -0.01919805
000100 66 95 c7 3c 5c 8e 33 bb e5 de 35 bd bd 3b 2f 3c
       0.02436323 -0.0027398085 -0.044402022 0.010695395
000110 85 94 93 bc 97 43 8a bc 0e e6 4d 3c 5d b2 cc 3a
       -0.018015156 -0.016877932 0.012567056 0.0015617121
000120 dc a2 2f bd 70 d2 92 3c 1e 53 86 bb e1 2c 23 bb
       -0.042879924 0.01792261 -0.004099264 -0.0024898576
000130 d5 30 85 bc 39 8a 95 bc 3e 9a 5f 3c 35 49 ab bc
       -0.016258636 -0.018254386 0.013647614 -0.020908931
000140 72 e0 0d bb e0 f1 0d bd e6 64 22 bc 6b 3c 4d bc
       -0.0021648672 -0.034654498 -0.009911751 -0.012526612
000150 e9 6b 81 bc 49 71 f2 3b 68 0b d6 3b c0 18 0e bd
       -0.015798526 0.0073987585 0.0065321214 -0.034691572
000160 91 4e 5e bc d9 be a2 bb 76 94 24 3d 15 83 b1 bb
       -0.013568536 -0.0049665985 0.040180646 -0.0054172375
000170 5b a3 d1 3b d4 0e c3 bc 94 4f 90 3b 6d 0a 84 bc
       0.0063976473 -0.023810782 0.0044040177 -0.016118253
000180 16 0b 2d bc 05 dd 50 bb 98 c2 c6 bb 64 aa 07 bc
       -0.010561725 -0.003187002 -0.006065678 -0.00828037
000190 62 46 b9 3b d6 b4 e4 bc 9c ff c2 bb 5d 12 ab 3c
       0.0056541422 -0.02791826 -0.005950881 0.02088278
0001a0 b5 35 8e 3c e1 fa 64 bb 20 91 9d bc 87 4b 7a bc
       0.017359594 -0.0034939575 -0.01923424 -0.015276796
0001b0 29 2e b0 bc 79 e2 c5 bc f3 ba 20 3c ba 92 b9 3b
       -0.021506386 -0.024155842 0.009810197 0.005663243
0001c0 1d ea 72 bc 7e 68 5d bc f2 c7 c1 3c 12 e4 27 3c
       -0.014826325 -0.013513682 0.023654912 0.010247247
0001d0 a6 55 b5 3b d3 e0 1b 3d 23 6d fb 39 0b d9 a0 bc
       0.0055338917 0.038056206 0.00047955764 -0.019634744
0001e0 c9 57 97 ba e2 e7 56 3c 2a a6 9c 3b 02 a4 88 bc
       -0.0011546548 0.013116809 0.0047805505 -0.016679768
0001f0 1e 65 4f bd aa bc 6c 3c 8c b6 90 3c ef 2e 9b 3c
       -0.050633542 0.014449278 0.01766517 0.018943278

2.weight f4 [128, 128]
000000 40 dd 97 bd 8c 3d 23 3d d0 ed 90 be 71 3a 6d bc
       -0.07415247 0.039853618 -0.28306437 -0.014479266
000010 12 96 5f bd 9b 9d 56 bd e9 fb b6 bd b3 7a 6e bd
       -0.054586478 -0.052396398 -0.08934767 -0.058222484
000020 95 b6 2c 3e 80 46 d6 bc ed 36 e6 bd 2e 5d b8 3d
       0.16866525 -0.026156664 -0.11240945 0.090021476
000030 68 ee d0 3c bd bf dc bd 7c be 5e bc 49 3a e4 bd
       0.025504306 -0.10778759 -0.01359522 -0.111439295
000040 19 7d ac bc bd 0b 19 3e 67 79 77 bd 56 d9 80 ba
       -0.021055745 0.14945884 -0.060418513 -0.0009830396
000050 89 1b dc bd 2e 45 26 bd 94 17 1b be 8d 22 a6 be
       -0.107474394 -0.04059332 -0.15145713 -0.32448235
000060 30 25 96 bb 50 ab 4d 3d 41 4c be bd 56 9b ab 3d
       -0.00458207 0.050212204 -0.09291888 0.08379237
000070 83 c1 bc bc 3f 26 9d 3d 03 91 a0 3c 30 90 09 bd
       -0.023041492 0.076733105 0.019600397 -0.033584774
000080 77 09 ef bd 5e 77 af bc 3f 63 68 3d 4b 89 94 3d
       -0.11671727 -0.021419223 0.056735273 0.07252749
000090 77 07 be bc 30 0b 67 3c e8 b6 8f bd b7 71 82 3c
       -0.023196919 0.014101788 -0.070173085 0.015923364
0000a0 e9 55 94 bd bb a0 fc bc 49 9a 14 3c 91 65 0d be
       -0.072429486 -0.030838361 0.009069988 -0.13808276
0000b0 bf b0 0b 3e cf f5 02 be cf 8b d4 bd 20 f5 7d 3d
       0.13641642 -0.12789081 -0.10378229 0.062001348
0000c0 15 f1 5e 3d a0 4c 00 bc ff 05 72 bd 74 04 27 3d
       0.054429132 -0.007830769 -0.05908775 0.04077573
0000d0 9c 16 3b 3d 1b 65 8a 3d 8f 2b 2c bb a0 07 c3 bd
       0.04567586 0.067575656 -0.002627108 -0.09522939
0000e0 64 37 19 3e b0 62 cb 3c e3 c2 8e 3d 0a 22 bd bc
       0.14962536 0.024827331 0.069707654 -0.02308752
0000f0 0a 5f b0 bc 21 50 22 3d 3f 04 2a 3d 8b 3f ee 3b
       -0.021529693 0.039627198 0.041507956 0.0072707585
000100 b4 c8 7e 3a de 93 b9 bd bc 0b 30 bc 25 9a 33 3d
       0.0009719238 -0.090614066 -0.010744985 0.043848176
000110 31 d7 18 3e 5f 9c 95 bc f5 42 c7 bb 55 0e 1f 3c
       0.14925839 -0.01826304 -0.00608098 0.009708007
000120 ea 7e aa bb cf 6f 34 3e f5 1b 39 3d d4 f9 bd bd
       -0.0052031176 0.17620777 0.045192678 -0.092761666
000130 4e 6f e3 bb 7d 6b 16 bd 43 61 d6 3d 38 7d d0 3d
       -0.006940759 -0.036723603 0.1046777 0.101801336
000140 c8 21 92 bd 86 23 bf 3b 08 59 fb bd ec 70 46 3d
       -0.071353495 0.005833092 -0.12272841 0.048447534
000150 93 e1 2c bb e6 61 2d 3b 7e 4f 4d 3d 2d 61 f5 bc
       -0.002637957 0.0026456057 0.050124638 -0.029953564
000160 f9 9a d8 bb 98 26 91 3d 80 16 00 be 14 76 f5 3c
       -0.006610271 0.07087439 -0.12508583 0.02996353
000170 61 5c 55 3e 58 fb df 3c f2 51 ad bd d1 c5 ca 3d
       0.20836021 0.02734153 -0.084628955 0.09901012
000180 b3 1b dd 3c ba b5 18 be d3 0c 42 bc 63 6f b3 3d
       0.026990747 -0.14913073 -0.011843878 0.0876148
000190 72 d7 a1 3d 20 9f ba bc ed e7 f4 3d e5 00 d1 bd
       0.07902421 -0.022780955 0.11958299 -0.10205249
0001a0 30 e2 22 be 2a ac de bc 68 2c 9f 3d 04 ee 2f 3d
       -0.15906596 -0.027181704 0.07772142 0.0429516
0001b0 24 1a 82 bd 18 a4 03 bd 1d 82 1c bc 9f 39 fc bd
       -0.06352642 -0.032138914 -0.009552506 -0.12315678
0001c0 86 fd 01 3e 4e d5 29 3e eb de ff bd d3 ac a4 bd
       0.12694368 0.16585276 -0.1249369 -0.08040776
0001d0 7d 44 74 bc eb f6 98 3d 9d 79 57 3d 68 d9 ed 3d
       -0.014908907 0.07468971 0.052606214 0.116137326
0001e0 67 44 7a 3d cb 71 3c bd 7f a2 9b 3d e9 25 97 bd
       0.06110039 -0.04600696 0.07599353 -0.07380278
0001f0 bc 74 a8 bd e1 64 ee bd 13 e0 92 3d 78 ee 67 3d
       -0.0822539 -0.11640335 0.07171645 0.056623906
000200 a7 fe 0a 3d 7a fd b6 3d 3b 17 db 3b 5d 49 c0 bd
       0.03393426 0.089350656 0.006686119 -0.09388993
000210 cd ac b9 bd a1 b3 54 3d ad 1e b8 3c e9 e5 6c bc
       -0.09066162 0.05192912 0.022475565 -0.014459112
000220 17 a8 2c ba be f7 96 bd bf 2f ce bd 07 09 c4 bd
       -0.00065863266 -0.07371472 -0.100677006 -0.09572034
000230 0f 6b 0a 3d 3a f3 a8 bd 64 94 4e bc 67 6f 6a 3d
       0.033793505 -0.08249517 -0.012608621 0.057235148
000240 db c8 fb bc 7e 57 92 3d 66 fc 6a 3e ed 26 8a bd
       -0.030735424 0.07145594 0.22947845 -0.06745706
000250 bc 9d 35 bd f3 7f 88 3b b7 f3 e4 3c 15 97 da bb
       -0.04433988 0.0041656434 0.027948244 -0.0066708424
000260 76 38 90 bd 38 f4 62 3e 13 a2 d2 bc ba 71 92 3a
       -0.07042019 0.22163475 -0.025712049 0.0011172809
000270 cb a6 29 be 0d 9f 7f bc d3 ea a7 ba 00 69 3c be
       -0.16567533 -0.0156018855 -0.0012811072 -0.1839943
000280 ce 4a ae ba 2e ed 4c 3c 7c 56 b2 bd 62 90 fb bd
       -0.001329744 0.01250772 -0.08707902 -0.12283398
000290 9d f2 96 3d 56 1a 4d ba 83 98 2c bd 26 b1 ae 3d
       0.073704936 -0.0007824054 -0.042137634 0.08529882
0002a0 da f1 17 be 12 3f d9 3d ba ab 31 3d c0 35 2d 3c
       -0.14838353 0.10607733 0.04337666 0.010571897
0002b0 38 91 8b bd 00 29 8c 3d 88 2d ac bd 69 63 ea 3c
       -0.06814808 0.06843758 -0.08407122 0.028611856
0002c0 50 ce 93 3d 82 2c c0 3b 09 99 8e bd 21 77 b7 3c
       0.07217085 0.0058646807 -0.06962783 0.022395672
0002d0 e4 85 7b be 0b 70 a1 3d 53 f7 09 3d 82 be 44 bd
       -0.24562794 0.078826986 0.033683132 -0.048033245
0002e0 79 27 27 bd 42 77 29 be 54 83 87 bd 99 66 ce 3d
       -0.04080913 -0.165494 -0.06616846 0.10078163
0002f0 e4 ab ab 3d 90 c1 40 bd a0 02 9c bd cb 6e 47 be
       0.08382395 -0.047059596 -0.07617688 -0.19475858
000300 16 51 e5 bd 46 77 2d be 46 f1 d1 bd 47 b1 d4 bd
       -0.111971065 -0.1694003 -0.102510974 -0.103853755
000310 26 ca cd bb 72 c1 7c 3d 40 e2 82 bc 2a b0 db 3c
       -0.0062802015 0.06170792 -0.015977025 0.0268174
000320 da 27 21 bd eb 98 83 3d 87 0f 37 3e e1 9a 44 be
       -0.039344646 0.06425651 0.17877017 -0.19199707
000330 13 40 38 3d 01 e2 94 3c 6d 4a 9e 3d fd b0 51 3d
       0.04498298 0.018174173 0.07729039 0.05119418
000340 cf e5 bc bd 98 83 84 3d a7 c9 8a 3d fc 8b fe bc
       -0.0922352 0.06470412 0.067767434 -0.03107261
000350 3e 9e f4 bb d9 68 e7 3d aa 74 f2 bc da ef f8 bb
       -0.007465153 0.11299295 -0.029596645 -0.007596952
000360 d3 83 7c 3d 9a df 13 be 79 d2 47 bd 29 f6 36 3e
       0.061649155 -0.14440766 -0.048784707 0.1786734
000370 f0 1d 99 3d ae 3c 45 3c 67 12 51 3d ce 1b 36 3d
       0.07476413 0.012038393 0.05104294 0.04446011
000380 96 74 d9 bb 12 9a 83 3d de 42 b7 3d 75 27 5c 3d
       -0.0066362126 0.06425871 0.08948301 0.053748567
000390 b1 c7 54 3e aa 1c be bc f4 42 9e bd de 4b f0 bc
       0.20779301 -0.023207027 -0.07727614 -0.029333051
0003a0 26 aa 7f bd 6a 8d 82 3d f8 a6 e5 3d 20 23 ad bc
       -0.062418126 0.06374629 0.112134874 -0.021134913
0003b0 fc 2e f1 bc e0 7f e1 3c 09 c1 93 bd cf 0d 82 bc
       -0.02944135 0.027526796 -0.07214553 -0.015875725
0003c0 59 33 1d bc dc 11 23 3e a0 98 09 be b0 80 a2 3d
       -0.009594762 0.15924782 -0.13437128 0.079347014
0003d0 5d aa f3 3d b4 ed 0e 3e 66 26 08 ba a2 24 27 bc
       0.118977286 0.13957864 -0.000519371 -0.010201605
0003e0 52 b4 ac bd 33 e7 ff bb 6a 92 3b bb 43 f0 2d 3e
       -0.08432831 -0.0078095435 -0.0028621205 0.16986184
0003f0 33 07 c2 3d 23 70 13 3e 82 11 38 3c d9 5f 9e bd
       0.094740294 0.14398246 0.011234643 -0.07733125

2.bias f4 [128]
000000 4e 5f 2b bc b9 3f cb 3c b6 75 da 3b 68 f2 bf bb
       -0.010459734 0.024810659 0.0066668643 -0.0058577545
000010 c3 3e 82 3d d8 51 51 3d 50 34 81 bd 72 3b 49 bb
       0.06359627 0.051103443 -0.06308806 -0.0030705598
000020 48 4d 16 bc f1 73 96 3c f5 ec 5b 3c d9 7a 2f bc
       -0.009173699 0.018365832 0.013423194 -0.0107104415
000030 bd 20 d5 bc df 42 22 3d 19 d4 33 3c df 06 81 bc
       -0.026016587 0.039614554 0.010975861 -0.015750347
000040 da ff a9 3c e8 b5 4d bb 8b 14 ec ba fd 7d c1 ba
       0.020751882 -0.0031388942 -0.0018011493 -0.0014762279
000050 06 2b 18 bc d1 75 fd 3c 57 e1 c4 3b c4 89 6d 3b
       -0.009287601 0.030939968 0.006008308 0.0036245445
000060 ee 10 84 bc 72 6a fc 3b c5 6b 74 3c 82 26 97 3c
       -0.016121354 0.007703119 0.014918272 0.01845098
000070 e4 d9 c3 bc 7d 04 05 3b 5e 83 a2 bb 40 f5 59 bc
       -0.02390761 0.0020296865 -0.004959508 -0.013303101
000080 6f 43 f3 3c ee 5e ef 3b 80 3e 3f 3d bf 56 1c bd
       0.02969524 0.0073050177 0.046690464 -0.038168665
000090 b6 68 24 3d c2 f5 2a bc 16 7e 88 bc c4 dc 54 3c
       0.040138923 -0.01043457 -0.016661685 0.012992088
0000a0 80 32 d6 bb be 37 4a bc 49 19 6c 3c a3 ed cf 3b
       -0.006536782 -0.012342392 0.014410325 0.006345467
0000b0 e7 d9 0f 3d ea 11 2e 3c bc 18 5d 3b e4 ed c2 bb
       0.035119917 0.010624388 0.0033736667 -0.005948769
0000c0 d1 0f 1f bc 27 31 ad 3b 6f f5 07 3c c8 ab cf ba
       -0.009708361 0.0052854004 0.008298262 -0.0015844041
0000d0 af e7 c9 3c 7a e9 8e bc f7 3f 2c bc cc 77 10 3c
       0.024646608 -0.017445315 -0.010513297 0.008817624
0000e0 b2 d8 52 3c 98 f3 d0 3c 8d 8a 3b bc e7 6d f5 bb
       0.012869047 0.02550678 -0.011446607 -0.007489908
0000f0 5d 7b 70 3b 9a 96 17 bc 0b c7 18 bc 18 11 71 3c
       0.0036694624 -0.009252215 -0.009324799 0.014713548
000100 c2 a1 3f bc 42 e0 79 bd f5 4f 97 bc ad a5 a3 bc
       -0.011696281 -0.061004885 -0.018470744 -0.019976461
000110 cf be 5f 3c 5d 06 d7 3b 28 88 32 3c c0 86 cf bc
       0.013656332 0.006562038 0.01089672 -0.025332808
000120 a1 b1 1a bc 22 81 92 3b e9 b1 36 bd d7 e9 53 bc
       -0.009441764 0.0044709602 -0.044603262 -0.01293417
000130 bd 7a 3c bc a4 46 09 3d 01 06 70 bc 3d 8e 61 bb
       -0.011503872 0.033514634 -0.014649869 -0.0034417056
000140 b6 c7 f8 3c 3b 7c 24 3d da 6a 45 ba 32 08 8d 3c
       0.030368667 0.040157538 -0.0007530876 0.017215822
000150 fe b3 de b9 64 bb 61 3c c6 85 b6 bc 43 4c a4 bc
       -0.00042477244 0.013777588 -0.022280585 -0.020055896
000160 4a fd eb 3c 38 14 28 bc 0f e5 22 3c a6 11 c5 3a
       0.028807301 -0.010258727 0.009942307 0.0015035167
000170 d2 c6 29 3c 5b 24 51 3c f9 4d e7 3a 52 8b 3a 3c
       0.010362344 0.0127650155 0.0017647139 0.011385756
000180 91 45 57 bd 66 38 9c ba 01 9a 96 bc 3b ba 39 bc
       -0.052556578 -0.0011918664 -0.018383982 -0.011335905
000190 81 46 ea 3b 60 ed 49 3a d3 56 f7 3c bf 90 d0 3c
       0.007149518 0.0007702913 0.030192768 0.025459645
0001a0 12 c7 3d 3c a4 ea 01 bd 19 26 ef bb 3e e0 08 bd
       0.011583107 -0.03171791 -0.0072982428 -0.03341698
0001b0 e2 0b bd bb b1 d1 9c bc fb 28 29 bd e7 1d 85 bb
       -0.005769239 -0.019142957 -0.041298848 -0.0040624025
0001c0 dc c8 4c 3b 12 64 fb bc a8 26 9f 3c 1b 89 27 3c
       0.0031247651 -0.030687366 0.019427612 0.01022556
0001d0 c8 ab 57 3c 29 16 c8 bb 9e b8 43 3b 7f 84 67 b8
       0.013163514 -0.0061061573 0.002986468 -5.519809e-05
0001e0 52 68 79 bc 48 9b 43 3d 8e 04 f5 3a 80 50 0e bc
       -0.015222626 0.04775551 0.0018693374 -0.008686185
0001f0 e5 1f 53 3c d5 20 0e bb 09 91 a8 3b 33 74 9b bc
       0.012886022 -0.002168705 0.0051442427 -0.018976307
