dir_save/reference_training_result/we0_actor_800.pth (torch, 133827 bytes, 4 tensors)

0.weight f4 [128, 128]
000000 aa 8f f1 bc 23 0b 43 3c 59 da 24 3d 8b 5f 94 3c
       -0.02948745 0.011904511 0.040247295 0.018111965
000010 fb d2 54 3d 23 1b ad 3b 56 26 ab bd d7 df b7 3d
       0.05195902 0.005282776 -0.083569214 0.08978241
000020 66 eb d1 3d e4 45 85 bd 86 d2 24 3e 0d f4 94 3d
       0.10249977 -0.06507471 0.16095933 0.072731115
000030 9b 47 e4 3d bc 0c c5 3d c0 ac e8 3c c7 6f 38 3e
       0.1114647 0.096215695 0.028402686 0.1801139
000040 db 89 9e bd 2d f4 04 3d a7 93 c4 bd 40 3c 46 bb
       -0.077411376 0.032459427 -0.09598475 -0.0030248314
000050 b0 ba 01 3e 2a dd d4 3d 33 69 03 3d a7 65 a3 bd
       0.12668872 0.10393746 0.032082748 -0.07978373
000060 f0 8e 61 3e 0d 02 5b 3d 16 64 77 3c a2 e1 80 3d
       0.22027183 0.053468753 0.015099546 0.06293036
000070 69 e2 c5 3c ee 3e 64 bd a5 05 fe bc fc c2 a3 3d
       0.024155812 -0.055724077 -0.03100855 0.07996175
000080 dc e2 19 3e 56 a4 19 be b9 a0 d6 3c 12 80 74 3d
       0.15027946 -0.15004095 0.026199685 0.05969245
000090 f6 9f 4b bd dd 2a 0d be f2 6f 2b 3e 34 5b af 3d
       -0.049713098 -0.13785882 0.16741922 0.085623175
0000a0 3b c6 05 bd 73 7a 0d 3e 23 42 ac bd 70 d1 1d 3d
       -0.03265975 0.13816242 -0.08411052 0.038529813
0000b0 52 f2 9f bd af c8 a2 bd d9 a5 a1 3c 0a 43 8c 3c
       -0.07809891 -0.079484336 0.019732403 0.01712181
0000c0 70 06 64 3c 24 ba 41 3d cb ec 59 3e 0c b6 77 3d
       0.01391755 0.04729666 0.21281736 0.060476348
0000d0 4c 79 75 3d e3 ba 2f 3e bd cf 73 3d 23 a0 34 3d
       0.05993013 0.17161135 0.059524287 0.04409803
0000e0 12 94 ce 3c 83 56 b3 3d 93 c4 64 3e 72 4d 91 bc
       0.02521709 0.08756735 0.22340612 -0.017737124
0000f0 2a 57 26 be 2c a5 da bd 83 da c6 3d 0a 2a 31 bd
       -0.16244188 -0.10676035 0.097096466 -0.043252982
000100 0b 30 d5 3c 9a 97 17 bd 8e b6 95 bd 44 2c 3a 3d
       0.026023885 -0.037009813 -0.0731021 0.04545237
000110 0b 50 7d 3d 43 b3 6c 3d 12 19 db 3d 3d 93 2c 3d
       0.061843913 0.057788145 0.10698141 0.042132605
000120 96 ab 14 bc 7a 58 02 bb 0b e8 32 3e 4e b2 03 bd
       -0.009074112 -0.0019889162 0.1747133 -0.032152466
000130 86 56 65 3c 01 d4 d0 3d 07 b4 90 3c 0a 86 3f 3c
       0.01399768 0.101966865 0.017663969 0.011689672
000140 69 5e d9 bd 73 3d d8 3d 56 d2 04 be 10 a2 96 3b
       -0.106137104 0.105585955 -0.12970862 0.004596956
000150 30 ed 05 3e 90 37 68 bd 76 a0 ec 3b 56 60 64 ba
       0.13078761 -0.056693614 0.007221277 -0.0008711865
000160 47 50 cc 3a 69 a3 8a 3d 6f 1d 6d bd 03 e7 28 3e
       0.0015587889 0.06769449 -0.0578894 0.16494374
000170 5c d9 09 bd a5 3b e7 3c 23 db f3 bd 8a 19 84 3d
       -0.033654556 0.028226683 -0.119070314 0.06450184
000180 a7 91 36 bd dd c8 78 3d 4e c7 00 bd 08 11 f9 bd
       -0.0445725 0.060738433 -0.03144007 -0.121614516
000190 c9 3f 14 3d dd 39 b1 bd 74 ef 14 3e 10 84 f0 3c
       0.036193643 -0.08653615 0.14544469 0.029359847
0001a0 e6 85 87 3d 07 51 14 3b bf 58 10 3e 00 e5 56 3e
       0.06617336 0.0022631304 0.14096354 0.20985794
0001b0 a6 ae 8b bb 96 4e 04 bd 6c 16 a5 bc 4c 74 60 be
       -0.004262763 -0.032301508 -0.020152293 -0.21919364
0001c0 81 21 70 bd af 1e 4b 3c 46 b8 62 bc 94 c1 28 bd
       -0.0586257 0.012397452 -0.0138378795 -0.041200235
0001d0 f8 52 a6 bd 9f 1a 0d be 97 77 9c bd 8a dd 24 3e
       -0.08121294 -0.13779686 -0.076399975 0.16100135
0001e0 43 4c 7d 3d ab 19 ad bc 33 52 8d 3c e5 31 57 bd
       0.061840307 -0.021130404 0.01725111 -0.052537818
0001f0 bc 19 2c be ec 2e 3b be 01 09 5e 3c a0 4f f3 bc
       -0.16806692 -0.18279618 0.013551951 -0.029701054
000200 98 54 6b 3d 10 02 f4 3d 52 a1 8e 3d 51 43 c8 3d
       0.05745372 0.11914456 0.06964363 0.097784646
000210 f2 17 e5 bd db 65 f4 bb 27 6d 49 3d f1 7f da bd
       -0.11186208 -0.007458431 0.04917636 -0.10668934
000220 c1 40 d5 3d c9 08 52 bd 15 18 fc bc db c2 e8 3d
       0.104127415 -0.05127791 -0.030773202 0.11365291
000230 2c 25 ab bd 93 20 f8 bd 14 a6 bf bb 01 21 94 3e
       -0.08356699 -0.12115588 -0.0058486555 0.2893143
000240 08 f0 8e bd 04 2a 06 3e c7 2c 00 bd 85 65 1c be
       -0.06979376 0.13101965 -0.031292703 -0.15273102
000250 9a 4d 20 bd fb 64 49 3d a7 29 0b 3e dd 3f 0e bd
       -0.039136507 0.049168568 0.13590108 -0.034728874
000260 78 f1 ca 3c e3 af 6b bb eb 44 fa 3b 50 b4 b1 3d
       0.024773344 -0.003596299 0.00763761 0.0867697
000270 64 85 20 3d 03 a7 bc bd 09 eb 5d 3c db 83 0b 3c
       0.03918971 -0.092115425 0.013544806 0.0085153235
000280 73 17 d9 3d cb a9 8e bd ed ad 83 bd f4 00 be 3b
       0.10600176 -0.06965979 -0.06429658 0.0057984535
000290 61 8f 1f 3d 84 2a bd bd 62 6a 8f bd 1a 2f 27 3e
       0.038955096 -0.09236625 -0.07002713 0.16326562
0002a0 a6 a7 e4 3d 38 2f 0d bd e7 94 1f 3d be 6b ef 3d
       0.11164789 -0.03446886 0.038960364 0.11690472
0002b0 6c 4a 42 bc 96 0f d7 bd 03 19 34 bd 01 d0 2e 3e
       -0.011858564 -0.1050102 -0.043969166 0.17071535
0002c0 4b 0f 9d 3c c5 5a 1c 3d bb 09 ef 3d 57 d4 03 be
       0.019172331 0.038172502 0.11671778 -0.1287397
0002d0 fb 32 e5 bc 01 f4 a3 3d 3e 69 8e bd f9 45 29 3e
       -0.027978411 0.080055244 -0.06953667 0.16530599
0002e0 d3 f2 57 bd 27 f1 5e 3d ca b5 02 3d 78 7d 07 3d
       -0.05272181 0.0544292 0.03191165 0.03307864
0002f0 e7 df 65 3c f2 98 7b bd 27 29 0f bd d0 6b 55 3e
       0.014030433 -0.061425157 -0.034951355 0.20841908
000300 4a 1d 19 be 90 23 a0 bc 8c 83 ed 3d fd 7f b1 bd
       -0.14952579 -0.019548208 0.11597356 -0.0866699
000310 2d 8c f4 3d 8f 6b 24 bd c6 c2 89 bd eb c3 1b be
       0.11940799 -0.04014164 -0.06726603 -0.15211456
000320 5f 23 1e 3e bb 62 51 3e 1a 8f ee 3b 99 e1 ce 3d
       0.1544318 0.20447819 0.0072802426 0.10101623
000330 78 69 97 bd 56 c6 37 3d 69 7d 48 bd b8 d0 29 bd
       -0.073931634 0.044866882 -0.048947725 -0.041458815
000340 6f 5d 28 3d ea 7c 65 bd 39 8c e8 3c 7c 68 c9 bc
       0.04110473 -0.05602733 0.028387176 -0.024585955
000350 02 7c a8 3d 0a 2c e6 3d d3 61 69 3d 0c ba 3f bd
       0.082267776 0.112388685 0.056978058 -0.046808288
000360 20 92 b0 3c c8 23 9d 3d fa c6 2b ba 48 73 39 be
       0.021554053 0.0767284 -0.0006552782 -0.18110383
000370 29 70 15 be 57 fa 50 3e e0 bf 2f 3d c9 41 29 be
       -0.14593567 0.20407997 0.042907596 -0.16529001
000380 e2 d5 db 3d a6 0b d3 3d 07 de 4a 3d e3 b6 9f 3d
       0.10734154 0.10304956 0.049528148 0.07798555
000390 53 21 47 bd b0 e5 30 3a 8a d7 88 3d cf 37 20 be
       -0.048615765 0.00067480933 0.06681736 -0.1564629
0003a0 18 75 ff bd d2 4c 91 3c 94 a1 35 bc 09 17 33 bd
       -0.12473506 0.017736826 -0.0110858865 -0.04372314
0003b0 a4 87 34 3c 7e 1a 25 3d d4 83 9c bd a8 e4 00 be
       0.011018667 0.040308468 -0.07642332 -0.12587225
0003c0 c4 fb 63 bd 7d 3c 5a be 95 9a ce bc 91 a4 a5 3d
       -0.055660024 -0.21312137 -0.025220195 0.08088029
0003d0 d6 4c 52 bd 70 48 ad 3d aa cc 74 bd 13 aa 12 3e
       -0.051342808 0.08461082 -0.059765495 0.1432269
0003e0 ce 42 16 bd 31 c7 c7 bc fb 96 a9 3d 05 28 7d 3d
       -0.036684804 -0.024386974 0.0828075 0.061805744
0003f0 fe 0a 44 3e cc 3f 0d bd 43 75 a3 bb d1 ff a9 3d
       0.19144818 -0.03448467 -0.004988344 0.08300746

0.bias f4 [128]
000000 98 b5 08 3d 31 29 60 bd b2 06 fb 3c b7 24 ef 3b
       0.033376306 -0.054726783 0.030642841 0.007298078
000010 76 fa 3c bd b1 6f 15 3b 9f f0 25 3c df 50 fa bb
       -0.046137296 0.002280217 0.010128169 -0.007639035
000020 a5 4e 90 bb 8e 40 8c bc 09 cf c1 bb ab db 0b bd
       -0.0044039064 -0.017120626 -0.005914573 -0.03414504
000030 f3 96 84 bc da f1 a3 3d 4d b6 22 bc 03 c7 d4 3b
       -0.01618526 0.08005114 -0.009931159 0.0064934506
000040 9e e4 44 bc 56 fd 33 3b f2 eb 6d 3c d7 fa 12 3d
       -0.012017397 0.0027464232 0.014521586 0.03588375
000050 92 e4 fc 3b 41 07 1e 3a 59 69 81 3c 35 01 ca bc
       0.0077176774 0.00060283026 0.015797304 -0.024658779
000060 d9 e6 88 3b 96 f7 7a 3c 71 5a 0c 3c 20 15 aa 3c
       0.00417791 0.015317818 0.008566485 0.020762026
000070 bb 56 e0 bc 10 58 b1 39 1c c9 bb bc a0 14 49 3c
       -0.027385106 0.00033825682 -0.022923045 0.012272984
000080 2b 55 b0 ba 6d 87 47 3d 76 8a ce 3b ab d5 16 bd
       -0.0013453116 0.048713136 0.006303127 -0.036824863
000090 fa c4 34 bc 05 25 8b 3c 4d 26 54 bb d5 80 05 3d
       -0.011033291 0.016985426 -0.0032371462 0.032593567
0000a0 0b 38 94 3c aa 1d b9 3c 39 3d 7b bd 7f 8a 32 bd
       0.01809313 0.022597153 -0.061337683 -0.04358911
0000b0 55 5b 8f ba a5 2b 7e ba 62 fd df bc 5d 1f 6b 3c
       -0.0010937253 -0.00096958346 -0.027342502 0.014350739
0000c0 9b 80 44 3c f2 b0 1d bd 08 88 ee 3a b8 d9 a5 3b
       0.011993553 -0.038498826 0.00181985 0.0050613545
0000d0 eb 1a d9 bc 96 ac 79 b9 8c 31 40 39 e0 82 6a 3c
       -0.026502093 -0.00023810784 0.00018329005 0.01431343
0000e0 03 b5 20 3c 62 29 26 bd 0b 1f a6 bc 41 b4 3c bb
       0.009808782 -0.04056681 -0.020278474 -0.0028793963
0000f0 ce c1 1d bc 38 e4 af bc a6 c0 15 3d 0c 6a 4f bd
       -0.009628726 -0.021471128 0.036560677 -0.050638244
000100 00 88 30 3d d7 9d a5 bb 4c 52 6b bd b0 b3 43 3c
       0.04309845 -0.0050542164 -0.05745153 0.011944696
000110 06 7a c4 bc 8b 7b 8f bc 57 f7 81 3c 99 ac 02 3d
       -0.023983967 -0.017514965 0.015865011 0.031902883
000120 78 fa 45 bd 0e 49 da 3c f4 36 0e bc 48 09 6c bc
       -0.04833457 0.026646163 -0.008680094 -0.01440651
000130 a9 e5 e7 bc 4b 60 91 bc 03 af 0b bc a8 2e 92 bb
       -0.028307753 -0.017746111 -0.008525613 -0.0044611283
000140 7a 7a 98 3c eb 71 1e bd 45 b7 a1 bc 30 8d a6 bc
       0.018613089 -0.03868286 -0.01974071 -0.020330995
000150 a3 84 99 bb e2 e1 8f 3c 2c 92 15 bb 2e ef 3c bc
       -0.004685001 0.017563764 -0.002282272 -0.011531634
000160 f6 78 06 bd a9 5b 91 bc d6 53 0e 3d 38 4c e0 bc
       -0.0328302 -0.017743902 0.03474792 -0.027380094
000170 b0 aa 88 bc ab 25 f2 bc 6e b3 1f 3c 3e b7 d9 bb
       -0.016682953 -0.029558977 0.009747369 -0.0066441586
000180 33 17 ca bb ae af 4c 3b 78 b6 dc bb fc 8f 91 bc
       -0.0061673163 0.0031232643 -0.006735619 -0.017768852
000190 1f 84 2c 3b 10 3e fa bc f9 3a 98 bb 5f bb 99 3b
       0.0026323867 -0.030547172 -0.004645702 0.004691526
0001a0 0b 64 0e 3c 8e 71 2c bc 08 88 9e bc a6 73 87 bb
       0.008690844 -0.01052512 -0.019351974 -0.0041336594
0001b0 9e 44 c8 bc 96 d8 dc bc d5 ae 13 ba ea 01 01 3c
       -0.024446782 -0.026958745 -0.0005633657 0.0078739915
0001c0 bd 01 45 bc d5 d7 3b bb 77 b1 74 3c d3 47 2c 3c
       -0.01202434 -0.0028662581 0.014934889 0.010515171
0001d0 2d 02 42 3c 1a 3c 36 3d a0 8a 01 bc 28 94 15 bd
       0.011841339 0.04449091 -0.007906586 -0.036518246
0001e0 a7 3d ca bb 30 67 0a 3c 85 77 9b 3b d0 ab 4a bc
       -0.0061719003 0.008447453 0.0047444724 -0.012370065
0001f0 84 9f 86 bd 3d d5 48 3c 69 9a 9f 3c 8b ea 94 3b
       -0.06573394 0.012257871 0.019482808 0.0045445613

2.weight f4 [128, 128]
000000 87 75 80 bd 5c 92 2a 3d 75 f2 92 be 2b aa 38 bb
       -0.062724166 0.041643485 -0.28700605 -0.00281776
000010 c3 75 81 bd 6f 3e 37 bd a7 67 9b bd 5c 5a 84 bd
       -0.063212894 -0.044737276 -0.075881295 -0.06462547
000020 30 b5 2e 3e 47 3e aa bc 4b bf f1 bd c4 0c ce 3d
       0.17061305 -0.02078165 -0.11804064 0.100610286
000030 63 1a 61 3c f0 53 ce bd 01 f6 9b bc 1b 52 af bd
       0.013739201 -0.100746036 -0.019038202 -0.08560582
000040 f5 00 b5 bc 22 2c 23 3e 31 bc 72 bd 76 dd c5 3c
       -0.022095183 0.15934804 -0.059261505 0.024153452
000050 b7 a9 dc bd e9 09 20 bd 39 23 1b be dd 34 a9 be
       -0.10774558 -0.03907195 -0.15150155 -0.33048144
000060 2d dc bb b6 27 70 95 3d 78 22 c8 bd 17 c1 da 3d
       -5.598666e-06 0.07296782 -0.097721994 0.1068136
000070 bf 74 1f bd a6 92 cc 3d 18 0a 48 3c 0d 02 e6 bc
       -0.038929697 0.099889085 0.012209438 -0.02807715
000080 c9 60 01 be bb 59 9a bc 72 01 19 3d d7 60 89 3d
       -0.12634577 -0.018841615 0.037354894 0.06707924
000090 00 c9 84 bc bd 78 0a 3d 99 23 b0 bd b4 55 ae 3c
       -0.016209126 0.03380655 -0.0860054 0.0212811
0000a0 84 40 9b bd a6 80 b3 bc 24 aa 82 bb 5a a4 18 be
       -0.07580665 -0.02191193 -0.0039875675 -0.14906445
0000b0 c2 2a 08 3e 75 4d df bd e8 69 bb bd 50 46 82 3d
       0.13297561 -0.10903446 -0.091510594 0.06361067
0000c0 42 ea 6a 3d 33 55 11 bd 78 80 54 bd 64 b0 1a 3d
       0.057352312 -0.035481643 -0.05188033 0.037765875
0000d0 66 cd 4b 3d 3b 24 94 3d c2 f5 d2 bb 2a e7 cb bd
       0.04975643 0.07233473 -0.006437988 -0.099562004
0000e0 29 42 1e 3e e7 04 67 3c ed eb 8c 3d 90 a0 1d bc
       0.15454926 0.01410029 0.06880937 -0.009620801
0000f0 c0 ee 31 bc 7a b8 2d 3d 6a 52 48 3d 62 2e 4b 3c
       -0.010860145 0.04241226 0.04890672 0.012401195
000100 b3 bc 19 bc 9e 12 c0 bd 72 e4 84 bc 40 c8 09 3d
       -0.009383368 -0.09378551 -0.016222212 0.03363824
000110 8b b5 11 3e ac c9 24 bd 4e 02 fa 3a 58 a4 5d 3c
       0.1422941 -0.04023139 0.0019074173 0.013527952
000120 2e db 0c 3b 9e 7d 3f 3e 03 cf 34 3d e1 42 ce bd
       0.0021492946 0.18700263 0.044142734 -0.1007135
000130 58 07 de bb d4 7a 58 bd c9 fc b0 3d e6 9e be 3d
       -0.006775778 -0.052851513 0.08641965 0.09307651
000140 67 96 64 bd 3e c9 62 3c 62 6d d6 bd 6c 4f 15 3d
       -0.055807497 0.013841925 -0.10470082 0.036452696
000150 d4 c5 c9 3b d3 4e 3d 3c 5c 3a 8f 3d 34 b2 1b bd
       0.006157616 0.011554438 0.06993553 -0.038011745
000160 31 cc d4 bc 7f 27 93 3d 87 8e 0f be 9a 25 ec 3c
       -0.025976272 0.07185268 -0.14019214 0.028826524
000170 43 96 4e 3e fc f0 75 3c 6e 0b 5f bd 25 50 c9 3d
       0.20174508 0.015011068 -0.05445426 0.098297395
000180 92 b1 aa 3c 4f 12 11 be f7 77 d9 bc 29 f4 d2 3d
       0.020836625 -0.1416714 -0.026546462 0.10300476
000190 13 c0 87 3d 46 7b 4b bd b2 17 0d 3e a8 56 c2 bd
       0.06628432 -0.04967811 0.1377857 -0.094891846
0001a0 89 e9 2e be f2 62 c2 bc 43 de a2 3d 26 5f 54 3d
       -0.17081274 -0.023728821 0.07952549 0.051848553
0001b0 6b fb 94 bd 04 ca 3a bd 2a 01 a6 bc c2 72 ec bd
       -0.07274517 -0.045602813 -0.020264227 -0.11545326
0001c0 95 78 01 3e 27 79 2b 3e da 41 eb bd e8 fb a9 bd
       0.12643655 0.16745435 -0.114871696 -0.083000004
0001d0 30 ac f7 bb ed fd 9b 3d 43 01 5f 3d 39 81 fd 3d
       -0.007558368 0.07616792 0.054444563 0.12378163
0001e0 49 3c 82 3d dc bf 36 bd bf 92 b1 3d da e0 5c bd
       0.06359155 -0.044616565 0.08670568 -0.053925373
0001f0 9d 30 b5 bd 07 4d c8 bd 89 61 a9 3d fe 87 71 3d
       -0.08847163 -0.09780317 0.082705565 0.058967583
000200 13 85 10 3d 1f dc c6 3d 18 be 80 3c d8 65 d6 bd
       0.03528316 0.097099535 0.015715644 -0.10468644
000210 83 77 d3 bd ae b4 59 3d 01 95 82 3c 5b 13 7d 3c
       -0.103255294 0.053150825 0.015940191 0.015446509
000220 53 6a 3c bc 00 9e cd bd 2d 92 fb bd 1c 01 d7 bd
       -0.011499959 -0.10039902 -0.1228374 -0.104982585
000230 1e 02 d5 3c 48 90 bd bd cc ec 20 3b d3 43 48 3d
       0.026001986 -0.09256035 0.0024555204 0.048892807
000240 1d fd c1 bc c2 5d 28 3d e6 b1 68 3e 5e 0b 8d bd
       -0.023680264 0.04110504 0.22724113 -0.06886934
000250 d8 89 5a bd df 16 a2 3b f9 18 22 3d 49 e1 46 bc
       -0.053354114 0.004946574 0.039574597 -0.012138673
000260 9e 2f 91 bd 53 e1 4f 3e 2c ec 0f bc 13 d4 d3 bb
       -0.070891604 0.20300798 -0.008784335 -0.00646449
000270 36 5e 2a be 80 03 bb bc e1 48 a5 bc d8 bd 30 be
       -0.16637501 -0.022828817 -0.020176353 -0.1725992
000280 ce 15 a8 bc 6b 37 4d 3c 61 f0 9f bd 01 fd 04 be
       -0.02051821 0.01252542 -0.078095205 -0.12987138
000290 22 95 b2 3d 43 34 aa bc 5b 18 49 bb 96 38 a7 3d
       0.08719851 -0.020776873 -0.0030684683 0.0816509
0002a0 a7 e4 0c be 83 d0 f4 3d 9f 22 34 3d cd cf b3 3c
       -0.13759099 0.11953833 0.04397833 0.021949673
0002b0 ac d1 84 bd 58 54 9a 3d e7 70 c8 bd 5d a5 49 3d
       -0.06485304 0.075356185 -0.097871594 0.04922997
0002c0 5a d8 94 3d a1 08 92 bb 2f fd 93 bd ea 7b e4 3c
       0.07267828 -0.004456595 -0.07226025 0.027891118
0002d0 d5 05 85 be ad 64 78 3d 25 e7 6c 3d 88 45 72 bd
       -0.25981012 0.060642887 0.057837624 -0.05914834
0002e0 86 5f 21 bd 0a 57 29 be f3 ab 8b bd e2 4f ae 3d
       -0.03939774 -0.16537109 -0.06819906 0.0851133
0002f0 6b 06 9d 3d f3 b1 69 bd 75 53 aa bd d8 99 40 be
       0.0766724 -0.05705447 -0.083166994 -0.18808687
000300 4d 32 c0 bd 07 42 28 be 56 2c dd bd 06 50 fd bd
       -0.09384594 -0.16431437 -0.10799472 -0.12368779
000310 ad 86 e0 bb cc e5 8f 3d 71 3d 25 bc bc 3f 56 3c
       -0.006851992 0.07026252 -0.01008545 0.013076719
000320 22 2f 45 bd a1 09 88 3d d3 c5 44 3e 6f cc 42 be
       -0.048140652 0.066424616 0.19216089 -0.19023298
000330 71 34 51 3d f1 37 a8 3c f4 69 a6 3d 4b 31 66 3d
       0.051075403 0.020534487 0.08125678 0.056199353
000340 8f fc c0 bd 26 37 79 3d 87 90 6e 3d 2a 61 c7 bc
       -0.09423172 0.06084361 0.0582433 -0.024338324
000350 28 8d b2 bc b1 a2 d5 3d e3 60 fc bc 01 aa de bb
       -0.021795824 0.104314215 -0.030807918 -0.0067951684
000360 ea db 47 3d df 8e ef bd 6a 63 c8 bc 13 db 2d 3e
       0.04879371 -0.116971724 -0.024461467 0.16978101
000370 d6 a4 b8 3d ec 01 19 ba 1e 76 5c 3d 98 df 67 3d
       0.09015815 -0.0005836773 0.053823583 0.05660972
000380 93 e7 a9 3b 0a 10 81 3d c3 ab 99 3d 94 2c 1d 3d
       0.0051850765 0.06301887 0.07503464 0.03837259
000390 f3 80 64 3e 43 9a f6 bc c3 22 86 bd 43 1d 66 bc
       0.22314815 -0.030102855 -0.06549599 -0.0140450625
0003a0 06 20 43 bd b1 57 43 3d 54 64 fe 3d 01 6f 90 bc
       -0.04763796 0.04769105 0.1242148 -0.017631056
0003b0 3d a0 d6 bc 05 c5 49 3d 62 52 74 bd c4 2a bd bb
       -0.026199454 0.049260158 -0.05964888 -0.0057729203
0003c0 0e 21 c6 bc 6d 1b 2b 3e 08 61 07 be 84 d7 a3 3d
       -0.024185684 0.16709681 -0.13220608 0.08000091
0003d0 d4 92 ea 3d 15 ef 1d 3e 4c 94 a0 bb 9b 1e 2b bd
       0.114537865 0.15423234 -0.004900491 -0.041777235
0003e0 5e 49 a7 bd aa 9c 80 bb 60 9e 59 3b 1e 36 2d 3e
       -0.081682906 -0.003924926 0.003320597 0.16915175
0003f0 58 c3 ab 3d 90 12 04 3e 40 cd 4a 3c 57 e7 b3 bd
       0.08386868 0.12897706 0.012378037 -0.08784359

2.bias f4 [128]
000000 09 26 27 bb 0f 8a f5 3c 5e 3e ea 3b fa 5d 7b bb
       -0.0025504848 0.029973058 0.007148548 -0.0038355575
000010 8b 11 a2 3d 62 2c 85 3d 4e 85 8c bd 36 26 4b bc
       0.07913502 0.06502606 -0.06861363 -0.012399247
000020 0f 35 9b bc c3 46 cd 3c 74 2a 79 3c c4 a1 6e bc
       -0.018946199 0.025058156 0.0152078755 -0.014564935
000030 b6 9d 0b bd a2 22 6b 3d ff ff e5 3c 83 b0 d0 bb
       -0.03408595 0.057406075 0.02807617 -0.006368698
000040 25 28 8f 3c 4c 14 46 b9 4c f6 70 bc 0c 42 bb b9
       0.017475197 -0.00018890313 -0.014707159 -0.00035716628
000050 03 16 4e bc 7e 21 5b 3d 42 1e 48 3b 5a 15 03 bb
       -0.01257849 0.053498738 0.0030535613 -0.002000174
000060 dc 5e 5c bc 2b 09 c1 3a 3a 43 a0 3c cb 46 12 3d
       -0.013450351 0.0014727464 0.019563306 0.035712045
000070 7f 0a a6 bc fd d3 93 bc d4 0c 2d bc ae e4 a3 bc
       -0.020268677 -0.01804542 -0.0105621405 -0.020006504
000080 19 ec 0b 3d 4e 0a 8a 3c 64 bb bb 3c 94 23 42 bd
       0.034160707 0.016850617 0.022916503 -0.04739721
000090 03 7a 08 3d 4d d2 e0 ba 7c 11 f8 bc 7d c6 1c 3d
       0.033319484 -0.0017152518 -0.030281775 0.03827523
0000a0 5d 04 97 3a 5f c3 c1 bc 6a eb 18 3c 3f b2 ba ba
       0.0011521686 -0.02365273 0.009333471 -0.0014243795
0000b0 a0 88 08 3d 7e 52 a4 3c d0 96 44 ba 76 6b a5 bb
       0.03333342 0.020058867 -0.00074992795 -0.0050482107
0000c0 6c be 23 bb d0 5c a3 3b 58 a1 2a 3c 71 e7 1f 3c
       -0.0024985326 0.0049854293 0.010414444 0.00975977
0000d0 b9 c4 e8 3c 0a c5 9c bc ea dd eb bc 49 a0 9d 3c
       0.028414117 -0.019136924 -0.02879234 0.019241469
0000e0 da f4 f6 3a 00 97 0f 3d a5 76 59 bc d2 ee 2c bc
       0.0018841282 0.035056114 -0.013272916 -0.010554986
0000f0 75 0d 11 3d 89 52 29 bc 71 e5 86 bc f6 c5 ad 3c
       0.035413224 -0.010334619 -0.016466828 0.02121256
000100 a1 6f 63 bb 5e 9c 6b bd 73 29 37 bc d0 91 0a bd
       -0.0034703987 -0.05752217 -0.011179316 -0.033830464
000110 b0 56 8a 3c a1 86 2c 3c 27 65 6c ba e7 b5 07 bd
       0.016887039 0.010530145 -0.00090177584 -0.03313246
000120 03 fc 06 bc da e1 ed 38 1d cc 8d bd 1f 29 81 bc
       -0.008238795 0.00011343109 -0.06923697 -0.015766678
000130 49 c5 78 bc 59 38 25 3d e7 69 3d bc b0 3b 12 bb
       -0.015183755 0.04033694 -0.011560894 -0.0022313409
000140 a3 67 29 3d b4 b8 3b 3d 6a 2f 4d bc 08 a2 e0 3c
       0.0413586 0.045830444 -0.012523511 0.027421013
000150 f4 11 35 bc 3c 51 d6 3b 3d d9 1a bd 3f 94 1a bd
       -0.011051644 0.0065404456 -0.03780483 -0.037739035
000160 2f 78 d6 3c f2 c4 0a bd 68 0e 66 3c d8 8b f4 3b
       0.026180355 -0.033879228 0.014041521 0.0074629597
000170 39 85 96 3c 94 d5 14 3c a6 72 b4 3c b5 09 83 bc
       0.018374072 0.009084124 0.022027325 -0.01599584
000180 5c 05 f1 bc 38 61 1f 3b 99 f4 00 bd 5c 3f 27 bc
       -0.0294215 0.0024319421 -0.031483267 -0.010207977
000190 30 33 95 3c 64 93 d3 3b 1e 3f 29 3d 14 3b 7d 3c
       0.018212885 0.0064567793 0.04131996 0.01545598
0001a0 53 de de 3a b3 d6 03 bd ab 79 07 bc 24 87 83 bd
       0.0017003514 -0.032187175 -0.008268754 -0.064222604
0001b0 9c 0e 20 ba 5d 4e ae bc 01 dc 49 bd 32 12 92 3a
       -0.00061056926 -0.0212776 -0.049282078 0.0011144339
0001c0 40 cb 38 3c d5 b8 03 bd c6 92 37 3d 6e f7 66 3c
       0.011278927 -0.03215869 0.04481771 0.014097078
0001d0 25 1f 42 3c b2 4b 9b 3b 96 5f 33 3c 35 ec ea 3b
       0.011848246 0.004739248 0.010948082 0.0071692714
0001e0 a7 98 3a bc e8 59 f7 3c 44 3b 49 3c 9c 6b a6 bc
       -0.011388934 0.030194238 0.012282196 -0.020314984
0001f0 72 0e 32 3c 27 8a ac b9 3b 06 c1 3b 8e 23 fa bc
       0.010867702 -0.00032909328 0.0058906353 -0.030534532
