dir_save/reference_training_result/we0_critic_200.pth (torch, 133833 bytes, 4 tensors)

0.weight f4 [128, 128]
0	0x3deee316	0.11664407
1	0xbd826da3	-0.06368568
2	0xbe1c1cb4	-0.15245324
3	0x3e5ac114	0.21362716
4	0x3dc95d83	0.09832289
5	0xbcf31a0f	-0.029675512
6	0xbd6ed21f	-0.058305856
7	0xbe15b3f6	-0.14619431
8	0x3ec42339	0.38308123
9	0x3e980f06	0.29698962
10	0x3f0cea22	0.5504476
11	0xbe7f73b1	-0.24946477
12	0x3ed994ce	0.4249634
13	0xbe78be29	-0.2429129
14	0xbdf3e35e	-0.11908601
15	0xbf0b11f9	-0.543243
16	0x3e3bf24c	0.18354148
17	0xbda919d2	-0.08256878
18	0x3e9c9677	0.30583546
19	0x3d34efc1	0.04417396
20	0x3e7c0c74	0.24614125
21	0xbe230b9c	-0.15922397
22	0xbeca358c	-0.39493978
23	0x3f1502bc	0.582073
24	0x3e54c0f9	0.20776738
25	0x3ebc7406	0.3680727
26	0xbf7a627c	-0.97806525
27	0x3e1da52b	0.15395038
28	0xbf712fdf	-0.9421367
29	0xbe734f8f	-0.23760818
30	0x3dbe566e	0.09293829
31	0xbd230b70	-0.03980583
32	0x3ea3da3d	0.3200244
33	0x3e663757	0.22482048
34	0xbc969e60	-0.018386066
35	0x3d910ba0	0.070822954
36	0xbe87cc3e	-0.26523012
37	0xbbfe324b	-0.00775746
38	0x3e9db545	0.3080236
39	0xbd87b2ea	-0.06625922
40	0x3d43611d	0.047700036
41	0x3e8482a3	0.25880918
42	0xbe51d333	-0.20490722
43	0xbe02e9af	-0.12784456
44	0xbd7b56d3	-0.0613621
45	0xbea21107	-0.31653616
46	0x3ee922ce	0.45534366
47	0xbd811b3b	-0.06304022
48	0xbe871705	-0.2638475
49	0x3e42bcd0	0.19017339
50	0x3d2887b7	0.041145053
51	0xbdcb39a2	-0.09923102
52	0xbed6ce2a	-0.41954166
53	0x3de1b901	0.11021615
54	0x3ec9b041	0.39392284
55	0x3e078f51	0.13238265
56	0x3f086bdd	0.53289586
57	0x3e281c0b	0.16416948
58	0xbe451ed3	-0.1925004
59	0xbe4de165	-0.20105512
60	0xbe8a48bf	-0.27008626
61	0x3f38ed52	0.7223712
62	0x3f6707ac	0.9024608
63	0xbde03e64	-0.109494
64	0x3de8e74c	0.113722414
65	0xbe1c5764	-0.15267712
66	0xbd84110c	-0.06448564
67	0xbe61f079	-0.2206439
68	0x3f3fffe6	0.74999845
69	0xbca43a3a	-0.020047296
70	0xbf34f473	-0.706855
71	0x3f21da2f	0.63223547
72	0x3e28d04c	0.16485709
73	0xbe5c30b0	-0.21502948
74	0x3e2fcac0	0.17167187
75	0x3e994be3	0.2994071
76	0x3e2fd8f8	0.17172611
77	0xbd806a7d	-0.06270311
78	0xbed1df36	-0.4099061
79	0xbf2f09a9	-0.68374115
80	0xbdf11c3e	-0.11772965
81	0x3e170833	0.14749222
82	0xbef8cb58	-0.4859264
83	0xbdc07f71	-0.093993075
84	0x3d2c3894	0.042046145
85	0xbbab9e8c	-0.005237406
86	0x3e484406	0.19557199
87	0xbd666866	-0.056251906
88	0x3dce895e	0.100847945
89	0x3e4f0c71	0.2021959
90	0xbe6ace92	-0.22930363
91	0xbd2bc74f	-0.041938122
92	0x3e38a489	0.18031515
93	0xbd92bc7c	-0.07164857
94	0xbeb9a1eb	-0.36256346
95	0xbeef2a18	-0.46711802
96	0xbeeb25c8	-0.45927262
97	0x3e365f6b	0.17809837
98	0xbbf9345c	-0.0076051187
99	0x3dfc3ee3	0.12316682
100	0x3e57e776	0.21084389
101	0x3d85e5f7	0.06538003
102	0xbed7924e	-0.4210381
103	0xbe8aeac3	-0.27132234
104	0xbe86e706	-0.26348132
105	0x3f088977	0.53334755
106	0x3ec9af4e	0.3939156
107	0xbee9ffd5	-0.45702997
108	0xbe6a56d9	-0.22884692
109	0xbe80e779	-0.251766
110	0xbdd64f38	-0.104643285
111	0xbe2805d2	-0.1640847
112	0x3f2f5795	0.68493015
113	0xbd911d20	-0.07085633
114	0xbc81ac8e	-0.01582935
115	0x3e3c06fc	0.1836204
116	0xbb4c2eed	-0.00311559
117	0x3e0f9c95	0.14024575
118	0xbe9cdbbe	-0.306364
119	0x3e8c7be3	0.27438268
120	0xbe869f9e	-0.26293653
121	0xbe4ea285	-0.20179184
122	0x3e736b6f	0.23771451
123	0xbeed45d3	-0.46342334
124	0xbea2a616	-0.3176734
125	0x3dc2b8a1	0.095078714
126	0xbf0f5625	-0.5599082
127	0x3cf9698a	0.030445833
128	0xbee1218d	-0.4397091
129	0xbd479bb9	-0.048732493
130	0xbf282f83	-0.656975
131	0x3e624444	0.22096354
132	0x3ed9250a	0.4241107
133	0x3defa756	0.11701839
134	0x3d34f5fd	0.044179905
135	0xbd5ca2f5	-0.053866345
136	0x3b6f3c5c	0.0036504483
137	0xbd2c9521	-0.042134408
138	0x3e810ef9	0.25206736
139	0x3dcb7c6d	0.09935842
140	0x3d5228ab	0.051308315
141	0xbe81bd74	-0.25339854
142	0xbd333c6d	-0.0437588
143	0x3d7eb5ec	0.062185213
144	0x3e7a1184	0.24420744
145	0xbe2fdba5	-0.17173631
146	0x3f49baad	0.7880047
147	0x3f5aaf01	0.85423285
148	0xbe065c02	-0.13121036
149	0x3f2f5306	0.6848606
150	0xbe2bfbeb	-0.16795318
151	0xbdfab0e1	-0.12240768
152	0x3f457d32	0.7714416
153	0xbee3bd83	-0.44480523
154	0x3e247038	0.16058433
155	0xbd9e0fe3	-0.07717874
156	0xbe2c5213	-0.16828184
157	0xbeb40af3	-0.35164604
158	0xbdee02c1	-0.11621619
159	0xbe54d2bb	-0.20783512
160	0x3f3e3cd0	0.7431154
161	0x3e25a48d	0.16176052
162	0xbeca6fbc	-0.39538372
163	0xbd6e1e83	-0.058134567
164	0x3dede0b9	0.11615128
165	0x3dec4754	0.11537042
166	0x3ec41d64	0.38303673
167	0x3ddc5425	0.10758237
168	0x3ecabff2	0.39599568
169	0xbe96e66d	-0.29472676
170	0x3e2972c8	0.16547692
171	0x3de16893	0.11006274
172	0xbe8f236f	-0.2795672
173	0xbd15688f	-0.036476668
174	0x3e9918d7	0.29901764
175	0x3e831925	0.2560512
176	0x3d866869	0.065628834
177	0xbe771f88	-0.24133122
178	0xbdacac69	-0.08431322
179	0xbd936a0f	-0.071979634
180	0xbee54908	-0.4478228
181	0xbd8f17ba	-0.06986947
182	0x3dd4dc72	0.10393609
183	0xbc6a7759	-0.014310681
184	0x3db0efc8	0.08639485
185	0xbf09dd5a	-0.5385338
186	0x3e9104f3	0.28324088
187	0xbea03875	-0.31293073
188	0x3e79234c	0.24329871
189	0x3e024a58	0.12723672
190	0xbda12888	-0.07869059
191	0x3f0fd13e	0.56178653
192	0xbd8923fb	-0.06696316
193	0x3cd669f6	0.026173573
194	0x3eb0f03b	0.3455828
195	0x3ca5458b	0.020174762
196	0x3e9f6852	0.31134278
197	0x3e6d5acf	0.23179172
198	0x3d082e31	0.033247177
199	0x3f175d2f	0.5912656
200	0x3e95890b	0.29206118
201	0x3c332275	0.010933508
202	0x3f05e4d2	0.5230228
203	0x3de3d24c	0.11124095
204	0xbf27b608	-0.6551213
205	0x3e00b88a	0.12570396
206	0xbe6ee2ad	-0.23328657
207	0xbeefa127	-0.46802637
208	0x3e3e6544	0.18593317
209	0xbea070a7	-0.31335947
210	0x3d58a65f	0.05289304
211	0xbd8ba3ef	-0.06818377
212	0xbdf15cb6	-0.11785261
213	0x3ebae3ea	0.3650201
214	0x3ec6442b	0.38723883
215	0xbe545a29	-0.20737518
216	0x3dce5da9	0.10076458
217	0x3e54661f	0.20742081
218	0xbe4c512e	-0.19952843
219	0xbea9e5c2	-0.33183104
220	0x3e7181e5	0.23584707
221	0xbebf47d9	-0.37359503
222	0x3eb19000	0.34680176
223	0xbe73c660	-0.23806143
224	0xbef24042	-0.4731465
225	0xbd8d610a	-0.06903274
226	0x3dbd0c47	0.09230857
227	0xbf26de0d	-0.6518257
228	0x3f18328e	0.5945214
229	0xbeec46d6	-0.46147794
230	0x3e03b4d7	0.12861954
231	0x3d929c30	0.07158697
232	0x3edc928a	0.4308055
233	0x3d0204d4	0.031742886
234	0x3ec7fc52	0.39059693
235	0xbf0a4afc	-0.5402067
236	0xbeb3ac4a	-0.35092384
237	0x3ea3a4f3	0.31961784
238	0xbde06613	-0.10956969
239	0x3d9a2581	0.075266846
240	0x3e102b45	0.14079006
241	0x3dc5431b	0.0963194
242	0xbe86891e	-0.26276487
243	0x3dd5fe2b	0.10448869
244	0xbd509e0c	-0.050931975
245	0x3f168aef	0.58805746
246	0x3e077ef4	0.13232023
247	0xbdda0f07	-0.106473975
248	0x3d6e3274	0.058153585
249	0xbedb7838	-0.42865157
250	0xbdcb4502	-0.099252716
251	0xbd75bbeb	-0.059993666
252	0x3e4bfbc0	0.19920254
253	0xbd1b9afb	-0.037989598
254	0xbd7d2f44	-0.061812654
255	0xbf3768b2	-0.7164413

0.bias f4 [128]
0	0xbcfa634b	-0.030564925
1	0xbdb2f33c	-0.087377995
2	0xbc3b3c74	-0.011427987
3	0x3d446db2	0.047956176
4	0xbd4415c1	-0.04787231
5	0x3d958277	0.07300275
6	0x3d8fb1f0	0.07016361
7	0x3dcabba3	0.0989907
8	0x3dbd689d	0.09248469
9	0x3ed21b40	0.41036415
10	0xbd9105a9	-0.07081158
11	0x3cb5617a	0.022141207
12	0x3e10adb9	0.1412877
13	0x3d21184c	0.039329812
14	0xbd6a3327	-0.05717769
15	0x3d0d7d45	0.034543294
16	0x3d4dddd7	0.05026039
17	0xbd6c67ce	-0.057716183
18	0x3d9a9b6f	0.07549178
19	0xbcd11ce6	-0.025526475
20	0xbe1f66f6	-0.1556662
21	0x3d5b0235	0.0534689
22	0xbcd35217	-0.02579598
23	0xbd93dfff	-0.07220458
24	0xbdbd452b	-0.09241708
25	0x3db932bd	0.09042881
26	0x3e797662	0.24361566
27	0xbcda03aa	-0.026613075
28	0x3e1e9e06	0.15489969
29	0xbdbdbde0	-0.092647314
30	0xbce676a1	-0.028132739
31	0x3d7ba80b	0.061439555
32	0xb8af1500	-8.348562e-05
33	0xbde66b43	-0.11250927
34	0x3d9f662a	0.07783158
35	0xbdfd0e5f	-0.12356257
36	0x3dd0a4ee	0.10187708
37	0x3e27c5dc	0.16384071
38	0x3cb126c3	0.021624928
39	0x3d5ed7b9	0.054404948
40	0x3cd7e77d	0.0263555
41	0xbdca1a5e	-0.098683104
42	0xbb88742b	-0.004164239
43	0xbceed44b	-0.029153964
44	0x3e35ab06	0.17741022
45	0xbe5f0706	-0.21780023
46	0xbd62237f	-0.055209633
47	0xbd2c7c74	-0.042110875
48	0x3e0c5f58	0.13708246
49	0xbe60cee2	-0.2195392
50	0xbd83451e	-0.064096674
51	0xbd20508d	-0.03913932
52	0xbc40444b	-0.011735032
53	0x3e14391f	0.14474915
54	0x3b7ca609	0.0038551113
55	0xbe33bac8	-0.1755172
56	0x3e2b0cfc	0.16704172
57	0xbdc8267c	-0.09772965
58	0xbba3aafe	-0.004994749
59	0x3d9a5bad	0.07537017
60	0xbcea771f	-0.028621254
61	0xbe1720d3	-0.14758615
62	0x3debe9ed	0.11519227
63	0x3dd5254a	0.10407503
64	0x3e17e72f	0.14834283
65	0xbe0002e3	-0.12501101
66	0x3d30e8aa	0.043190636
67	0x3bf821a1	0.0075723683
68	0x3e0c915c	0.13727325
69	0x3d2630d7	0.04057392
70	0x3d7ef092	0.062241144
71	0xbccbb703	-0.02486754
72	0xbb2a0327	-0.002594182
73	0xbdec3878	-0.11534208
74	0x3da100df	0.07861494
75	0x3cd24e75	0.025672177
76	0xbda23485	-0.079201736
77	0x3d0c63f5	0.034275014
78	0xbc88dca0	-0.016706765
79	0xbc1397ad	-0.00900833
80	0x3d9412d8	0.07230157
81	0xbd14f7ff	-0.03636932
82	0xbd62fc4a	-0.055416383
83	0x3d900c58	0.070336044
84	0xbddecc82	-0.108788505
85	0xbe2563b8	-0.16151321
86	0x3e0c6353	0.13709764
87	0xbcd6942b	-0.026193699
88	0xbe30da3f	-0.17270754
89	0xbe08f537	-0.13374792
90	0x3e0ac4b7	0.13551603
91	0x3cdc2530	0.026873201
92	0xbe7b4bfd	-0.24540706
93	0xbcff30a8	-0.03115113
94	0xbc74950c	-0.014928114
95	0xbe1da16a	-0.15393606
96	0xbe3cceab	-0.18438213
97	0x3da8257d	0.08210275
98	0xbd562c06	-0.052288078
99	0x3e313d5e	0.17308566
100	0xbdd8bb40	-0.1058259
101	0x3c5cc634	0.01347499
102	0x3e1c9999	0.15292968
103	0xbd43c1d1	-0.04779226
104	0x3d70a64b	0.05875234
105	0xbc14bf97	-0.009078882
106	0x3e8b5467	0.2721283
107	0xbd85cda4	-0.065333635
108	0xbb74b077	-0.0037336627
109	0x3e0607f7	0.13088976
110	0x3e0dc33f	0.13844012
111	0x3ddc753e	0.1076455
112	0x3d3073ab	0.04307906
113	0x3e25d963	0.16196208
114	0xbdbe8152	-0.0930201
115	0xbd8125d5	-0.06306044
116	0x3d875446	0.06607871
117	0x3e250b4b	0.16117589
118	0x3e066669	0.13125004
119	0x3d853520	0.065042734
120	0x3d248477	0.04016539
121	0xbd41e1fd	-0.04733466
122	0x3dc5fbcc	0.09667167
123	0xbd3f4b78	-0.046702832
124	0xbe9595e9	-0.29215935
125	0xbe16de76	-0.147333
126	0x3e0215dd	0.12703653
127	0x3df56295	0.11981694

2.weight f4 [128, 128]
0	0x3e4fa165	0.20276411
1	0xbe9e96e0	-0.30974483
2	0x3dbd4270	0.092411876
3	0x3d526a85	0.051371116
4	0x3c6e8657	0.014558396
5	0x3c884d7a	0.016638506
6	0xbe938abb	-0.2881678
7	0x3eb352de	0.3502416
8	0x3f596e61	0.8493405
9	0x3d331266	0.043718718
10	0xbf11513d	-0.56764585
11	0x3d7bd8fe	0.061486237
12	0xbcf0f50a	-0.029413719
13	0xbef9a3cb	-0.48757777
14	0xbf312496	-0.6919645
15	0x3cd7c54e	0.0263392
16	0xbeb2063d	-0.34770384
17	0x3de41f12	0.11138739
18	0x3ee65d44	0.4499303
19	0x3f394bac	0.7238109
20	0xbd86756a	-0.06565364
21	0x3f23ef5f	0.64037126
22	0x3dba8a94	0.09108463
23	0x3e06b879	0.13156308
24	0x3d4740b3	0.048645686
25	0x3e75dfaa	0.24011102
26	0xbd11f7ec	-0.035636827
27	0x3e3b0058	0.1826185
28	0xbdc2d856	-0.09513919
29	0xbf038b22	-0.51384175
30	0xbe84c7ed	-0.2593378
31	0xbf094d57	-0.53633636
32	0xbf865cd4	-1.0497079
33	0x3e8bb239	0.2728441
34	0xbe80c4de	-0.25150198
35	0xbe81af95	-0.2532927
36	0x3de01da8	0.109431565
37	0xbe9a09c2	-0.3008557
38	0x3e00fb62	0.12595895
39	0x3e42044c	0.18946952
40	0xbeb7d87f	-0.3590736
41	0xbf0a5488	-0.54035234
42	0x3ed1c0c2	0.40967375
43	0xbe9a26d4	-0.30107749
44	0xbe8c3ccc	-0.27390134
45	0x3ee8707d	0.45398322
46	0xbf0100f8	-0.50392103
47	0xbeafc290	-0.34328127
48	0xbd0f309e	-0.034958474
49	0x3edea9da	0.4348896
50	0xbeee92a1	-0.46596244
51	0xbddd5e77	-0.10809033
52	0x3e11f76b	0.14254539
53	0xbda18bc8	-0.07887989
54	0xbddc4d4f	-0.10756933
55	0x3b7d9c99	0.0038698076
56	0x3ccdb93c	0.02511274
57	0xbf1ec251	-0.62015253
58	0x3e7fe40c	0.24989337
59	0x3e82341d	0.25430384
60	0xbf121f82	-0.5707933
61	0x3ecacf4f	0.3961129
62	0x3eb40e29	0.35167053
63	0x3f5cb9c0	0.8622093
64	0xbe0198cd	-0.12655945
65	0x3d8c234d	0.068426706
66	0xbe89361d	-0.26799098
67	0x3e560691	0.20900942
68	0x3ebfc5f6	0.3745572
69	0xbf16fa2b	-0.58975476
70	0xbe95a441	-0.29226878
71	0x3d7905a2	0.060796387
72	0xbeeabd5a	-0.4584759
73	0x3d8038b4	0.06260815
74	0xbee746b1	-0.4517112
75	0xbe42302d	-0.1896369
76	0xbf0e9681	-0.556984
77	0xbebe0be3	-0.37118444
78	0x3e014c1b	0.12626688
79	0xbf826a25	-1.0188643
80	0xbd8f7fb0	-0.07006776
81	0xbe2122f3	-0.15735988
82	0x3e484e84	0.19561201
83	0x3ea2f274	0.31825602
84	0x3e20c68b	0.15700738
85	0x3e6e3556	0.23262534
86	0xbe02c993	-0.12772207
87	0xbee1edef	-0.4412684
88	0x3e4d62dc	0.20057243
89	0x3c9491c7	0.018135918
90	0x3f535cbe	0.8256339
91	0xbe4aa2fe	-0.19788739
92	0x3e184813	0.14871244
93	0x3e7d61f1	0.24744393
94	0x3d6ce9d7	0.057840195
95	0x3d428758	0.047492355
96	0xbec2f809	-0.3807986
97	0x3e8c3317	0.27382728
98	0x3e6277a5	0.22115953
99	0x3e5b23fd	0.21400447
100	0xbf416e0b	-0.7555854
101	0x3e93a698	0.28838038
102	0xbe1b0cf8	-0.15141666
103	0xbba526cd	-0.005040026
104	0xbbd098eb	-0.0063658855
105	0xbd743485	-0.0596204
106	0x3e456595	0.19277032
107	0xbefa5d9c	-0.48899543
108	0xbe80f49f	-0.2518663
109	0x3e7c4e91	0.24639346
110	0x3f344e66	0.70432127
111	0x3e7b100c	0.2451784
112	0xbf9e9464	-1.2389035
113	0x3e5741cc	0.21021193
114	0xbed8c012	-0.42334038
115	0x3f032690	0.51230717
116	0x3e7f7496	0.24946818
117	0xbd4a14fc	-0.04933642
118	0x3f17f19f	0.5935306
119	0x3f17451a	0.59089816
120	0x3d182437	0.037143912
121	0xbf20ad90	-0.62764835
122	0x3f11d1b3	0.569606
123	0xbec6bdca	-0.38816673
124	0x3dfde0cf	0.123963945
125	0xbe84de40	-0.25950813
126	0xbed23212	-0.41053826
127	0x3e538ca1	0.20659114
128	0x3ed7cbf9	0.42147806
129	0x3e247f38	0.16064155
130	0xbdfda3e8	-0.12384778
131	0x3ea765bb	0.32694802
132	0xbe35f466	-0.17769012
133	0x3d962aa9	0.073323555
134	0x3efd5fce	0.49487156
135	0x3dd53cfa	0.10412021
136	0x3ef78298	0.48341823
137	0x3e32dc26	0.17466792
138	0x3e3ab0df	0.18231533
139	0xbcfc457b	-0.03079485
140	0xbf059393	-0.52178305
141	0x3e6c986c	0.2310502
142	0x3f5b7068	0.85718393
143	0x3dddaefd	0.10824392
144	0x3f38b9d6	0.72158563
145	0xbf1882c4	-0.5957453
146	0xbe82dd6a	-0.2555955
147	0xbf0cb2ee	-0.54960525
148	0x3e5d7011	0.21624781
149	0xbedceab3	-0.4314781
150	0xbe0a2fba	-0.13494769
151	0x3d122fb4	0.035690024
152	0x3f3dcb32	0.74138176
153	0xbd9d211d	-0.076723315
154	0x3d90c4bf	0.07068776
155	0x3ebe5fa2	0.37182337
156	0xbe9196cd	-0.28435364
157	0x3e5f9477	0.21833979
158	0x3e885922	0.26630503
159	0x3c9f9492	0.019480024
160	0x3ec5d210	0.38636827
161	0x3d1939ed	0.037408758
162	0xbde87c26	-0.113518044
163	0x3ec236cf	0.3793244
164	0xbd66028d	-0.056154776
165	0x3dbee90f	0.09321796
166	0xbee1289f	-0.43976304
167	0x3f4412e5	0.7659133
168	0x3f0aae93	0.5417263
169	0x3e5833a1	0.21113445
170	0xbdce4b37	-0.1007294
171	0x3edef16c	0.43543565
172	0x3e277308	0.16352475
173	0xbe63a64e	-0.22231409
174	0xbf1fb27b	-0.62381715
175	0x3f241ed6	0.6410955
176	0x3dcfcfad	0.10147033
177	0xbe91cf29	-0.28478363
178	0x3e10ea9d	0.14151998
179	0x3f142425	0.5786765
180	0x3e8d8f11	0.27648214
181	0xbf179eae	-0.592265
182	0x3e8f6074	0.28003275
183	0x3e28e209	0.16492476
184	0xbe96ca0b	-0.29451022
185	0x3e862d9d	0.26206675
186	0xbeaf1204	-0.34193432
187	0x3ec692af	0.38783786
188	0x3da9be95	0.08288304
189	0x3dce86b3	0.100842856
190	0xbe758ba4	-0.2397905
191	0xbe2a235a	-0.16615048
192	0x3f0fdc3b	0.5619542
193	0x3ed94a88	0.42439675
194	0xbebc47b1	-0.36773446
195	0x3f2a10af	0.6643171
196	0xbe226739	-0.15859689
197	0x3f22ada6	0.63546216
198	0x3dff1df7	0.12456887
199	0x3f79b26f	0.97537893
200	0xbe58ed86	-0.21184358
201	0xbdd0463f	-0.101696484
202	0x3f1d37f8	0.61413527
203	0xbebafb8a	-0.36520034
204	0x3eb3c9cf	0.35114905
205	0x3ebe5db0	0.37180853
206	0xbf106b06	-0.56413305
207	0xbd2d3bcd	-0.04229336
208	0xbe4d6a2e	-0.20060036
209	0xbe27b296	-0.16376719
210	0x3ef05e28	0.46946836
211	0xbf2ea315	-0.68217593
212	0xbdc9bd03	-0.09850504
213	0xbf43569f	-0.7630405
214	0xbebb3866	-0.36566466
215	0x3efe47a7	0.4966404
216	0x3cd0969e	0.025462445
217	0xbe217196	-0.15765986
218	0xbed7f18b	-0.4217647
219	0xbca00264	-0.01953239
220	0x3d17f4ed	0.037098814
221	0xbe4197f4	-0.18905622
222	0x3f19fc4d	0.60150605
223	0xbe5c7b3a	-0.21531382
224	0x3ee527ae	0.44756836
225	0x3d56b189	0.052415404
226	0x3e4a8aca	0.19779506
227	0xbdff3b04	-0.12462428
228	0x3ea4b3e7	0.32168505
229	0xbe0a545f	-0.13508748
230	0x3cf461b2	0.029831741
231	0x3df9704d	0.12179623
232	0xbea05755	-0.3131663
233	0xbede63b6	-0.43435448
234	0xbe676b89	-0.22599615
235	0x3eaba8ec	0.33527315
236	0xbe245e7f	-0.16051672
237	0x3ce51964	0.027966209
238	0xbee3d347	-0.4449713
239	0xbe67283d	-0.22573943
240	0x3e71d01a	0.2361454
241	0xbecc90be	-0.3995418
242	0x3e39526d	0.18097849
243	0xbda67094	-0.08126941
244	0xbe4831f4	-0.19550306
245	0xbe273f7a	-0.16332808
246	0xbeca94b8	-0.39566588
247	0xbd223928	-0.03960529
248	0xbd79a71e	-0.06095039
249	0x3f5ad815	0.85485965
250	0xbe4067ad	-0.18789549
251	0x3f0badd7	0.54562134
252	0x3c4d6911	0.012537257
253	0x3e31ee4f	0.17376064
254	0x3de62e86	0.112393424
255	0xbdb7384d	-0.089462854

2.bias f4 [128]
0	0xbd8e3be1	-0.06945015
1	0xbdb376b2	-0.08762874
2	0xbe5f9420	-0.21833849
3	0xbdc14682	-0.094372764
4	0xbe06472c	-0.13113087
5	0x3e39bd95	0.18138726
6	0x3c6e9c1a	0.014563585
7	0x3ce3fabd	0.027829522
8	0xbe0a539c	-0.13508457
9	0xbdd43b8f	-0.103629224
10	0xbd8b3990	-0.067980886
11	0xbdd311bb	-0.10306116
12	0xbe042fa2	-0.12908795
13	0x3e6054d2	0.21907356
14	0x3dacbee8	0.0843485
15	0xbe1f3b22	-0.15549901
16	0xbd8892ea	-0.06668647
17	0xbe21a3b4	-0.15785104
18	0x3d94725c	0.07248375
19	0xbde64814	-0.112442166
20	0x3e1ce7ea	0.15322843
21	0xbe29870f	-0.16555427
22	0xbc8025dd	-0.015643055
23	0xbd0d5646	-0.034506105
24	0x3df48068	0.11938554
25	0x3e03840c	0.1284334
26	0xbe558f33	-0.20855407
27	0xbe9193e1	-0.28433135
28	0xbca8345e	-0.020532783
29	0xbdabe2f3	-0.083928965
30	0x3e37c2ea	0.17945448
31	0x3e2a650f	0.16640113
32	0x3d5c9f4b	0.05386285
33	0xbd451bfb	-0.048122387
34	0xbd564a20	-0.052316785
35	0x3d5016c3	0.050802957
36	0xbe80f17c	-0.25184238
37	0xbd4f6e14	-0.050642088
38	0x3e892161	0.2678328
39	0x3dc4e68e	0.09614287
40	0x3df91445	0.12162069
41	0xbde24eb7	-0.1105017
42	0x3db80bf6	0.08986656
43	0x3e23d4e3	0.15999179
44	0x3baacc51	0.0052123447
45	0xbd54dddb	-0.05196939
46	0xbdb8463f	-0.089977734
47	0xbd3b69e8	-0.045755297
48	0xbe2d8ff6	-0.16949448
49	0xbd03bf11	-0.032164637
50	0x3cba28d1	0.02272454
51	0x3d9bbaf2	0.07604016
52	0xbc38cc81	-0.011279226
53	0xbcb9d7b9	-0.022685872
54	0x3e3e2dcf	0.18572162
55	0x3d946534	0.072458655
56	0xbe177027	-0.14788876
57	0xbd606a03	-0.0547886
58	0x3d98740c	0.07444009
59	0x3cdcb029	0.026939468
60	0xbe3244e0	-0.17409086
61	0x3e06e741	0.13174154
62	0x3e5113ff	0.20417784
63	0xbdea8464	-0.11451033
64	0x3b8755d0	0.0041301027
65	0x3d7b75c7	0.061391618
66	0x3d503717	0.050833788
67	0xbdda182e	-0.10649143
68	0xbc46448d	-0.012101305
69	0xbe5b74cd	-0.21431275
70	0xbd51a1f8	-0.051179856
71	0xbd1e0bec	-0.03858559
72	0x3e3345ed	0.17507143
73	0xbb8e19f3	-0.0043365895
74	0x3b5c75a7	0.0033639462
75	0x3e848731	0.25884393
76	0xbc84fc03	-0.01623345
77	0xbdd6b786	-0.10484223
78	0xbe634454	-0.22194034
79	0xbd15341c	-0.03642665
80	0xbd067fb9	-0.03283665
81	0x3dfb5d7e	0.122736916
82	0x3dbe1af5	0.092824854
83	0xbd5ddb8d	-0.054164458
84	0xbd6beeb4	-0.057600692
85	0x3dbe9d60	0.09307361
86	0xbd8c7ab4	-0.06859341
87	0xbd6b64a8	-0.05746904
88	0xbd5e5206	-0.054277442
89	0xbd8648e2	-0.0655687
90	0x3e25d882	0.16195872
91	0xbc9a4bec	-0.01883503
92	0x3dc17de9	0.094478436
93	0xbe28a538	-0.16469276
94	0x3db5f0db	0.0888383
95	0xbd8bf387	-0.068335585
96	0xbd850f6d	-0.06497083
97	0xbdaa7ded	-0.083248
98	0x3c91a2e2	0.017777864
99	0xbe461f0a	-0.19347778
100	0xbd678b58	-0.056529373
101	0xbe3bf4aa	-0.1835505
102	0xbdbace18	-0.091213405
103	0x3c318acc	0.010836314
104	0x3e0d2237	0.13782583
105	0xbda6ffc7	-0.081542544
106	0x3e1b9953	0.15195207
107	0xbcc28a87	-0.023747696
108	0x3dbff737	0.09373324
109	0xbe2325f2	-0.15932444
110	0x3ca8a915	0.020588437
111	0x3d9eda85	0.07756523
112	0x3ca9ef9c	0.020744137
113	0x3c1c624a	0.009544918
114	0x3ea8faac	0.33003747
115	0xbd8b75a8	-0.068095505
116	0xbd64c96e	-0.05585616
117	0x3d9a1666	0.075238034
118	0x3e4b41aa	0.19849268
119	0x3e65f67c	0.22457308
120	0x3de10dd8	0.109889686
121	0xbe5f4c90	-0.2180655
122	0x3cb13f8c	0.021636747
123	0xbccbfc22	-0.0249005
124	0x3e167b23	0.1469541
125	0x3e1f0ded	0.15532656
126	0x3e08b3b7	0.13349806
127	0xbde679b9	-0.112536855
