dir_save/reference_training_result/we0_critic_800.pth (torch, 133833 bytes, 4 tensors)

0.weight f4 [128, 128]
0.19900082 0.0707578 0.13518937 0.6599358 0.35301602 0.30949265 -0.18058972 0.084737316
0.122844614 0.8496992 0.83120525 0.0008232866 0.12866463 0.024239466 -0.3493501 -0.69788593
0.067414254 0.056111064 -0.16368587 -0.14415191 0.37246937 -0.07810544 0.03007059 0.76927674
0.091520526 0.18946007 -0.83588594 -0.7082784 -0.9418018 -0.11620218 0.12264486 -0.13571547
0.19973175 0.2836942 -0.11861564 -0.009509864 -0.40788552 -0.5949171 -0.043609813 0.13295746
0.0071263746 0.35916296 -0.13460563 -0.35511544 -0.0818205 -0.26233628 0.8935994 0.018691355
-0.05266321 0.095725976 -0.09399284 -0.040822327 -0.20958568 0.37341294 0.043869827 -0.43194363
0.6095855 0.09598912 0.038792018 -0.095012926 -0.531664 0.76719296 0.9356518 -0.37069863
0.25341746 -0.2158388 -0.17395385 -0.15041044 0.77673405 -0.44323418 -1.2915018 1.4325514
0.0014412474 -0.6046383 0.26924413 -0.098231345 0.49407715 -1.2340015 -0.2982023 -0.82148427
0.037266333 0.12244495 -0.5268955 -0.2647661 0.48952955 -0.32757944 -0.23499769 0.085211195
0.25575456 0.37184215 -0.7621261 -0.00017807963 0.2160899 -0.091345735 -1.3232669 -0.7581247
-0.12049661 0.54028004 -0.14106901 0.36220866 0.18600263 0.7138375 -0.4065624 -0.24724495
-0.2087209 0.29288647 0.33543497 -0.71267146 -0.5314187 -0.22736044 0.06245261 -0.03376672
0.71233976 -0.019419044 -0.0038679745 0.37776002 0.28738347 0.08772261 -0.3038909 0.3932726
-0.16820261 -0.4218687 0.83899313 -0.6307458 -0.6268116 0.0021788245 -0.9367071 -0.037841003
-0.6231949 -0.10539808 -0.81297964 0.5041184 0.5172673 0.08657031 -0.2703668 -0.025496772
0.19097735 -0.12581292 0.3475708 -0.16785169 0.29311702 -0.24269801 -0.020577818 0.54688877
0.2559615 -0.09122472 0.802267 1.5387068 -0.06330833 0.67715466 -0.2038346 -0.21135925
0.43644625 -0.5395639 0.573327 -0.06452761 -0.30574384 -0.36541164 -0.24195822 -0.15758435
0.7381961 -0.106430925 -0.44463646 0.2371312 0.1683162 0.11958757 0.32404074 0.18093613
0.47468495 -0.22227867 0.1712385 0.05754242 -0.22836222 -0.28187633 0.28659463 0.3057231
0.26423225 -0.4601322 -0.01783172 0.0492335 -0.59037054 0.30582848 0.18559076 -0.035017613
0.06699349 -0.70727485 -0.44395664 -0.33389103 0.21759069 -0.0762517 -0.19975659 0.8478659
-0.3215702 -0.055383146 0.34604633 -0.024267914 0.9272763 0.269559 -0.31281513 0.44384164
0.79684705 0.25482422 0.86606514 0.1944628 -1.0981667 0.3050917 -0.08343187 -0.33934078
0.0356093 -0.3744695 -0.20379491 0.17820162 -0.017237727 0.1776606 0.5831486 -0.26270428
0.07022134 0.34770605 -0.053407647 -0.38543272 0.78725773 -0.56065553 0.18572946 -0.29701507
-0.3658663 -0.10585398 0.16820613 -0.6925775 0.5913964 -0.7014278 0.1841312 0.10240206
0.48098972 0.15888375 0.33610556 -0.4359028 -0.27082688 0.4094213 -0.14583386 0.0067755827
0.06168699 0.014037682 -0.28256652 -0.037358005 -0.13228619 1.3194934 0.07354753 0.013765497
0.025182372 -0.30619597 -0.2421709 -0.08815527 0.15179944 0.045451917 0.03779987 -0.687563
00000000: dfc6 4b3e 77e9 903d 156f 0a3e 8df1 283f
00000010: 84be b43e d275 9e3e 83ec 38be c28a ad3d
00000020: f595 fb3d e385 593f dec9 543f d4d1 573a
00000030: a9c0 033e d891 c63c 04de b2be a7a8 32bf
00000040: 7c10 8a3d b7d4 653d 459d 27be 8f9c 13be
00000050: 4eb4 be3e bff5 9fbd 9956 f63c 52ef 443f
00000060: 1d6f bb3d d201 423e 9ffc 55bf bc51 35bf
00000070: ec19 71bf 69fb edbd 3a2d fb3d fff8 0abe
00000080: 7b86 4c3e 5e40 913e c2ec f2bd 43cf 1bbc
00000090: 5fd6 d0be 7d4c 18bf 34a0 32bd 0026 083e
000000a0: 5d84 e93b 35e4 b73e 0fd6 09be b1d1 b5be
000000b0: 8291 a7bd f150 86be eec2 643f 9d1e 993c
000000c0: 61b5 57bd fb0b c43d 517f c0bd 5035 27bd
000000d0: a19d 56be fb2f bf3e d9b0 333d b727 ddbe
000000e0: cc0d 1c3f f295 c43d 61e4 1e3d 2396 c2bd
000000f0: 221b 08bf c266 443f e086 6f3f 36cc bdbe
00000100: efbf 813e d904 5dbe f520 32be 3205 1abe
00000110: 0bd8 463f 97ef e2be ee4f a5bf d85d b73f
00000120: 3de8 bc3a 93c9 1abf 5eda 893e 842d c9bd
00000130: aef7 fc3e c3f3 9dbf f9ad 98be cb4c 52bf
00000140: 95a4 183d 6bc4 fa3d a0e2 06bf 6c8f 87be
00000150: 9ea3 fa3e 7eb8 a7be 3ca3 70be 3583 ae3d
00000160: 43f2 823e 1862 be3e b21a 43bf e3ba 3ab9
00000170: ac46 5d3e 7913 bbbd cf60 a9bf 7614 42bf
00000180: edc6 f6bd cb4f 0a3f 6574 10be 6a73 b93e
00000190: 7977 3e3e 0ebe 363f f228 d0be c82d 7dbe
000001a0: eeba 55be 37f5 953e 22be ab3e a371 36bf
000001b0: 0e0b 08bf 2dd1 68be 4fce 7f3d f94e 0abd
000001c0: e65b 363f b014 9fbc d87d 7dbb c369 c13e
000001d0: ed23 933e e9a7 b33d 9797 9bbe 075b c93e
000001e0: 4e3d 2cbe 2dff d7be 41c8 563f 8f78 21bf
000001f0: ba76 20bf 9cca 0e3b 09cc 6fbf 2bff 1abd
00000200: b389 1fbf f3da d7bd 6f1f 50bf e70d 013f
00000210: a16b 043f c64b b13d 846d 8abe 9bde d0bc
00000220: 918f 433e 1ad5 00be cdf4 b13e 50e1 2bbe
00000230: 6f13 963e d485 78be d092 a8bc e700 0c3f
00000240: 630d 833e 07d4 babd 5f61 4d3f 58f4 c43f
00000250: cca7 81bd 025a 2d3f 04ba 50be 8f6e 58be
00000260: e275 df3e dc20 0abf 8fc5 123f 0d27 84bd
00000270: 758a 9cbe 3c17 bbbe e5c3 77be cb5d 21be
00000280: 6bfa 3c3f 75f8 d9bd 64a7 e3be 85d2 723e
00000290: 155b 2c3e 54ea f43d abe8 a53e 5247 393e
000002a0: e809 f33e 059d 63be 2559 2f3e 9ab1 6b3d
000002b0: c9d7 69be 1852 90be 88bc 923e bd87 9c3e
000002c0: 7349 873e 7396 ebbe d413 92bc 11a9 493d
000002d0: 8622 17bf 8d95 9c3e 810b 3e3e a16e 0fbd
000002e0: e233 893d f70f 35bf 494e e3be c4f3 aabe
000002f0: 18d0 5e3e da29 9cbd fe8c 4cbe bd0d 593f
00000300: d9a4 a4be 70d9 62bd fc2c b13e 81cd c6bc
00000310: fb61 6d3f a303 8a3e 4e29 a0be 363f e33e
00000320: 2bfe 4b3f 5278 823e 72b6 5d3f 4221 473e
00000330: ba90 8cbf fb34 9c3e 54de aabd 13be adbe
00000340: 0fdb 113d 77ba bfbe 9daf 50be 7c7a 363e
00000350: 2236 8dbc a9ec 353e 3a49 153f 2d81 86be
00000360: 35d0 8f3d 8706 b23e fac1 5abd 7057 c5be
00000370: b989 493f 1f87 0fbf dd2f 3e3e 5c12 98be
00000380: d452 bbbe f9c9 d8bd 3a3e 2c3e c24c 31bf
00000390: c165 173f c690 33bf e48c 3c3e 2cb8 d13d
000003a0: 4944 f63e 6cb2 223e 0716 ac3e a72e dfbe
000003b0: d2a9 8abe ab9f d13e 7955 15be b505 de3b
000003c0: 7fab 7c3d 4efe 653c 8fac 90be b504 19bd
000003d0: 0876 07be 29e5 a83f 16a0 963d ae88 613c
000003e0: 434b ce3c b8c5 9cbe a6fb 77be c08a b4bd
000003f0: 5071 1b3e ca2b 3a3d 09d4 1a3d 2104 30bf

0.bias f4 [128]
0.07405645 -0.17101276 0.08624197 0.16449252 -0.14690268 -0.00585795 0.49197897 0.15297572
0.110839315 0.4140686 -0.15369831 0.26532635 0.26203853 0.014896488 -0.05333761 -0.111170106
0.2394366 -0.29018995 0.21033199 0.02498305 -0.33162168 -0.08184481 -0.2357817 -0.3125715
-0.18883589 0.13840327 0.0800378 -0.3031834 0.39254677 -0.3271649 0.091567576 0.07027105
0.057921533 -0.19871962 -0.032234166 0.012872452 0.2840779 -0.037759494 -0.1165873 -0.0012210355
0.1216188 -0.18757042 -0.14528252 -0.018055262 0.34493062 -0.18647486 -0.010469041 -0.07438065
0.043023087 -0.040673077 -0.096197516 0.14663352 0.056259893 -0.04697941 -0.10168241 -0.34050786
0.25016555 -0.17009744 -0.24125609 0.17413378 -0.13987488 -0.2327904 -0.0322742 0.13172522
0.057088383 0.17502101 0.06477568 0.19308954 0.10661241 0.07492769 0.06054953 -0.06324367
-0.17419069 -0.03931905 0.04271787 0.08163452 0.13101448 0.2566676 -0.07283838 -0.07779646
0.27152476 -0.25760525 -0.12862258 0.0853165 -0.29161412 -0.1548808 0.23831499 -0.10156649
-0.23138845 -0.34475654 0.24341583 0.30765638 -0.35310182 -0.28788745 0.15096657 -0.10225496
-0.23857673 0.10451125 -0.09842838 0.32467103 -0.084043235 -0.11253196 0.20380703 0.14624162
-0.13988826 -0.26239577 0.23585291 0.04565419 -0.10446851 0.019507827 0.23401381 -0.017034773
-0.022821845 0.36053437 -0.2394512 -0.07302256 -0.025845278 -0.10957451 -0.050858293 0.19811437
0.20064159 -0.092529744 0.1372743 0.015281639 -0.00599642 -0.26645303 0.018769683 0.14817266
00000000: e8aa 973d f81d 2fbe a19f b03d ba70 283e
00000010: a86d 16be 0cf4 bfbb abe4 fb3e aba5 1c3e
00000020: b9ff e23d cd00 d43e 1763 1dbe dbd8 873e
00000030: ea29 863e 6610 743c 8a78 5abd 27ad e3bd
00000040: de2e 753e c793 94be 4561 573e 41a9 cc3c
00000050: 51ca a9be 409e a7bd c270 71be 5f09 a0be
00000060: 325e 41be 96b9 0d3e dcea a33d db3a 9bbe
00000070: e4fb c83e 2882 a7be c887 bb3d 45ea 8f3d
00000080: 213f 6d3d 287d 4bbe f907 04bd fae6 523c
00000090: a972 913e b3a9 1abd 53c5 eebd 270b a0ba
000000a0: 4713 f93d 7612 40be f1c4 14be a1e8 93bc
000000b0: bf9a b03e 44f3 3ebe 5786 2bbc e254 98bd
000000c0: fa38 303d d098 26bd 3403 c5bd 1927 163e
000000d0: c670 663d 7b6d 40bd de3e d0bd 0c57 aebe
000000e0: b315 803e 062e 2ebe d60b 77be 2050 323e
000000f0: 5c3b 0fbe 9b60 6ebe f431 04bd fae2 063e
00000100: 82d5 693d b538 333e 1da9 843d 44b9 453e
00000110: 9b57 da3d b073 993d c902 783d e685 81bd
00000120: 0b5f 32be 030d 21bd eff8 2e3d 0030 a73d
00000130: a928 063e f069 833e 4a2c 95bd c053 9fbd
00000140: 4b05 8b3e d6e4 83be a3b5 03be 6bba ae3d
00000150: 724e 95be 1399 1ebe d808 743e 1802 d0bd
00000160: 18f1 6cbe ee83 b0be 0042 793e 2385 9d3e
00000170: c3c9 b4be fc65 93be fb96 1a3e 0c6b d1bd
00000180: 754d 74be ff09 d63d d294 c9bd 483b a63e
00000190: dc1e acbd 2877 e6bd cab2 503e 5dc0 153e
000001a0: de3e 0fbe bd58 86be 6d83 713e e3ff 3a3d
000001b0: 96f3 d5bd e1ce 9f3c 51a1 6f3e 828c 8bbc
000001c0: e1f4 babc f697 b83e b232 75be da8c 95bd
000001d0: 7ab9 d3bc 9a68 e0bd c950 50bd 7ede 4a3e
000001e0: fd74 4d3e 3c80 bdbd a291 0c3e d75f 7a3c
000001f0: 9e7d c4bb 886c 88be e1c2 993c 93ba 173e

2.weight f4 [128, 128]
-0.54179984 0.06537659 -0.13745002 -0.39042515 0.69365114 0.08512145 -0.2329533 -0.006807002
0.6931572 -0.23152193 -0.4218102 -0.14949088 0.38423917 -0.9417497 -0.6321952 0.08858239
-0.40933022 0.49074543 0.24601594 0.92251545 0.13287467 1.1211283 0.26043007 0.018578084
-0.6293392 0.24910434 -1.0876236 0.5820206 -0.46168104 -0.66560966 -0.34491765 -0.77240247
-1.1400715 0.39121103 -0.4694455 -0.032817416 -0.2230968 -0.9008087 0.3051464 0.00631105
-0.73608387 -0.5615544 0.63096577 -0.32312545 -0.44128016 0.61947745 -0.70403713 -0.14865206
-0.38853705 0.88082737 -0.23254567 -0.30369934 -0.0989217 -0.28099346 0.35250714 1.0154107
0.11787439 -0.45352235 0.37237522 -0.019318908 -0.27682585 0.4901249 0.14303772 0.8198986
-0.120334215 -0.35126892 -0.23032108 0.6003876 0.25769332 -0.8667716 -0.063481435 0.20400262
-1.2684139 0.6095848 -0.74497896 -0.7768472 -1.2081982 -0.59814733 0.25344875 -0.89183915
-0.38390836 0.0730853 -0.40219072 0.09647389 0.24104105 0.40940493 -0.2071123 -0.6652634
0.6090613 0.37953246 -0.21676198 -0.3764871 0.33315444 0.5394337 0.3029989 0.34411034
-0.2855895 1.1525136 0.46658948 -0.28614894 -0.5371747 0.8087425 -0.4953208 -0.14192708
-0.08273045 -0.17261238 -0.15074654 -0.6282025 -0.39375916 0.35796508 0.47727254 -0.03166031
-1.1951929 -0.43307003 -0.10653556 1.090289 0.387154 -0.058917884 0.13740309 0.38820255
-0.27594614 -0.5761124 0.60858893 -0.7315909 0.22745055 -0.03527676 -0.19693188 -0.0145718595
0.75366604 0.22886132 -0.35930076 1.2297014 -0.22957219 -0.5865517 0.83577824 0.81388366
-0.04904334 -0.022145126 0.5428772 -0.23765975 -0.95722723 0.38356256 1.16727 0.23098291
0.7641772 -0.61644953 -0.49074045 -0.77476215 0.36300695 -1.0869682 -0.027579933 -0.46729615
0.78080285 -0.36000952 0.24247558 0.7073993 -0.17381448 0.16504367 0.16668914 -0.6535592
0.4223225 0.18384433 0.42231512 0.5349899 -0.1886525 0.38061002 -0.090048626 0.5305399
0.32322413 0.5389683 -0.057023227 0.80071807 -0.5940934 0.76137775 0.34928194 0.4895578
0.2387807 -0.13667235 0.64093167 0.07139854 -0.075096935 -0.59169203 0.5376318 0.0937132
-0.65852064 0.36750224 -0.14178313 0.588694 0.26440334 0.5247261 -0.3679821 -0.57958305
0.7995146 0.6015106 -0.9932455 0.65597934 -0.8172429 1.1541879 0.32963857 1.1096392
-0.47663838 -0.4069106 0.89465743 0.1982965 0.6677201 0.13902391 -0.9766034 0.43608195
0.5007871 -0.083317496 0.16114058 -0.8220419 -0.40600505 -0.58584833 -0.5548482 1.1900125
0.0010749709 -0.5669712 -0.502786 -0.069992416 0.21735865 0.0159899 0.64837027 -0.1956988
0.60567087 -0.21301621 -0.39286387 0.17092046 0.7153121 0.10046271 0.04801741 -0.048108365
0.011516209 -0.43692505 -0.6027065 0.37307546 -0.39745125 0.47038257 -1.1918709 -0.3013234
0.7202629 -0.39921138 0.3951514 -0.29258338 -0.28179085 -0.26041433 -0.60425276 -0.30177802
0.520607 -0.023418147 -0.9368942 0.7862053 0.75155896 0.8484706 0.40892565 -0.24524315
00000000: 65b3 0abf 29e4 853d b3bf 0cbe cee5 c7be
00000010: 1f93 313f 2854 ae3d 4f8b 6ebe 450d dfbb
00000020: c072 313f 1614 6dbe 82f7 d7be 2314 19be
00000030: ffba c43e 8216 71bf 8bd7 21bf af6a b53d
00000040: bb93 d1be fc42 fb3e 9aeb 7b3e f929 6c3f
00000050: 4c10 083e 2281 8f3f 1757 853e 1131 983c
00000060: 601c 21bf 3515 7f3e 4037 8bbf 4dff 143f
00000070: 7561 ecbe 6565 2abf 0c99 b0be 2bbc 45bf
00000080: dded 91bf d04c c83e 295b f0be 8e6b 06bd
00000090: 7d73 64be 669b 66bf 263c 9c3e edcc ce3b
000000a0: fe6f 3cbf 07c2 0fbf f986 213f b370 a5be
000000b0: 79ef e1be 1396 1e3f c73b 34bf 3f38 18be
000000c0: 54ee c6be e77d 613f 7420 6ebe 7b7e 9bbe
000000d0: 7697 cabd 60de 8fbe d17b b43e faf8 813f
000000e0: 2168 f13d 1534 e8be f7a7 be3e b042 9ebc
000000f0: 1ebc 8dbe a7f1 fa3e 7b78 123e e0e4 513f
00000100: c971 f6bd 85d9 b3be 4ad9 6bbe 00b3 193f
00000110: 61f0 833e bee4 5dbf 8e02 82bd 10e6 503e
00000120: 635b a2bf c00d 1c3f f1b6 3ebf 75df 46bf
00000130: 3da6 9abf 2f20 19bf 09c4 813e 924f 64bf
00000140: a38f c4be bfad 953d f1eb cdbe 1a94 c53d
00000150: 77d3 763e 869d d13e 3f15 54be b44e 2abf
00000160: 71eb 1b3f 1452 c23e daf6 5dbe ebc2 c0be
00000170: 3893 aa3e 5418 0a3f ac22 9b3e 3b2f b03e
00000180: c938 92be 9185 933f d1e4 ee3e 1d82 92be
00000190: 4884 09bf c009 4f3f b09a fdbe 5555 11be
000001a0: 956e a9bd 4dc1 30be 4d5d 1abe e1d1 20bf
000001b0: cd9a c9be 3347 b73e 115d f43e 3eae 01bd
000001c0: 15fc 98bf 5bbb ddbe 512f dabd 978e 8b3f
000001d0: 0d39 c63e e153 71bd 65b3 0c3e 7cc2 c63e
000001e0: d048 8dbe 1a7c 13bf 7ccc 1b3f 8b49 3bbf
000001f0: cce8 683e 5d7e 10bd 83a8 49be cfbe 6ebc
00000200: 42f0 403f 9f5a 6a3e 45f6 b7be db66 9d3f
00000210: f914 6bbe 4128 16bf 90f5 553f ae5a 503f
00000220: abe1 48bd b269 b5bc 00fa 0a3f 145d 73be
00000230: d80c 75bf 5062 c43e 1a69 953f c986 6c3e
00000240: 1ea1 433f a3cf 1dbf 5542 fbbe d056 46bf
00000250: 0cdc b93e c621 8bbf 50ef e1bc 7141 efbe
00000260: b2e2 473f 2b53 b8be 854b 783e 1f18 353f
00000270: 6cfc 31be 3501 293e 8fb0 2a3e a84f 27bf
00000280: a83a d83e b041 3c3e b039 d83e 19f5 083f
00000290: 1f2e 41be 51df c23e 6a6b b8bd 76d1 073f
000002a0: a27d a53e d4f9 093f 3091 69bd dcfb 4c3f
000002b0: 8116 18bf a7e9 423f 15d5 b23e 52a7 fa3e
000002c0: ee82 743e d6f3 0bbe 1914 243f 6639 923d
000002d0: 6ccc 99bd 2179 17bf 3da2 093f b5ec bf3d
000002e0: cf94 28bf 4129 bc3e 992f 11be a6b4 163f
000002f0: e05f 873e 7354 063f 2668 bcbe 8e5f 14bf
00000300: fdac 4c3f 99fc 193f 5645 7ebf 43ee 273f
00000310: d536 51bf 6ebc 933f 63c6 a83e a808 8e3f
00000320: f209 f4be 9656 d0be 4508 653f 3d0e 4b3e
00000330: b4ef 2a3f 495c 0e3e ae02 7abf 2246 df3e
00000340: 9533 003f 5da2 aabd 0902 253e 5771 52bf
00000350: e5df cfbe 28fa 15bf 880a 0ebf 5452 983f
00000360: 0ae6 8c3a 0625 11bf 95b6 00bf 2f58 8fbd
00000370: 4493 5e3e 40fd 823c 98fb 253f 4465 48be
00000380: 3f0d 1b3f ec20 5abe 7425 c9be c605 2f3e
00000390: b21e 373f 65bf cd3d e7ad 443d 470d 45bd
000003a0: 7bae 3c3c a4b4 dfbe f94a 1abf bf03 bf3e
000003b0: bb7e cbbe fcd5 f03e 3a8f 98bf 1047 9abe
000003c0: 2663 383f 6f65 ccbe 4951 ca3e 7dcd 95be
000003d0: e446 90be 0755 85be 4fb0 1abf a682 9abe
000003e0: 8046 053f 6ad7 bfbc 4cd8 6fbf c044 493f
000003f0: 2b66 403f 5f35 593f b45e d13e 0521 7bbe

2.bias f4 [128]
-0.29031903 -0.22879584 -0.3881979 -0.43188688 -0.028753897 0.26628438 0.24371463 0.15234748
-0.20154507 0.0037443582 -0.3028414 -0.30994654 -0.04915914 0.057307057 0.2716128 -0.07747146
-0.1588765 -0.22278821 0.12915832 -0.18010628 0.38198322 0.0005030643 -0.13301274 0.21630351
0.13507445 0.30605364 -0.29946983 -0.27593932 -0.18071733 -0.16860591 -0.09113292 0.14110115
0.11413844 -0.23097083 -0.04834985 0.41308525 -0.39067343 -0.025050765 0.2866074 0.07419019
0.27172083 -0.11907274 0.23411883 0.5089515 -0.06284674 -0.10371412 -0.08922953 -0.3214669
-0.28237417 -0.04832468 -0.082539156 0.009076298 0.16003045 -0.1492687 0.06012546 0.0065112747
-0.31258568 -0.1922246 0.10874278 0.12868659 -0.40084124 0.10388955 0.2603745 0.050540306
-0.05903818 0.20045595 -0.047073644 -0.059923172 -0.17671834 -0.372681 0.19956484 -0.18777998
0.2057023 0.094222076 0.28255975 0.21508397 -0.1807696 -0.27801988 -0.0531907 -0.15389252
-0.28732663 0.13227132 0.23200192 -0.11901869 0.15051268 0.23835891 0.034542657 -0.27723625
-0.17842615 0.039987277 0.22848527 -0.17834233 0.345968 -0.0007716393 0.31966934 -0.08904817
0.027049674 -0.20025843 0.08007048 -0.45745578 -0.15944387 -0.36952028 -0.10234356 0.03437573
0.2178858 -0.008282724 0.3069907 0.105459966 0.1313533 -0.40896782 0.17022936 0.21776488
0.0027739424 0.22389719 0.5801972 -0.019257959 -0.072975375 0.051477116 0.49596348 0.09118846
0.045274653 -0.21355383 -0.057960775 -0.020530611 0.39665094 0.25389037 0.279729 -0.08948273
00000000: b2a4 94be 7549 6abe e0c1 c6be 4720 ddbe
00000010: 4b8d ebbc 6d56 883e 5490 793e fa00 1c3e
00000020: d561 4ebe e863 753b 070e 9bbe 50b1 9ebe
00000030: 185b 49bd ceba 6a3d d510 8b3e 5ba9 9ebd
00000040: 85b0 22be 9822 64be 1442 043e c86d 38be
00000050: 4e93 c33e 13e0 033a 7e34 08be ab7e 5d3e
00000060: f550 0a3e 10b3 9c3e 1c54 99be eb47 8dbe
00000070: f70d 39be 07a7 2cbe e5a3 babd d27c 103e
00000080: 6ac1 e93d 9e83 6cbe 7e0a 46bd e97f d33e
00000090: 5906 c8be 4337 cdbc 35be 923e 07f1 973d
000000a0: fe1e 8b3e 69dc f3bd d9bc 6f3e a54a 023f
000000b0: cbb5 80bd 1268 d4bd f9bd b6bd 4f97 a4be
000000c0: 5993 90be 1af0 45bd 4a0a a9bd c1b4 143c
000000d0: 06df 233e e5d9 18be 1d46 763d 885c d53b
000000e0: 3b0b a0be 87d6 44be 89b4 de3d 6bc6 033e
000000f0: 103b cdbe 0bc4 d43d ce4f 853e 5a03 4f3d
00000100: 05d2 71bd 5344 4d3e 4bd0 40bd 0072 75bd
00000110: a7f5 34be 0bd0 bebe ba5a 4c3e 6549 40be
00000120: a0a3 523e 81f7 c03d acab 903e f93e 5c3e
00000130: ab1b 39be 9f58 8ebe 7ede 59bd 0096 1dbe
00000140: 7a1c 93be 2272 073e e991 6d3e 12c0 f3bd
00000150: ff1f 1a3e 5c14 743e 9a7c 0d3d e9f1 8dbe
00000160: 58b5 36be b3c9 233d 0bf8 693e 5f9f 36be
00000170: b822 b13e d647 4aba b3ab a33e e35e b6bd
00000180: 4797 dd3c 8c10 4dbe fefb a33d a537 eabe
00000190: 4145 23be c331 bdbe 8099 d1bd 91cd 0c3d
000001a0: 751d 5f3e 43b4 07bc e32d 9d3e 65fb d73d
000001b0: 7b81 063e 3b64 d1be 9b50 2e3e c2fd 5e3e
000001c0: 08cb 353b 4e45 653e ce87 143f dec2 9dbc
000001d0: 1d74 95bd abd9 523d edee fd3e 04c1 ba3d
000001e0: ea71 393d dbad 5abe 4768 6dbd d02f a8bc
000001f0: d515 cb3e ebfd 813e a438 8f3e b942 b7bd
