dir_save/reference_training_result/we0_critic_linear_800.pth (torch, 1631 bytes, 1 tensors)

weight f4 [1, 128]
-5.1510305 9.148324 4.334105 4.0414057 4.047384 -4.658093 -5.1949654 3.3437467
3.3213065 3.7259982 5.208981 9.250231 6.014741 -4.163001 -3.7869322 2.0201032
4.4046264 5.781521 -3.5118372 5.640317 -5.238197 3.4667578 3.9518042 -4.3707833
-2.8184576 -3.8019671 4.15703 3.429813 3.424132 3.6759477 -4.805325 -5.2748203
-4.632366 4.103619 -2.724829 -5.5322227 8.021579 4.112672 -2.9627957 -6.0695667
-5.4715796 7.0871606 -4.511155 -5.159518 -4.2845845 -3.829274 3.625864 5.320571
8.830301 4.571564 5.77082 -6.534628 -4.395538 2.8000114 -5.578154 4.6547794
4.192014 3.452 2.8208158 -3.6889026 4.0038395 -3.8360527 -5.981948 3.0633357
-3.2863197 -3.7053316 3.6561627 4.7114644 5.3417835 4.9933734 -3.8204873 6.6491895
-5.437944 2.9456112 -4.792601 -4.6021633 6.584563 5.3551745 4.244936 3.5536704
6.294205 -4.5268397 -8.565495 -3.2596025 -3.690136 -5.9233384 2.7857304 4.710404
3.607337 4.5263805 -5.2291274 4.267064 -4.6978493 5.301549 -5.6205726 -5.2847614
-3.5359163 5.1291475 4.0135446 5.3515096 4.173832 4.155133 4.832794 -4.3084817
-3.7917564 -4.3621025 -5.461016 2.9537914 -5.438633 6.217924 -3.522937 -5.770069
4.622768 -3.6325176 -5.511934 3.6074865 -4.6658387 -3.739672 -8.658564 -4.523169
-3.8901227 6.156171 -3.1340616 6.1432576 -11.413434 -6.455835 -5.431496 6.654475
00000000: 3ed5 a4c0 895f 1241 fdb0 8a40 3253 8140
00000010: 2b84 8140 190f 95c0 283d a6c0 f2ff 5540
00000020: 4990 5440 c176 6e40 f9af a640 f200 1441
00000030: c278 c040 4e37 85c0 195d 72c0 5f49 0140
00000040: b3f2 8c40 3802 b940 f1c1 60c0 7a7d b440
00000050: 4f9f a7c0 5cdf 5d40 5cea 7c40 75dd 8bc0
00000060: 9c61 34c0 6e53 73c0 6406 8540 0e82 5b40
00000070: fb24 5b40 ba42 6b40 39c5 99c0 54cb a8c0
00000080: 583c 94c0 d950 8340 9963 2ec0 f807 b1c0
00000090: 6358 0041 029b 8340 729e 3dc0 e439 c2c0
000000a0: 2e17 afc0 05ca e240 625b 90c0 c51a a5c0
000000b0: 511b 89c0 d312 75c0 280e 6840 1e42 aa40
000000c0: ea48 0d41 414a 9240 8faa b840 ac1b d1c0
000000d0: 3fa8 8cc0 6333 3340 3d80 b2c0 f4f3 9440
000000e0: fb24 8640 91ed 5c40 3f88 3440 fb16 6cc0
000000f0: 741f 8040 e381 75c0 1e6c bfc0 b10d 4440
00000100: 1053 52c0 2724 6dc0 92fe 6940 51c4 9640
00000110: e4ef aa40 b7c9 9f40 dd82 74c0 29c6 d440
00000120: a303 aec0 e584 3c40 fd5c 99c0 ec44 93c0
00000130: bdb4 d240 975d ab40 84d6 8740 566f 6340
00000140: 216a c940 dfdb 90c0 440c 09c1 549d 50c0
00000150: 302b 6cc0 fd8b bdc0 6849 3240 a1bb 9640
00000160: 9cde 6640 1cd8 9040 0355 a7c0 ca8b 8840
00000170: c854 96c0 4aa6 a940 bbdb b3c0 c41c a9c0
00000180: 744c 62c0 fa21 a440 f56e 8040 913f ab40
00000190: 0890 8540 d9f6 8440 40a6 9a40 15df 89c0
000001a0: 23ac 72c0 5896 8bc0 a5c0 aec0 eb0a 3d40
000001b0: 4809 aec0 3cf9 c640 cd77 61c0 68a4 b8c0
000001c0: b7ed 9340 2b7b 68c0 c361 b0c0 0fe1 6640
000001d0: 8d4e 95c0 c956 6fc0 7a89 0ac1 cdbd 90c0
000001e0: c5f7 78c0 5aff c440 7794 48c0 9195 c440
000001f0: 6d9d 36c1 3396 cec0 d1ce adc0 76f1 d440
