dir_save/custom_training_result/we0_critic_0.pth (torch, 42305 bytes, 7 tensors)

gru_value_1.weight_ih f4 [105, 35]
0	0x3dc74190	0.09729302
1	0x3d74040c	0.059574172
2	0xbbb0f760	-0.005400583
3	0xbb205870	-0.0024466775
4	0x3ccc15f5	0.024912814
5	0x3e16bd9e	0.1472077
6	0x3dbabba9	0.091178246
7	0xbe2ffb65	-0.17185743
8	0x3cbfe584	0.023424871
9	0xbd824a2a	-0.06361802
10	0x3d80f8e3	0.062974714
11	0xbd1522e2	-0.03641022
12	0xbd83c11a	-0.064333156
13	0x3bda8540	0.0066687167
14	0xbd2494e7	-0.040181067
15	0x3c348643	0.011018339
16	0xbdc62818	-0.09675616
17	0xbd6346b8	-0.055487365
18	0x3e27c312	0.16383007
19	0x3d94c6f6	0.07264511
20	0x3d40cca2	0.047070153
21	0xbd02a3f1	-0.031894628
22	0x3e355b1c	0.17710537
23	0xbd5dc948	-0.054147035
24	0xbc8c8311	-0.017152341
25	0xbd1e20b4	-0.038605407
26	0x3c4ed510	0.01262404
27	0x3d7d388d	0.06182151
28	0xbe1657f8	-0.14681995
29	0xbdb8b3c8	-0.090186656
30	0x3d39fbbe	0.045406096
31	0xbd3464b2	-0.044041343
32	0xbe0e0a3c	-0.13871092
33	0x3b569b40	0.0032746345
34	0xbdac469d	-0.08411906
35	0x3db28f90	0.087187886
36	0xbda30670	-0.07960212
37	0x3d0f1882	0.03493548
38	0xbb867d7c	-0.0041043144
39	0xbb43b3f0	-0.002986189
40	0x3ddcfa6f	0.10789954
41	0x3cdf810c	0.027283214
42	0x3dc895d4	0.097942024
43	0xbe078e85	-0.1323796
44	0x3e1dceb4	0.15410882
45	0x3cc23e12	0.023711238
46	0xbdf0724b	-0.1174055
47	0x3ce0b6e8	0.027430966
48	0xbd885de3	-0.066585325
49	0x3d4b1296	0.04957827
50	0x3d82ef3a	0.06393285
51	0x3e00afcb	0.1256706
52	0xbe445244	-0.19172007
53	0xbe375c6a	-0.17906347
54	0x3cd21773	0.025645947
55	0xbe32d589	-0.1746427
56	0xbe03ec6d	-0.12883158
57	0xbdb90cb9	-0.0903563
58	0x3d25b024	0.040451184
59	0xbe781e0f	-0.24230216
60	0x3e1c7ddc	0.15282387
61	0x3c19412c	0.009353917
62	0x3e1b0483	0.1513844
63	0xbcc644b4	-0.024202682
64	0x3ca90db4	0.020636417
65	0xbd206bbf	-0.039165255
66	0xbe06a7f9	-0.13150014
67	0xba816038	-0.0009870594
68	0xbce56756	-0.028003376
69	0x3d377c00	0.04479599
70	0x3dacc56b	0.08436092
71	0xbe492d93	-0.19646291
72	0xbe695850	-0.22787595
73	0x3c99e9c9	0.018788235
74	0xbd7a2ffd	-0.06108092
75	0xbd992a54	-0.074787766
76	0x3cde906a	0.027168471
77	0x3e152630	0.14565349
78	0xbe1c6a7a	-0.15274993
79	0x3dea0ed2	0.11428608
80	0x3cc3b58a	0.023890276
81	0xbcc01432	-0.02344713
82	0xbd890a25	-0.06691388
83	0x3de60997	0.11232298
84	0xbd4c84fd	-0.049931515
85	0xbe39c854	-0.18142825
86	0xbddf3666	-0.108990476
87	0xbd1c80de	-0.038208835
88	0x3e233625	0.15938623
89	0xbc12a8fd	-0.008951423
90	0x3deedec1	0.11663581
91	0x3cf8181f	0.03028494
92	0x3e38e4a9	0.18055977
93	0xbcb90abd	-0.022588128
94	0xbc462d9c	-0.012095835
95	0x3ced219d	0.028946692
96	0xbdb173fa	-0.08664699
97	0x3d96e3a4	0.07367638
98	0x3d83760f	0.06419002
99	0x3d707045	0.05870082
100	0x3e0219ef	0.12705205
101	0x3d60a10c	0.054841086
102	0x3c03d766	0.00804696
103	0xbe29fd27	-0.16600476
104	0x3d0c133c	0.03419803
105	0xbc720bc7	-0.014773316
106	0x3dddb1ee	0.10824953
107	0x3cfd77e4	0.030940957
108	0x3da05ac0	0.07829809
109	0xbd5a2017	-0.05325326
110	0x3cea6a63	0.028615182
111	0xbd47ab17	-0.04874715
112	0xbcfaa400	-0.03059578
113	0xbd8b1d7e	-0.067927346
114	0xbdc974f2	-0.09836759
115	0xbb818250	-0.003952302
116	0xbdfad5ba	-0.12247796
117	0xbe6c7f9a	-0.23095551
118	0xbde9a575	-0.114085115
119	0xbb6bcc56	-0.0035979948
120	0xbd92aa6c	-0.07161412
121	0xbe80ba97	-0.25142357
122	0xbc5511e0	-0.01300475
123	0x3e0cfa51	0.13767363
124	0xbded4824	-0.11586025
125	0xbe1bb613	-0.15206175
126	0x3e7078e2	0.23483613
127	0xbd1b3647	-0.03789356
128	0x3e06095e	0.13089511
129	0x3ca33500	0.019922733
130	0xbd6d3efe	-0.057921402
131	0x3bcaa4b7	0.0061841863
132	0x3c97afd7	0.018516464
133	0xbe5ce8f1	-0.21573235
134	0xbe09bd00	-0.13451004
135	0xbe45ab8e	-0.19303724
136	0x3b60500c	0.00342274
137	0x3ce59875	0.028026799
138	0xbd4c3cc8	-0.049862653
139	0xbd9946a0	-0.07484174
140	0xbca39fa7	-0.01997359
141	0x3e227619	0.15865363
142	0xbd77d836	-0.06050893
143	0x3cae98c5	0.02131308
144	0xbcd2f080	-0.025749445
145	0x3d6c85de	0.057744853
146	0xbe0e7e4e	-0.13915369
147	0xbd469db6	-0.04849025
148	0x3c928788	0.017886892
149	0x3d1dc5fe	0.0385189
150	0xbc78cff0	-0.015186295
151	0xbde12ea5	-0.10995225
152	0x3e002769	0.12515034
153	0xbd4c403c	-0.049865946
154	0x3d997e76	0.07494824
155	0x3d1daf42	0.038497217
156	0xbdeb1b95	-0.1147987
157	0x3e5dfba8	0.2167803
158	0x3d61152e	0.05495184
159	0xbac16b2c	-0.0014756671
160	0x3e03771d	0.12838407
161	0x3d8df633	0.069317244
162	0xbdc65328	-0.096838295
163	0xbddc208f	-0.107483976
164	0x3dc59096	0.09646718
165	0xbc5987aa	-0.013276974
166	0xbddd5128	-0.10806495
167	0x3e359419	0.17732276
168	0xbd43dbdc	-0.047817096
169	0x3cc91d7a	0.024550188
170	0x3e2c06fb	0.16799538
171	0xbc3d4f2a	-0.011554519
172	0x3dc6aac4	0.0970054
173	0xbd0e0301	-0.034670833
174	0xbe5d97c8	-0.21639931
175	0x3e3bd650	0.18343472
176	0xbdaca23d	-0.08429382
177	0x3e2fe286	0.17176256
178	0xbcd06295	-0.025437633
179	0x3dab286c	0.08357319
180	0xbdc97840	-0.09837389
181	0x3d257632	0.040395923
182	0x3d2af6ac	0.04173915
183	0xbe12710f	-0.14300941
184	0xb9be64e0	-0.00036314782
185	0xbde11347	-0.10990005
186	0xbdb4f3f4	-0.08835593
187	0xbe019ca8	-0.12657416
188	0x3c1e1346	0.00964815
189	0xbc1ef325	-0.009701525
190	0x3d87fb82	0.06639768
191	0x3d5a5cda	0.053311206
192	0xbde7d4fe	-0.11319922
193	0x3d124052	0.035705872
194	0xbdb0f2a6	-0.086400315
195	0x3b971414	0.004610548
196	0x3d58d1ef	0.052934583
197	0xbe4ca826	-0.19986019
198	0xbd9ddfe0	-0.077087164
199	0x3da5a384	0.08087829
200	0xbe25ac7d	-0.1617908
201	0xbdacc6b8	-0.0843634
202	0xbdb38697	-0.08765905
203	0xbc3fbb74	-0.011702407
204	0x3d8a36f4	0.06748763
205	0x3c97f55a	0.01854961
206	0xbe1ee324	-0.15516335
207	0xbe834f22	-0.2564631
208	0x3c7ba8b3	0.015360045
209	0x3d7c1880	0.061546803
210	0x3dc6a934	0.09700242
211	0xbd532cf6	-0.05155655
212	0xba85a4e0	-0.0010196231
213	0x3bd446ea	0.00647818
214	0xbe9897ca	-0.29803306
215	0x3d89438b	0.06702336
216	0x3dac4b50	0.08412802
217	0x3ce45c2a	0.027875978
218	0x3df8237f	0.12116145
219	0x3df19d83	0.11797621
220	0x3df63fce	0.120238885
221	0xbe4f4f3a	-0.20245066
222	0xbe007f00	-0.12548447
223	0xbcecda6d	-0.028912747
224	0x3c28494d	0.0102713825
225	0xbb9cd360	-0.00478594
226	0x3bc963a8	0.006145913
227	0x3e396082	0.18103221
228	0x3cf79c36	0.030225854
229	0x3e5ecd0d	0.21757908
230	0xbdfc37fa	-0.12315364
231	0xbe388fb5	-0.1802357
232	0xbd78a3b8	-0.06070301
233	0x397d7c00	0.00024174154
234	0xbc5bc7ad	-0.013414306
235	0xbc1eab7c	-0.00968444
236	0x3e0fc704	0.14040762
237	0x3da95d2e	0.08269726
238	0x3ca7e40c	0.020494483
239	0xbd225767	-0.039634135
240	0x3d877c22	0.06615473
241	0xbe27383c	-0.16330045
242	0x3c2f1e77	0.010688416
243	0x3b981d1c	0.004642142
244	0x3dbd52e6	0.09244327
245	0xbdebe7e3	-0.11518838
246	0xbe2f30ce	-0.17108461
247	0x3c933516	0.01796965
248	0x3b815320	0.003946677
249	0xbde894eb	-0.11356529
250	0xbdf122f2	-0.117742434
251	0xbd993125	-0.07480077
252	0xbc716a80	-0.014734864
253	0x3e451ac8	0.19248497
254	0xbd8c9ca6	-0.06865816
255	0xbcb09c0f	-0.02155879

gru_value_1.weight_hh f4 [105, 35]
0	0x3e06d410	0.13166833
1	0xbce3df88	-0.027816549
2	0xbc06f550	-0.008237198
3	0x3d85be5f	0.06530451
4	0xbdd2fe8c	-0.10302457
5	0x3e815d7e	0.2526664
6	0x3d82d78d	0.06388769
7	0xbc18bf00	-0.009322882
8	0x3d7cea21	0.06174672
9	0x3e095e52	0.13414887
10	0x3c101bd4	0.008795697
11	0xbc81e76a	-0.015857417
12	0x3d9bacc6	0.07601313
13	0xbe20ccda	-0.15703145
14	0x39cbe7b0	0.00038891798
15	0xbd6a2d88	-0.05717233
16	0x3da2d75e	0.07951234
17	0x3e3a311f	0.181828
18	0xbdb3f7f2	-0.08787526
19	0xbe2f197a	-0.17099562
20	0xbd79ec83	-0.06101657
21	0x3b608de6	0.0034264266
22	0x3dc93369	0.09824259
23	0x3ddabec2	0.106809154
24	0x3d01bf26	0.031676434
25	0x3dcd82a7	0.100346856
26	0x3e19a990	0.15006089
27	0x3d3a55de	0.045492046
28	0x3da1635a	0.07880278
29	0x3da46dd9	0.08028764
30	0xbd387fa4	-0.045043603
31	0xbe00462d	-0.1252677
32	0x3d81d370	0.06339157
33	0xbcfec92a	-0.031101782
34	0xbc98e201	-0.018662455
35	0xbe1679bc	-0.14694875
36	0x3c0dbb80	0.0086506605
37	0xbd9d9cb2	-0.07695903
38	0x3e5d8be2	0.21635392
39	0x3c556402	0.013024332
40	0x3a030580	0.0004998073
41	0x3e1e1da1	0.1544099
42	0xbc97d7f0	-0.018535584
43	0x3deb26e6	0.11482029
44	0xbe1b4372	-0.15162447
45	0x3d9df925	0.07713536
46	0x3dbb1b7d	0.09136102
47	0xbd1b3a3d	-0.037897337
48	0x3d386958	0.04502234
49	0xbe013244	-0.12616831
50	0xbc1ca29f	-0.009560256
51	0x3d80aada	0.06282587
52	0x3e2aecbd	0.16691871
53	0x3ce64ee4	0.02811379
54	0xbce8312e	-0.028343763
55	0xbe142d5e	-0.14470431
56	0xbd63b4ab	-0.05559222
57	0x3d5e76f1	0.05431265
58	0x3db40f6f	0.08792006
59	0xbcbdb893	-0.0231593
60	0xbe740f57	-0.23833977
61	0xbd6211fc	-0.055192932
62	0x3c1bf620	0.00951913
63	0x3e621202	0.22077182
64	0xbdd98bf2	-0.106223956
65	0xbd0b6ba9	-0.03403822
66	0xbe38cdc6	-0.18047246
67	0x3d81d8d3	0.06340184
68	0x3de6f135	0.11276475
69	0xbd203096	-0.039108835
70	0x3dec4bea	0.11537917
71	0x3e4abdd1	0.19798972
72	0xbd62efa0	-0.055404305
73	0x3d9686b4	0.07349911
74	0x3e15ee50	0.1464169
75	0x3c662944	0.014047924
76	0x3d9db266	0.077000424
77	0x3d93a717	0.07209604
78	0xba622260	-0.0008626338
79	0x3e060689	0.1308843
80	0xbc3cf0d0	-0.011532024
81	0xbd90fd2e	-0.0707954
82	0x3ca245de	0.019808706
83	0x3e243508	0.16035855
84	0xbcaf70ed	-0.021416152
85	0xbbc73b88	-0.0060800947
86	0x3d2f5f98	0.042815775
87	0xbe05bf9b	-0.13061373
88	0x3d195b5e	0.03744065
89	0xbc1ec98e	-0.009691609
90	0x3d80eeb0	0.06295526
91	0xbe402c72	-0.18766955
92	0x3ce01e9d	0.027358348
93	0xbe3095cc	-0.17244643
94	0x3e0e949a	0.13923874
95	0xbd4db258	-0.05021891
96	0x3e5783f1	0.21046425
97	0xbe1b54e9	-0.1516911
98	0x3cdc8002	0.026916508
99	0xbc356ac5	-0.011072819
100	0xbdcad528	-0.099039376
101	0x3e3aa928	0.1822859
102	0x3daa16a8	0.083051026
103	0x3d1c7645	0.038198728
104	0xbde6ca34	-0.11269036
105	0xbd90ece6	-0.07076435
106	0xbe0a9cff	-0.13536452
107	0x3d4479d6	0.047967754
108	0x3ce49d80	0.027907133
109	0xbc874e42	-0.016516808
110	0x3e24315d	0.16034456
111	0xbdd6bad8	-0.10484856
112	0xbdfc6296	-0.12323491
113	0x3e3289cc	0.17435378
114	0x3d6f2b96	0.058391176
115	0x3e0309df	0.12796734
116	0xbc4a7acb	-0.012358378
117	0xbdd48276	-0.10376446
118	0xbe818e2d	-0.25303784
119	0x3e105464	0.14094692
120	0x3def6952	0.1169001
121	0xbd0e206f	-0.0346989
122	0xbde4d7de	-0.11173986
123	0x3d4f1f25	0.05056681
124	0xbd64dbc3	-0.055873644
125	0xbdf298cc	-0.1184555
126	0x3e2f888e	0.17141935
127	0x3d6a3b09	0.057185207
128	0xbdc48aa0	-0.09596753
129	0x3e0e0edf	0.1387286
130	0xbd7e6fd8	-0.06211838
131	0xbc9580a0	-0.01824981
132	0xbc197afa	-0.009367699
133	0x3c9fc70c	0.019504093
134	0x3d823e14	0.06359497
135	0xbce8bfbe	-0.028411742
136	0x3de018cf	0.10942232
137	0xbc7f4f67	-0.015582896
138	0x3e21bd78	0.15794933
139	0xbdaf4aef	-0.08559214
140	0xbd180a11	-0.037118975
141	0xbde96431	-0.11396063
142	0x3dcde690	0.10053742
143	0x3e3353bc	0.17512411
144	0x3bbb0500	0.005707383
145	0x3d79f5aa	0.0610253
146	0xbde050b2	-0.109528914
147	0xbdd706d0	-0.10499346
148	0xbd372f5a	-0.044722892
149	0xba54b2b0	-0.0008113785
150	0xbb2d0bf0	-0.002640482
151	0xbe0f1e49	-0.13976397
152	0x3e1e67c4	0.15469271
153	0xbe0b6f7b	-0.13616745
154	0xbdc75646	-0.09733252
155	0xbde79d29	-0.11309273
156	0x3ce7c810	0.02829364
157	0x3cfea669	0.03108521
158	0xbd3e26ab	-0.046423595
159	0x3d842227	0.064518265
160	0xbe14413c	-0.1447801
161	0x3e043cad	0.12913771
162	0x3d0640e0	0.032776713
163	0xbe481b0f	-0.19541572
164	0xbd6af4da	-0.057362415
165	0x3d806172	0.06268586
166	0x3d445e68	0.047941595
167	0xbc3fd050	-0.01170738
168	0x3cedc473	0.029024338
169	0xbd319dbc	-0.043363318
170	0x3d38b314	0.045092657
171	0xbd7a5316	-0.061114393
172	0x3d2a47a0	0.041572213
173	0x3cf86f2c	0.030326448
174	0xbdb0321c	-0.086033076
175	0x3e028c3b	0.12748806
176	0x3e02b5b0	0.12764621
177	0x3d4db94b	0.050225537
178	0xbcb9c55a	-0.022677112
179	0xbdbd1470	-0.09232414
180	0xbd23a4e0	-0.03995216
181	0xbe4a7a24	-0.19773155
182	0xbc1fc990	-0.009752646
183	0x3e19a91a	0.15005913
184	0xbdabdb69	-0.083914585
185	0xbc63f49b	-0.013913299
186	0x3d916fa8	0.07101375
187	0xbdfaa5de	-0.12238668
188	0x3cf760e1	0.030197563
189	0xbe45e823	-0.19326834
190	0x3d1f9a36	0.038965426
191	0xbba2e5e0	-0.004971251
192	0xbe521951	-0.2051747
193	0x3b8d4340	0.0043109953
194	0x3ca51e9f	0.020156203
195	0xbdf3ee3a	-0.119106725
196	0xbd0f9972	-0.035058446
197	0x3e2b2cce	0.1671631
198	0x3dba89b6	0.091082975
199	0xbde1710e	-0.110078916
200	0x3c6fac5e	0.014628498
201	0xbdf19472	-0.11795892
202	0x3d9c3e19	0.07629032
203	0x3d09f003	0.03367616
204	0x3da4049c	0.08008692
205	0x3db41d5e	0.08794664
206	0x3d9c96ec	0.076459736
207	0xbde2c03e	-0.110718235
208	0x3e42be5d	0.1901793
209	0x3d2f3c16	0.04278191
210	0xbdc7d806	-0.09758
211	0x3da5669a	0.0807621
212	0xbd3726e6	-0.04471483
213	0x3d441bdb	0.047878128
214	0x3de1d196	0.110263035
215	0x3c9a2831	0.018817993
216	0xbd6e6dc0	-0.058210135
217	0xbd992c4d	-0.07479153
218	0x3dd34596	0.10316007
219	0xbdb9cebc	-0.090726346
220	0x3df3ee05	0.11910633
221	0xbe4df42f	-0.2011268
222	0xbdeb7c32	-0.11498298
223	0x3c624220	0.013809711
224	0x3c423251	0.011852817
225	0x3d3e424f	0.046449956
226	0xbba68487	-0.0050817165
227	0xbaab8104	-0.0013084714
228	0x3cf5b4c2	0.029993419
229	0xbd9f5821	-0.07780481
230	0xbd8d5520	-0.06901002
231	0xbcd0f4d2	-0.025507364
232	0xbd378d13	-0.044812273
233	0x3db120ef	0.0864886
234	0x3d9c9ceb	0.07647117
235	0x3d70889d	0.058724035
236	0x3bd2f852	0.0064382935
237	0x3e1fd4bc	0.15608495
238	0x3c67a6d6	0.014138898
239	0xbcaa3b45	-0.020780215
240	0x3e21c8ed	0.15799303
241	0xbe8d6bae	-0.27621216
242	0xbd9f2212	-0.0777017
243	0xbdb5672f	-0.08857571
244	0xbde92e62	-0.113858
245	0x3e1b346a	0.15156713
246	0xbdae6d78	-0.08516973
247	0x3dba6e6e	0.09103094
248	0x3be6e176	0.00704592
249	0x3d3cb41f	0.046070214
250	0x3d47b892	0.048760004
251	0xbd05b7e5	-0.03264608
252	0x3cd4ea80	0.025990725
253	0xbcf96e69	-0.030448155
254	0xbdc0f557	-0.09421795
255	0x3def8bc3	0.11696579

gru_value_1.bias_ih f4 [105]
0	0x00000000	0.0
1	0x00000000	0.0
2	0x00000000	0.0
3	0x00000000	0.0
4	0x00000000	0.0
5	0x00000000	0.0
6	0x00000000	0.0
7	0x00000000	0.0
8	0x00000000	0.0
9	0x00000000	0.0
10	0x00000000	0.0
11	0x00000000	0.0
12	0x00000000	0.0
13	0x00000000	0.0
14	0x00000000	0.0
15	0x00000000	0.0
16	0x00000000	0.0
17	0x00000000	0.0
18	0x00000000	0.0
19	0x00000000	0.0
20	0x00000000	0.0
21	0x00000000	0.0
22	0x00000000	0.0
23	0x00000000	0.0
24	0x00000000	0.0
25	0x00000000	0.0
26	0x00000000	0.0
27	0x00000000	0.0
28	0x00000000	0.0
29	0x00000000	0.0
30	0x00000000	0.0
31	0x00000000	0.0
32	0x00000000	0.0
33	0x00000000	0.0
34	0x00000000	0.0
35	0x00000000	0.0
36	0x00000000	0.0
37	0x00000000	0.0
38	0x00000000	0.0
39	0x00000000	0.0
40	0x00000000	0.0
41	0x00000000	0.0
42	0x00000000	0.0
43	0x00000000	0.0
44	0x00000000	0.0
45	0x00000000	0.0
46	0x00000000	0.0
47	0x00000000	0.0
48	0x00000000	0.0
49	0x00000000	0.0
50	0x00000000	0.0
51	0x00000000	0.0
52	0x00000000	0.0
53	0x00000000	0.0
54	0x00000000	0.0
55	0x00000000	0.0
56	0x00000000	0.0
57	0x00000000	0.0
58	0x00000000	0.0
59	0x00000000	0.0
60	0x00000000	0.0
61	0x00000000	0.0
62	0x00000000	0.0
63	0x00000000	0.0
64	0x00000000	0.0
65	0x00000000	0.0
66	0x00000000	0.0
67	0x00000000	0.0
68	0x00000000	0.0
69	0x00000000	0.0
70	0x00000000	0.0
71	0x00000000	0.0
72	0x00000000	0.0
73	0x00000000	0.0
74	0x00000000	0.0
75	0x00000000	0.0
76	0x00000000	0.0
77	0x00000000	0.0
78	0x00000000	0.0
79	0x00000000	0.0
80	0x00000000	0.0
81	0x00000000	0.0
82	0x00000000	0.0
83	0x00000000	0.0
84	0x00000000	0.0
85	0x00000000	0.0
86	0x00000000	0.0
87	0x00000000	0.0
88	0x00000000	0.0
89	0x00000000	0.0
90	0x00000000	0.0
91	0x00000000	0.0
92	0x00000000	0.0
93	0x00000000	0.0
94	0x00000000	0.0
95	0x00000000	0.0
96	0x00000000	0.0
97	0x00000000	0.0
98	0x00000000	0.0
99	0x00000000	0.0
100	0x00000000	0.0
101	0x00000000	0.0
102	0x00000000	0.0
103	0x00000000	0.0
104	0x00000000	0.0

gru_value_1.bias_hh f4 [105]
0	0x00000000	0.0
1	0x00000000	0.0
2	0x00000000	0.0
3	0x00000000	0.0
4	0x00000000	0.0
5	0x00000000	0.0
6	0x00000000	0.0
7	0x00000000	0.0
8	0x00000000	0.0
9	0x00000000	0.0
10	0x00000000	0.0
11	0x00000000	0.0
12	0x00000000	0.0
13	0x00000000	0.0
14	0x00000000	0.0
15	0x00000000	0.0
16	0x00000000	0.0
17	0x00000000	0.0
18	0x00000000	0.0
19	0x00000000	0.0
20	0x00000000	0.0
21	0x00000000	0.0
22	0x00000000	0.0
23	0x00000000	0.0
24	0x00000000	0.0
25	0x00000000	0.0
26	0x00000000	0.0
27	0x00000000	0.0
28	0x00000000	0.0
29	0x00000000	0.0
30	0x00000000	0.0
31	0x00000000	0.0
32	0x00000000	0.0
33	0x00000000	0.0
34	0x00000000	0.0
35	0x00000000	0.0
36	0x00000000	0.0
37	0x00000000	0.0
38	0x00000000	0.0
39	0x00000000	0.0
40	0x00000000	0.0
41	0x00000000	0.0
42	0x00000000	0.0
43	0x00000000	0.0
44	0x00000000	0.0
45	0x00000000	0.0
46	0x00000000	0.0
47	0x00000000	0.0
48	0x00000000	0.0
49	0x00000000	0.0
50	0x00000000	0.0
51	0x00000000	0.0
52	0x00000000	0.0
53	0x00000000	0.0
54	0x00000000	0.0
55	0x00000000	0.0
56	0x00000000	0.0
57	0x00000000	0.0
58	0x00000000	0.0
59	0x00000000	0.0
60	0x00000000	0.0
61	0x00000000	0.0
62	0x00000000	0.0
63	0x00000000	0.0
64	0x00000000	0.0
65	0x00000000	0.0
66	0x00000000	0.0
67	0x00000000	0.0
68	0x00000000	0.0
69	0x00000000	0.0
70	0x00000000	0.0
71	0x00000000	0.0
72	0x00000000	0.0
73	0x00000000	0.0
74	0x00000000	0.0
75	0x00000000	0.0
76	0x00000000	0.0
77	0x00000000	0.0
78	0x00000000	0.0
79	0x00000000	0.0
80	0x00000000	0.0
81	0x00000000	0.0
82	0x00000000	0.0
83	0x00000000	0.0
84	0x00000000	0.0
85	0x00000000	0.0
86	0x00000000	0.0
87	0x00000000	0.0
88	0x00000000	0.0
89	0x00000000	0.0
90	0x00000000	0.0
91	0x00000000	0.0
92	0x00000000	0.0
93	0x00000000	0.0
94	0x00000000	0.0
95	0x00000000	0.0
96	0x00000000	0.0
97	0x00000000	0.0
98	0x00000000	0.0
99	0x00000000	0.0
100	0x00000000	0.0
101	0x00000000	0.0
102	0x00000000	0.0
103	0x00000000	0.0
104	0x00000000	0.0

MLP_1.weight f4 [64, 35]
0	0x3dd8d20c	0.10586938
1	0x3e646090	0.2230246
2	0xbe0c5f08	-0.13708127
3	0xbdd9a2be	-0.10626744
4	0x3e4bd907	0.19907008
5	0x3e525de3	0.20543627
6	0x3badf28c	0.005308455
7	0x3c7c6b80	0.015406489
8	0xbd572eb7	-0.052534785
9	0x3ccc52fb	0.024941912
10	0x3e594f5d	0.21221681
11	0x3e1d01b4	0.15332681
12	0x3e21323b	0.15741818
13	0xbe69ff8b	-0.22851388
14	0xbe10e99d	-0.14151616
15	0x3e6d1ca8	0.23155463
16	0x3c82c18c	0.015961431
17	0xbc719b88	-0.014746554
18	0x3d443ee7	0.04791155
19	0x3e50f4ad	0.20405836
20	0x3dd4f358	0.10397977
21	0xbe4e6a53	-0.20157747
22	0xbdc2149e	-0.09476589
23	0xbe2c5c94	-0.16832191
24	0xbc8264c9	-0.015917199
25	0x3e3c5c33	0.18394546
26	0x3cf78588	0.03021504
27	0x3c1efb0c	0.009703409
28	0x3bcf4b91	0.006326147
29	0xbd08776b	-0.03331701
30	0x3d2c307b	0.042038422
31	0x3ee611b8	0.44935393
32	0xbce012f4	-0.027352788
33	0xbec823c0	-0.39089775
34	0xbe8eac77	-0.27865955
35	0x3d8616b1	0.06547297
36	0xbe35ebf2	-0.17765787
37	0x3da4c9e8	0.08046323
38	0xbe53f415	-0.20698579
39	0x3dbf6b99	0.093466945
40	0xbd550118	-0.052002996
41	0x3c6535f9	0.013989919
42	0xbdd5dad2	-0.10442127
43	0x3e874354	0.26418555
44	0xbe519cab	-0.2046992
45	0xba8c8013	-0.0010719321
46	0xbeae6068	-0.34057927
47	0x3c947065	0.01812
48	0x3d8954d8	0.06705636
49	0x3e6818af	0.22665666
50	0x3e958eca	0.29210502
51	0xbe6a7e18	-0.22899663
52	0xbe215340	-0.15754414
53	0xbe8abfa1	-0.27099326
54	0x3dc0a2a9	0.09406025
55	0xbd9c950f	-0.07645618
56	0xbe5839ed	-0.21115847
57	0xbde4a8f6	-0.11165039
58	0xbe7674bd	-0.2406797
59	0xbd9164e1	-0.07099319
60	0x3e7ad3c1	0.2449484
61	0x3e10eee9	0.14153637
62	0xbd4e4bb8	-0.05036518
63	0xbdd62311	-0.10455907
64	0x3e0a9e3f	0.13536929
65	0xbd96e861	-0.073685415
66	0xbdf978f1	-0.12181271
67	0x3db38765	0.08766059
68	0xbb828f60	-0.003984377
69	0xbea02dad	-0.31284848
70	0xbeacd0e7	-0.3375313
71	0xbc10aa53	-0.008829671
72	0x3db3d872	0.08781518
73	0xbdf89fda	-0.12139864
74	0x3c852299	0.016251849
75	0x3e49d2b8	0.19709289
76	0x3d10fe44	0.035398737
77	0x3e2f07b2	0.1709278
78	0x3d937875	0.0720071
79	0x3dcadbaf	0.099051826
80	0xbecd1cf2	-0.40061146
81	0x3dd6dc80	0.10491276
82	0xbd2ba4b6	-0.041905127
83	0xbe0a67e4	-0.13516194
84	0xbcd874d5	-0.026422897
85	0xbe80c09a	-0.25146943
86	0xbe38180b	-0.17977922
87	0xbe1c1bf7	-0.15245043
88	0x3e3c571e	0.18392608
89	0xbc898ae4	-0.016789861
90	0x3e354b04	0.17704397
91	0x3e343a36	0.1760033
92	0xbda60429	-0.08106262
93	0xbe8deb1a	-0.2771843
94	0x3e24ccd8	0.16093767
95	0x3e109622	0.14119771
96	0xbe4e9957	-0.20175682
97	0x3e3efc73	0.18650989
98	0x3d169c9b	0.036770444
99	0x3d99beb0	0.07507074
100	0xbd61c4e9	-0.05511943
101	0x3e7ea070	0.2486589
102	0x3dde67b0	0.108596206
103	0xbe8d6cd6	-0.27622098
104	0x3da96070	0.08270347
105	0x3d571cc9	0.052517686
106	0x3e4eda9e	0.20200583
107	0x3c3a378f	0.011365785
108	0xbcb33a8f	-0.021878509
109	0x3e78b920	0.2428937
110	0xbe6592fc	-0.22419351
111	0x3caa744c	0.020807408
112	0xbe0f4d5b	-0.13994353
113	0xbe1eb6e4	-0.15499455
114	0xbe533a4a	-0.20627704
115	0xbea1b62e	-0.31584305
116	0xbdbbd115	-0.091707386
117	0x3da4ab59	0.080404945
118	0x3de5bce8	0.11217672
119	0xbd8d0e81	-0.06887532
120	0xbd2c409c	-0.042053804
121	0xbde6bd84	-0.11266616
122	0x3e33353e	0.17500779
123	0x3e604f27	0.21905194
124	0xbe4b9528	-0.19881117
125	0x3e9682cc	0.29396665
126	0x3e137781	0.14401056
127	0xbe5307ef	-0.20608495
128	0x3d270849	0.040779386
129	0xbd370e5b	-0.044691425
130	0xbe56aea5	-0.20965059
131	0xbe203928	-0.15646803
132	0xbdb7d6bc	-0.08976504
133	0x3e0d4bb6	0.13798413
134	0x3e87f501	0.2655411
135	0x3d09e405	0.033664722
136	0xbd605adb	-0.054774147
137	0xbe464ff6	-0.1936644
138	0x3eb0e4b2	0.3454948
139	0xbdfb7ebc	-0.12280032
140	0x3eae031a	0.3398674
141	0xbe57f675	-0.2109011
142	0x3e90844d	0.28225937
143	0xbcf43074	-0.02980826
144	0x3db31082	0.08743383
145	0x3e2209db	0.15824072
146	0xbeb72c8d	-0.35776177
147	0xbdece6ac	-0.11567435
148	0xbde75b0b	-0.11296662
149	0xbe10deaf	-0.14147447
150	0xbe521208	-0.20514691
151	0x3e4d2e6b	0.20037238
152	0x3d45d2bf	0.048296686
153	0xbd799208	-0.060930282
154	0x3d3534c0	0.04423976
155	0x3e003c63	0.12523036
156	0x3e4e698d	0.20157452
157	0x3dafc9c1	0.085834034
158	0x3cd32459	0.025774168
159	0xbe2ef7ae	-0.1708667
160	0x3d849b25	0.06474904
161	0x3d5a8417	0.053348627
162	0xbdb7a4a1	-0.08966947
163	0x3d3a1a37	0.045435157
164	0xbe0fc294	-0.1403907
165	0xbe45644a	-0.19276538
166	0x3e8ab23b	0.27089104
167	0x3e5356e6	0.20638618
168	0xbe08bb6e	-0.13352749
169	0x3ea34e7d	0.3189582
170	0xbe59e0ee	-0.2127721
171	0xbdb4c1c5	-0.08826021
172	0x3c630f9c	0.013858702
173	0xbd9d9e28	-0.076961815
174	0x3c2a88b7	0.010408572
175	0xbd263e78	-0.04058692
176	0xbbbb7d2f	-0.00572171
177	0xbddb40a7	-0.10705691
178	0x3d609f19	0.054839227
179	0xbd12ac6a	-0.035808958
180	0xbdb91f13	-0.0903913
181	0x3e117170	0.14203429
182	0xbdc06cfc	-0.09395787
183	0xbe10105a	-0.14068738
184	0x3cdec6ec	0.027194463
185	0x3ed5ac72	0.41733128
186	0x3daa652e	0.0832008
187	0x3d898ca0	0.06716275
188	0xbe05494f	-0.13016246
189	0xbe294077	-0.16528498
190	0x3bedab13	0.0072530597
191	0x3d5fcebc	0.054640517
192	0x3e08119a	0.13287964
193	0x3e25aa55	0.16178258
194	0x3e064357	0.13111626
195	0xbeb3bb92	-0.35104042
196	0x3e06fcd3	0.13182382
197	0x3ed142f3	0.4087139
198	0x3e3498df	0.1763644
199	0x3e9ee1b0	0.3103156
200	0xbe005cb3	-0.12535362
201	0xbe86d2de	-0.26332754
202	0x3e2107da	0.15725651
203	0x3c0231d5	0.007946451
204	0xbc5fcb42	-0.0136593
205	0x3ced5f3f	0.028976081
206	0xbe6e3b9c	-0.23264927
207	0x3d57d2b6	0.052691184
208	0xbddb3ca0	-0.10704923
209	0xbe042640	-0.12905216
210	0xbcc815d9	-0.02442448
211	0xbe0fee07	-0.14055644
212	0x3e017a22	0.12644246
213	0x3db90366	0.09033851
214	0x3d9d8d66	0.07692985
215	0x3cc756b0	0.024333328
216	0x3efa1a44	0.48848164
217	0xbe010462	-0.12599328
218	0xbcd91a52	-0.026501808
219	0x3cf6b8de	0.030117448
220	0x3d40d5c1	0.04707885
221	0x3e8c6048	0.27417207
222	0xbccb223b	-0.024796596
223	0x3cb33edb	0.021880558
224	0xbd3f48c4	-0.046700254
225	0x3d5df3e4	0.05418767
226	0x3e4467dd	0.19180246
227	0xbe46fc9f	-0.19432305
228	0xbeb95fd2	-0.36205918
229	0x3d93c617	0.07215517
230	0xbc7bfdb4	-0.015380312
231	0x3c96cdd5	0.018408695
232	0xbd53cd70	-0.051709592
233	0x3e0fa178	0.14026439
234	0x3df40a70	0.11916053
235	0xbe2bd6ee	-0.16781208
236	0x3ea89efa	0.3293379
237	0x3ca65a45	0.020306716
238	0x3d9bd4e4	0.07608965
239	0x3cca73e0	0.024713457
240	0x3e961133	0.29309997
241	0x3d8f2ee6	0.06991367
242	0xbe59ddc2	-0.21276
243	0x3d4748eb	0.048653524
244	0x3e905391	0.28188756
245	0x3c92b823	0.017910069
246	0xbeff05b6	-0.49809045
247	0xbe6dafe3	-0.23211627
248	0xbe18d3f5	-0.14924605
249	0x3d567724	0.052359715
250	0xbddaa6e0	-0.1067636
251	0x3e82f46a	0.25577098
252	0x3e8eaf84	0.27868283
253	0xbe2b3af0	-0.16721702
254	0x3e49493a	0.1965684
255	0x3acd7d18	0.001567754

MLP_1.bias f4 [64]
0	0x00000000	0.0
1	0x00000000	0.0
2	0x00000000	0.0
3	0x00000000	0.0
4	0x00000000	0.0
5	0x00000000	0.0
6	0x00000000	0.0
7	0x00000000	0.0
8	0x00000000	0.0
9	0x00000000	0.0
10	0x00000000	0.0
11	0x00000000	0.0
12	0x00000000	0.0
13	0x00000000	0.0
14	0x00000000	0.0
15	0x00000000	0.0
16	0x00000000	0.0
17	0x00000000	0.0
18	0x00000000	0.0
19	0x00000000	0.0
20	0x00000000	0.0
21	0x00000000	0.0
22	0x00000000	0.0
23	0x00000000	0.0
24	0x00000000	0.0
25	0x00000000	0.0
26	0x00000000	0.0
27	0x00000000	0.0
28	0x00000000	0.0
29	0x00000000	0.0
30	0x00000000	0.0
31	0x00000000	0.0
32	0x00000000	0.0
33	0x00000000	0.0
34	0x00000000	0.0
35	0x00000000	0.0
36	0x00000000	0.0
37	0x00000000	0.0
38	0x00000000	0.0
39	0x00000000	0.0
40	0x00000000	0.0
41	0x00000000	0.0
42	0x00000000	0.0
43	0x00000000	0.0
44	0x00000000	0.0
45	0x00000000	0.0
46	0x00000000	0.0
47	0x00000000	0.0
48	0x00000000	0.0
49	0x00000000	0.0
50	0x00000000	0.0
51	0x00000000	0.0
52	0x00000000	0.0
53	0x00000000	0.0
54	0x00000000	0.0
55	0x00000000	0.0
56	0x00000000	0.0
57	0x00000000	0.0
58	0x00000000	0.0
59	0x00000000	0.0
60	0x00000000	0.0
61	0x00000000	0.0
62	0x00000000	0.0
63	0x00000000	0.0

MLP_2.weight f4 [1, 64]
0	0xbd7e41ad	-0.062074352
1	0x3e0bb1c4	0.13642031
2	0xbd6ad13f	-0.05732846
3	0xbd88e664	-0.066845685
4	0x3db9bec5	0.090695895
5	0xbd4ab51b	-0.049489122
6	0xbcaefe1c	-0.021361403
7	0x3caea2d5	0.021317879
8	0x3d90d6d5	0.07072226
9	0x3e4e90a5	0.20172365
10	0xbde3db25	-0.11125783
11	0xbde653d9	-0.112464614
12	0xbdc84b4b	-0.09779986
13	0x3db76d6b	0.08956417
14	0x3d33e59d	0.04392015
15	0xbe74f284	-0.23920637
16	0xbc4feba2	-0.012690457
17	0x3dee41ae	0.11633621
18	0xbd2169c1	-0.039407495
19	0x3e161ef0	0.14660239
20	0x3e657902	0.22409442
21	0xbe9befa4	-0.3045627
22	0xbe6495bc	-0.22322744
23	0xbd314a4e	-0.043283753
24	0x3da5ec30	0.0810169
25	0x3d5e62f5	0.05429359
26	0x3e017128	0.12640822
27	0xbd4dcc39	-0.05024359
28	0xbe63c4b7	-0.2224301
29	0x3e1421fe	0.14466092
30	0x3d3f09a5	0.046640057
31	0x3c770879	0.015077704
32	0xbd1a238f	-0.037631568
33	0xbaa165eb	-0.0012313699
34	0xbd9910c8	-0.07473904
35	0x3e93a773	0.2883869
36	0x3dbf6a5f	0.093464606
37	0xbd83dc77	-0.06438535
38	0x3d4342ab	0.047671
39	0x3d365893	0.044518065
40	0x3d6722e0	0.056429744
41	0xbc0b735f	-0.008511393
42	0x3ded6d5f	0.115931265
43	0x3ca0bccd	0.019621277
44	0xbd47e935	-0.048806388
45	0xbe3debf2	-0.18547037
46	0x3e24e2d7	0.16102158
47	0x3bcc51f3	0.006235355
48	0x3db017e1	0.085983045
49	0xbe87c4be	-0.2651729
50	0x3c309c37	0.010779432
51	0x3dc6ba88	0.09703547
52	0x3db6c9e4	0.08925226
53	0xbc2d5d8b	-0.010581384
54	0xbdee5754	-0.1163775
55	0xbc208fa5	-0.0097998725
56	0xbd966d26	-0.07345037
57	0xbeb2ad9d	-0.3489808
58	0x3d83d5db	0.06437274
59	0x3d49ba1a	0.049249746
60	0x3e472a87	0.19449817
61	0xbd02a46e	-0.031895094
62	0xbd85676e	-0.06513868
63	0xbd98bc35	-0.07457773
